{"format": "layers-model", "generatedBy": "keras v2.2.4-tf", "convertedBy": "TensorFlow.js Converter v2.7.0", "modelTopology": {"keras_version": "2.2.4-tf", "backend": "tensorflow", "model_config": {"class_name": "Model", "config": {"name": "model", "layers": [{"name": "input_0", "class_name": "InputLayer", "config": {"batch_input_shape": [null, 3, null, null], "dtype": "float32", "sparse": false, "ragged": false, "name": "input_0"}, "inbound_nodes": []}, {"name": "335_pad", "class_name": "ZeroPadding2D", "config": {"name": "335_pad", "trainable": true, "dtype": "float32", "padding": [[1, 1], [1, 1]], "data_format": "channels_first"}, "inbound_nodes": [[["input_0", 0, 0, {}]]]}, {"name": "335", "class_name": "Conv2D", "config": {"name": "335", "trainable": true, "dtype": "float32", "filters": 16, "kernel_size": [3, 3], "strides": [2, 2], "padding": "valid", "data_format": "channels_first", "dilation_rate": [1, 1], "activation": "linear", "use_bias": false, "kernel_initializer": {"class_name": "Zeros", "config": {"dtype": "float32"}}, "bias_initializer": {"class_name": "Zeros", "config": {"dtype": "float32"}}, "kernel_regularizer": null, "bias_regularizer": null, "activity_regularizer": null, "kernel_constraint": null, "bias_constraint": null}, "inbound_nodes": [[["335_pad", 0, 0, {}]]]}, {"name": "336", "class_name": "BatchNormalization", "config": {"name": "336", "trainable": true, "dtype": "float32", "axis": [1], "momentum": 0.8999999761581421, "epsilon": 9.999999747378752e-06, "center": true, "scale": true, "beta_initializer": {"class_name": "Zeros", "config": {"dtype": "float32"}}, "gamma_initializer": {"class_name": "Ones", "config": {"dtype": "float32"}}, "moving_mean_initializer": {"class_name": "Zeros", "config": {"dtype": "float32"}}, "moving_variance_initializer": {"class_name": "Ones", "config": {"dtype": "float32"}}, "beta_regularizer": null, "gamma_regularizer": null, "beta_constraint": null, "gamma_constraint": null}, "inbound_nodes": [[["335", 0, 0, {}]]]}, {"name": "337", "class_name": "Activation", "config": {"name": "337", "trainable": true, "dtype": "float32", "activation": "relu"}, "inbound_nodes": [[["336", 0, 0, {}]]]}, {"name": "338_pad", "class_name": "ZeroPadding2D", "config": {"name": "338_pad", "trainable": true, "dtype": "float32", "padding": [[1, 1], [1, 1]], "data_format": "channels_first"}, "inbound_nodes": [[["337", 0, 0, {}]]]}, {"name": "338", "class_name": "DepthwiseConv2D", "config": {"name": "338", "trainable": true, "dtype": "float32", "kernel_size": [3, 3], "strides": [1, 1], "padding": "valid", "data_format": "channels_first", "dilation_rate": [1, 1], "activation": "linear", "use_bias": false, "bias_initializer": {"class_name": "Zeros", "config": {"dtype": "float32"}}, "bias_regularizer": null, "activity_regularizer": null, "bias_constraint": null, "depth_multiplier": 1, "depthwise_initializer": {"class_name": "GlorotUniform", "config": {"seed": null, "dtype": "float32"}}, "depthwise_regularizer": null, "depthwise_constraint": null}, "inbound_nodes": [[["338_pad", 0, 0, {}]]]}, {"name": "339", "class_name": "BatchNormalization", "config": {"name": "339", "trainable": true, "dtype": "float32", "axis": [1], "momentum": 0.8999999761581421, "epsilon": 9.999999747378752e-06, "center": true, "scale": true, "beta_initializer": {"class_name": "Zeros", "config": {"dtype": "float32"}}, "gamma_initializer": {"class_name": "Ones", "config": {"dtype": "float32"}}, "moving_mean_initializer": {"class_name": "Zeros", "config": {"dtype": "float32"}}, "moving_variance_initializer": {"class_name": "Ones", "config": {"dtype": "float32"}}, "beta_regularizer": null, "gamma_regularizer": null, "beta_constraint": null, "gamma_constraint": null}, "inbound_nodes": [[["338", 0, 0, {}]]]}, {"name": "340", "class_name": "Activation", "config": {"name": "340", "trainable": true, "dtype": "float32", "activation": "relu"}, "inbound_nodes": [[["339", 0, 0, {}]]]}, {"name": "341", "class_name": "Conv2D", "config": {"name": "341", "trainable": true, "dtype": "float32", "filters": 16, "kernel_size": [1, 1], "strides": [1, 1], "padding": "valid", "data_format": "channels_first", "dilation_rate": [1, 1], "activation": "linear", "use_bias": false, "kernel_initializer": {"class_name": "Zeros", "config": {"dtype": "float32"}}, "bias_initializer": {"class_name": "Zeros", "config": {"dtype": "float32"}}, "kernel_regularizer": null, "bias_regularizer": null, "activity_regularizer": null, "kernel_constraint": null, "bias_constraint": null}, "inbound_nodes": [[["340", 0, 0, {}]]]}, {"name": "342", "class_name": "BatchNormalization", "config": {"name": "342", "trainable": true, "dtype": "float32", "axis": [1], "momentum": 0.8999999761581421, "epsilon": 9.999999747378752e-06, "center": true, "scale": true, "beta_initializer": {"class_name": "Zeros", "config": {"dtype": "float32"}}, "gamma_initializer": {"class_name": "Ones", "config": {"dtype": "float32"}}, "moving_mean_initializer": {"class_name": "Zeros", "config": {"dtype": "float32"}}, "moving_variance_initializer": {"class_name": "Ones", "config": {"dtype": "float32"}}, "beta_regularizer": null, "gamma_regularizer": null, "beta_constraint": null, "gamma_constraint": null}, "inbound_nodes": [[["341", 0, 0, {}]]]}, {"name": "343", "class_name": "Add", "config": {"name": "343", "trainable": true, "dtype": "float32"}, "inbound_nodes": [[["337", 0, 0, {}], ["342", 0, 0, {}]]]}, {"name": "344", "class_name": "Conv2D", "config": {"name": "344", "trainable": true, "dtype": "float32", "filters": 64, "kernel_size": [1, 1], "strides": [1, 1], "padding": "valid", "data_format": "channels_first", "dilation_rate": [1, 1], "activation": "linear", "use_bias": false, "kernel_initializer": {"class_name": "Zeros", "config": {"dtype": "float32"}}, "bias_initializer": {"class_name": "Zeros", "config": {"dtype": "float32"}}, "kernel_regularizer": null, "bias_regularizer": null, "activity_regularizer": null, "kernel_constraint": null, "bias_constraint": null}, "inbound_nodes": [[["343", 0, 0, {}]]]}, {"name": "345", "class_name": "BatchNormalization", "config": {"name": "345", "trainable": true, "dtype": "float32", "axis": [1], "momentum": 0.8999999761581421, "epsilon": 9.999999747378752e-06, "center": true, "scale": true, "beta_initializer": {"class_name": "Zeros", "config": {"dtype": "float32"}}, "gamma_initializer": {"class_name": "Ones", "config": {"dtype": "float32"}}, "moving_mean_initializer": {"class_name": "Zeros", "config": {"dtype": "float32"}}, "moving_variance_initializer": {"class_name": "Ones", "config": {"dtype": "float32"}}, "beta_regularizer": null, "gamma_regularizer": null, "beta_constraint": null, "gamma_constraint": null}, "inbound_nodes": [[["344", 0, 0, {}]]]}, {"name": "346", "class_name": "Activation", "config": {"name": "346", "trainable": true, "dtype": "float32", "activation": "relu"}, "inbound_nodes": [[["345", 0, 0, {}]]]}, {"name": "347_pad", "class_name": "ZeroPadding2D", "config": {"name": "347_pad", "trainable": true, "dtype": "float32", "padding": [[1, 1], [1, 1]], "data_format": "channels_first"}, "inbound_nodes": [[["346", 0, 0, {}]]]}, {"name": "347", "class_name": "DepthwiseConv2D", "config": {"name": "347", "trainable": true, "dtype": "float32", "kernel_size": [3, 3], "strides": [2, 2], "padding": "valid", "data_format": "channels_first", "dilation_rate": [1, 1], "activation": "linear", "use_bias": false, "bias_initializer": {"class_name": "Zeros", "config": {"dtype": "float32"}}, "bias_regularizer": null, "activity_regularizer": null, "bias_constraint": null, "depth_multiplier": 1, "depthwise_initializer": {"class_name": "GlorotUniform", "config": {"seed": null, "dtype": "float32"}}, "depthwise_regularizer": null, "depthwise_constraint": null}, "inbound_nodes": [[["347_pad", 0, 0, {}]]]}, {"name": "348", "class_name": "BatchNormalization", "config": {"name": "348", "trainable": true, "dtype": "float32", "axis": [1], "momentum": 0.8999999761581421, "epsilon": 9.999999747378752e-06, "center": true, "scale": true, "beta_initializer": {"class_name": "Zeros", "config": {"dtype": "float32"}}, "gamma_initializer": {"class_name": "Ones", "config": {"dtype": "float32"}}, "moving_mean_initializer": {"class_name": "Zeros", "config": {"dtype": "float32"}}, "moving_variance_initializer": {"class_name": "Ones", "config": {"dtype": "float32"}}, "beta_regularizer": null, "gamma_regularizer": null, "beta_constraint": null, "gamma_constraint": null}, "inbound_nodes": [[["347", 0, 0, {}]]]}, {"name": "349", "class_name": "Activation", "config": {"name": "349", "trainable": true, "dtype": "float32", "activation": "relu"}, "inbound_nodes": [[["348", 0, 0, {}]]]}, {"name": "350", "class_name": "Conv2D", "config": {"name": "350", "trainable": true, "dtype": "float32", "filters": 24, "kernel_size": [1, 1], "strides": [1, 1], "padding": "valid", "data_format": "channels_first", "dilation_rate": [1, 1], "activation": "linear", "use_bias": false, "kernel_initializer": {"class_name": "Zeros", "config": {"dtype": "float32"}}, "bias_initializer": {"class_name": "Zeros", "config": {"dtype": "float32"}}, "kernel_regularizer": null, "bias_regularizer": null, "activity_regularizer": null, "kernel_constraint": null, "bias_constraint": null}, "inbound_nodes": [[["349", 0, 0, {}]]]}, {"name": "351", "class_name": "BatchNormalization", "config": {"name": "351", "trainable": true, "dtype": "float32", "axis": [1], "momentum": 0.8999999761581421, "epsilon": 9.999999747378752e-06, "center": true, "scale": true, "beta_initializer": {"class_name": "Zeros", "config": {"dtype": "float32"}}, "gamma_initializer": {"class_name": "Ones", "config": {"dtype": "float32"}}, "moving_mean_initializer": {"class_name": "Zeros", "config": {"dtype": "float32"}}, "moving_variance_initializer": {"class_name": "Ones", "config": {"dtype": "float32"}}, "beta_regularizer": null, "gamma_regularizer": null, "beta_constraint": null, "gamma_constraint": null}, "inbound_nodes": [[["350", 0, 0, {}]]]}, {"name": "352", "class_name": "Conv2D", "config": {"name": "352", "trainable": true, "dtype": "float32", "filters": 72, "kernel_size": [1, 1], "strides": [1, 1], "padding": "valid", "data_format": "channels_first", "dilation_rate": [1, 1], "activation": "linear", "use_bias": false, "kernel_initializer": {"class_name": "Zeros", "config": {"dtype": "float32"}}, "bias_initializer": {"class_name": "Zeros", "config": {"dtype": "float32"}}, "kernel_regularizer": null, "bias_regularizer": null, "activity_regularizer": null, "kernel_constraint": null, "bias_constraint": null}, "inbound_nodes": [[["351", 0, 0, {}]]]}, {"name": "353", "class_name": "BatchNormalization", "config": {"name": "353", "trainable": true, "dtype": "float32", "axis": [1], "momentum": 0.8999999761581421, "epsilon": 9.999999747378752e-06, "center": true, "scale": true, "beta_initializer": {"class_name": "Zeros", "config": {"dtype": "float32"}}, "gamma_initializer": {"class_name": "Ones", "config": {"dtype": "float32"}}, "moving_mean_initializer": {"class_name": "Zeros", "config": {"dtype": "float32"}}, "moving_variance_initializer": {"class_name": "Ones", "config": {"dtype": "float32"}}, "beta_regularizer": null, "gamma_regularizer": null, "beta_constraint": null, "gamma_constraint": null}, "inbound_nodes": [[["352", 0, 0, {}]]]}, {"name": "354", "class_name": "Activation", "config": {"name": "354", "trainable": true, "dtype": "float32", "activation": "relu"}, "inbound_nodes": [[["353", 0, 0, {}]]]}, {"name": "355_pad", "class_name": "ZeroPadding2D", "config": {"name": "355_pad", "trainable": true, "dtype": "float32", "padding": [[1, 1], [1, 1]], "data_format": "channels_first"}, "inbound_nodes": [[["354", 0, 0, {}]]]}, {"name": "355", "class_name": "DepthwiseConv2D", "config": {"name": "355", "trainable": true, "dtype": "float32", "kernel_size": [3, 3], "strides": [1, 1], "padding": "valid", "data_format": "channels_first", "dilation_rate": [1, 1], "activation": "linear", "use_bias": false, "bias_initializer": {"class_name": "Zeros", "config": {"dtype": "float32"}}, "bias_regularizer": null, "activity_regularizer": null, "bias_constraint": null, "depth_multiplier": 1, "depthwise_initializer": {"class_name": "GlorotUniform", "config": {"seed": null, "dtype": "float32"}}, "depthwise_regularizer": null, "depthwise_constraint": null}, "inbound_nodes": [[["355_pad", 0, 0, {}]]]}, {"name": "356", "class_name": "BatchNormalization", "config": {"name": "356", "trainable": true, "dtype": "float32", "axis": [1], "momentum": 0.8999999761581421, "epsilon": 9.999999747378752e-06, "center": true, "scale": true, "beta_initializer": {"class_name": "Zeros", "config": {"dtype": "float32"}}, "gamma_initializer": {"class_name": "Ones", "config": {"dtype": "float32"}}, "moving_mean_initializer": {"class_name": "Zeros", "config": {"dtype": "float32"}}, "moving_variance_initializer": {"class_name": "Ones", "config": {"dtype": "float32"}}, "beta_regularizer": null, "gamma_regularizer": null, "beta_constraint": null, "gamma_constraint": null}, "inbound_nodes": [[["355", 0, 0, {}]]]}, {"name": "357", "class_name": "Activation", "config": {"name": "357", "trainable": true, "dtype": "float32", "activation": "relu"}, "inbound_nodes": [[["356", 0, 0, {}]]]}, {"name": "358", "class_name": "Conv2D", "config": {"name": "358", "trainable": true, "dtype": "float32", "filters": 24, "kernel_size": [1, 1], "strides": [1, 1], "padding": "valid", "data_format": "channels_first", "dilation_rate": [1, 1], "activation": "linear", "use_bias": false, "kernel_initializer": {"class_name": "Zeros", "config": {"dtype": "float32"}}, "bias_initializer": {"class_name": "Zeros", "config": {"dtype": "float32"}}, "kernel_regularizer": null, "bias_regularizer": null, "activity_regularizer": null, "kernel_constraint": null, "bias_constraint": null}, "inbound_nodes": [[["357", 0, 0, {}]]]}, {"name": "359", "class_name": "BatchNormalization", "config": {"name": "359", "trainable": true, "dtype": "float32", "axis": [1], "momentum": 0.8999999761581421, "epsilon": 9.999999747378752e-06, "center": true, "scale": true, "beta_initializer": {"class_name": "Zeros", "config": {"dtype": "float32"}}, "gamma_initializer": {"class_name": "Ones", "config": {"dtype": "float32"}}, "moving_mean_initializer": {"class_name": "Zeros", "config": {"dtype": "float32"}}, "moving_variance_initializer": {"class_name": "Ones", "config": {"dtype": "float32"}}, "beta_regularizer": null, "gamma_regularizer": null, "beta_constraint": null, "gamma_constraint": null}, "inbound_nodes": [[["358", 0, 0, {}]]]}, {"name": "360", "class_name": "Add", "config": {"name": "360", "trainable": true, "dtype": "float32"}, "inbound_nodes": [[["351", 0, 0, {}], ["359", 0, 0, {}]]]}, {"name": "361", "class_name": "Conv2D", "config": {"name": "361", "trainable": true, "dtype": "float32", "filters": 72, "kernel_size": [1, 1], "strides": [1, 1], "padding": "valid", "data_format": "channels_first", "dilation_rate": [1, 1], "activation": "linear", "use_bias": false, "kernel_initializer": {"class_name": "Zeros", "config": {"dtype": "float32"}}, "bias_initializer": {"class_name": "Zeros", "config": {"dtype": "float32"}}, "kernel_regularizer": null, "bias_regularizer": null, "activity_regularizer": null, "kernel_constraint": null, "bias_constraint": null}, "inbound_nodes": [[["360", 0, 0, {}]]]}, {"name": "362", "class_name": "BatchNormalization", "config": {"name": "362", "trainable": true, "dtype": "float32", "axis": [1], "momentum": 0.8999999761581421, "epsilon": 9.999999747378752e-06, "center": true, "scale": true, "beta_initializer": {"class_name": "Zeros", "config": {"dtype": "float32"}}, "gamma_initializer": {"class_name": "Ones", "config": {"dtype": "float32"}}, "moving_mean_initializer": {"class_name": "Zeros", "config": {"dtype": "float32"}}, "moving_variance_initializer": {"class_name": "Ones", "config": {"dtype": "float32"}}, "beta_regularizer": null, "gamma_regularizer": null, "beta_constraint": null, "gamma_constraint": null}, "inbound_nodes": [[["361", 0, 0, {}]]]}, {"name": "363", "class_name": "Activation", "config": {"name": "363", "trainable": true, "dtype": "float32", "activation": "relu"}, "inbound_nodes": [[["362", 0, 0, {}]]]}, {"name": "364_pad", "class_name": "ZeroPadding2D", "config": {"name": "364_pad", "trainable": true, "dtype": "float32", "padding": [[2, 2], [2, 2]], "data_format": "channels_first"}, "inbound_nodes": [[["363", 0, 0, {}]]]}, {"name": "364", "class_name": "DepthwiseConv2D", "config": {"name": "364", "trainable": true, "dtype": "float32", "kernel_size": [5, 5], "strides": [2, 2], "padding": "valid", "data_format": "channels_first", "dilation_rate": [1, 1], "activation": "linear", "use_bias": false, "bias_initializer": {"class_name": "Zeros", "config": {"dtype": "float32"}}, "bias_regularizer": null, "activity_regularizer": null, "bias_constraint": null, "depth_multiplier": 1, "depthwise_initializer": {"class_name": "GlorotUniform", "config": {"seed": null, "dtype": "float32"}}, "depthwise_regularizer": null, "depthwise_constraint": null}, "inbound_nodes": [[["364_pad", 0, 0, {}]]]}, {"name": "365", "class_name": "BatchNormalization", "config": {"name": "365", "trainable": true, "dtype": "float32", "axis": [1], "momentum": 0.8999999761581421, "epsilon": 9.999999747378752e-06, "center": true, "scale": true, "beta_initializer": {"class_name": "Zeros", "config": {"dtype": "float32"}}, "gamma_initializer": {"class_name": "Ones", "config": {"dtype": "float32"}}, "moving_mean_initializer": {"class_name": "Zeros", "config": {"dtype": "float32"}}, "moving_variance_initializer": {"class_name": "Ones", "config": {"dtype": "float32"}}, "beta_regularizer": null, "gamma_regularizer": null, "beta_constraint": null, "gamma_constraint": null}, "inbound_nodes": [[["364", 0, 0, {}]]]}, {"name": "372", "class_name": "ZeroPadding2D", "config": {"name": "372", "trainable": true, "dtype": "float32", "padding": [[0, 0], [0, 0]], "data_format": "channels_first"}, "inbound_nodes": [[["365", 0, 0, {}]]]}, {"name": "373", "class_name": "AveragePooling2D", "config": {"name": "373", "trainable": true, "dtype": "float32", "pool_size": [56, 56], "padding": "valid", "strides": [56, 56], "data_format": "channels_first"}, "inbound_nodes": [[["372", 0, 0, {}]]]}, {"name": "377", "class_name": "Reshape", "config": {"name": "377", "trainable": true, "dtype": "float32", "target_shape": [72]}, "inbound_nodes": [[["373", 0, 0, {}]]]}, {"name": "378", "class_name": "Dense", "config": {"name": "378", "trainable": true, "dtype": "float32", "units": 24, "activation": "linear", "use_bias": true, "kernel_initializer": {"class_name": "Zeros", "config": {"dtype": "float32"}}, "bias_initializer": {"class_name": "Zeros", "config": {"dtype": "float32"}}, "kernel_regularizer": null, "bias_regularizer": null, "activity_regularizer": null, "kernel_constraint": null, "bias_constraint": null}, "inbound_nodes": [[["377", 0, 0, {}]]]}, {"name": "379", "class_name": "Activation", "config": {"name": "379", "trainable": true, "dtype": "float32", "activation": "relu"}, "inbound_nodes": [[["378", 0, 0, {}]]]}, {"name": "380", "class_name": "Dense", "config": {"name": "380", "trainable": true, "dtype": "float32", "units": 72, "activation": "linear", "use_bias": true, "kernel_initializer": {"class_name": "Zeros", "config": {"dtype": "float32"}}, "bias_initializer": {"class_name": "Zeros", "config": {"dtype": "float32"}}, "kernel_regularizer": null, "bias_regularizer": null, "activity_regularizer": null, "kernel_constraint": null, "bias_constraint": null}, "inbound_nodes": [[["379", 0, 0, {}]]]}, {"name": "381", "class_name": "Activation", "config": {"name": "381", "trainable": true, "dtype": "float32", "activation": "sigmoid"}, "inbound_nodes": [[["380", 0, 0, {}]]]}, {"name": "389", "class_name": "Reshape", "config": {"name": "389", "trainable": true, "dtype": "float32", "target_shape": [72, 1, 1]}, "inbound_nodes": [[["381", 0, 0, {}]]]}, {"name": "390", "class_name": "Multiply", "config": {"name": "390", "trainable": true, "dtype": "float32"}, "inbound_nodes": [[["365", 0, 0, {}], ["389", 0, 0, {}]]]}, {"name": "391", "class_name": "Activation", "config": {"name": "391", "trainable": true, "dtype": "float32", "activation": "relu"}, "inbound_nodes": [[["390", 0, 0, {}]]]}, {"name": "392", "class_name": "Conv2D", "config": {"name": "392", "trainable": true, "dtype": "float32", "filters": 40, "kernel_size": [1, 1], "strides": [1, 1], "padding": "valid", "data_format": "channels_first", "dilation_rate": [1, 1], "activation": "linear", "use_bias": false, "kernel_initializer": {"class_name": "Zeros", "config": {"dtype": "float32"}}, "bias_initializer": {"class_name": "Zeros", "config": {"dtype": "float32"}}, "kernel_regularizer": null, "bias_regularizer": null, "activity_regularizer": null, "kernel_constraint": null, "bias_constraint": null}, "inbound_nodes": [[["391", 0, 0, {}]]]}, {"name": "393", "class_name": "BatchNormalization", "config": {"name": "393", "trainable": true, "dtype": "float32", "axis": [1], "momentum": 0.8999999761581421, "epsilon": 9.999999747378752e-06, "center": true, "scale": true, "beta_initializer": {"class_name": "Zeros", "config": {"dtype": "float32"}}, "gamma_initializer": {"class_name": "Ones", "config": {"dtype": "float32"}}, "moving_mean_initializer": {"class_name": "Zeros", "config": {"dtype": "float32"}}, "moving_variance_initializer": {"class_name": "Ones", "config": {"dtype": "float32"}}, "beta_regularizer": null, "gamma_regularizer": null, "beta_constraint": null, "gamma_constraint": null}, "inbound_nodes": [[["392", 0, 0, {}]]]}, {"name": "394", "class_name": "Conv2D", "config": {"name": "394", "trainable": true, "dtype": "float32", "filters": 120, "kernel_size": [1, 1], "strides": [1, 1], "padding": "valid", "data_format": "channels_first", "dilation_rate": [1, 1], "activation": "linear", "use_bias": false, "kernel_initializer": {"class_name": "Zeros", "config": {"dtype": "float32"}}, "bias_initializer": {"class_name": "Zeros", "config": {"dtype": "float32"}}, "kernel_regularizer": null, "bias_regularizer": null, "activity_regularizer": null, "kernel_constraint": null, "bias_constraint": null}, "inbound_nodes": [[["393", 0, 0, {}]]]}, {"name": "395", "class_name": "BatchNormalization", "config": {"name": "395", "trainable": true, "dtype": "float32", "axis": [1], "momentum": 0.8999999761581421, "epsilon": 9.999999747378752e-06, "center": true, "scale": true, "beta_initializer": {"class_name": "Zeros", "config": {"dtype": "float32"}}, "gamma_initializer": {"class_name": "Ones", "config": {"dtype": "float32"}}, "moving_mean_initializer": {"class_name": "Zeros", "config": {"dtype": "float32"}}, "moving_variance_initializer": {"class_name": "Ones", "config": {"dtype": "float32"}}, "beta_regularizer": null, "gamma_regularizer": null, "beta_constraint": null, "gamma_constraint": null}, "inbound_nodes": [[["394", 0, 0, {}]]]}, {"name": "396", "class_name": "Activation", "config": {"name": "396", "trainable": true, "dtype": "float32", "activation": "relu"}, "inbound_nodes": [[["395", 0, 0, {}]]]}, {"name": "397_pad", "class_name": "ZeroPadding2D", "config": {"name": "397_pad", "trainable": true, "dtype": "float32", "padding": [[2, 2], [2, 2]], "data_format": "channels_first"}, "inbound_nodes": [[["396", 0, 0, {}]]]}, {"name": "397", "class_name": "DepthwiseConv2D", "config": {"name": "397", "trainable": true, "dtype": "float32", "kernel_size": [5, 5], "strides": [1, 1], "padding": "valid", "data_format": "channels_first", "dilation_rate": [1, 1], "activation": "linear", "use_bias": false, "bias_initializer": {"class_name": "Zeros", "config": {"dtype": "float32"}}, "bias_regularizer": null, "activity_regularizer": null, "bias_constraint": null, "depth_multiplier": 1, "depthwise_initializer": {"class_name": "GlorotUniform", "config": {"seed": null, "dtype": "float32"}}, "depthwise_regularizer": null, "depthwise_constraint": null}, "inbound_nodes": [[["397_pad", 0, 0, {}]]]}, {"name": "398", "class_name": "BatchNormalization", "config": {"name": "398", "trainable": true, "dtype": "float32", "axis": [1], "momentum": 0.8999999761581421, "epsilon": 9.999999747378752e-06, "center": true, "scale": true, "beta_initializer": {"class_name": "Zeros", "config": {"dtype": "float32"}}, "gamma_initializer": {"class_name": "Ones", "config": {"dtype": "float32"}}, "moving_mean_initializer": {"class_name": "Zeros", "config": {"dtype": "float32"}}, "moving_variance_initializer": {"class_name": "Ones", "config": {"dtype": "float32"}}, "beta_regularizer": null, "gamma_regularizer": null, "beta_constraint": null, "gamma_constraint": null}, "inbound_nodes": [[["397", 0, 0, {}]]]}, {"name": "405", "class_name": "ZeroPadding2D", "config": {"name": "405", "trainable": true, "dtype": "float32", "padding": [[0, 0], [0, 0]], "data_format": "channels_first"}, "inbound_nodes": [[["398", 0, 0, {}]]]}, {"name": "406", "class_name": "AveragePooling2D", "config": {"name": "406", "trainable": true, "dtype": "float32", "pool_size": [56, 56], "padding": "valid", "strides": [56, 56], "data_format": "channels_first"}, "inbound_nodes": [[["405", 0, 0, {}]]]}, {"name": "410", "class_name": "Reshape", "config": {"name": "410", "trainable": true, "dtype": "float32", "target_shape": [120]}, "inbound_nodes": [[["406", 0, 0, {}]]]}, {"name": "411", "class_name": "Dense", "config": {"name": "411", "trainable": true, "dtype": "float32", "units": 32, "activation": "linear", "use_bias": true, "kernel_initializer": {"class_name": "Zeros", "config": {"dtype": "float32"}}, "bias_initializer": {"class_name": "Zeros", "config": {"dtype": "float32"}}, "kernel_regularizer": null, "bias_regularizer": null, "activity_regularizer": null, "kernel_constraint": null, "bias_constraint": null}, "inbound_nodes": [[["410", 0, 0, {}]]]}, {"name": "412", "class_name": "Activation", "config": {"name": "412", "trainable": true, "dtype": "float32", "activation": "relu"}, "inbound_nodes": [[["411", 0, 0, {}]]]}, {"name": "413", "class_name": "Dense", "config": {"name": "413", "trainable": true, "dtype": "float32", "units": 120, "activation": "linear", "use_bias": true, "kernel_initializer": {"class_name": "Zeros", "config": {"dtype": "float32"}}, "bias_initializer": {"class_name": "Zeros", "config": {"dtype": "float32"}}, "kernel_regularizer": null, "bias_regularizer": null, "activity_regularizer": null, "kernel_constraint": null, "bias_constraint": null}, "inbound_nodes": [[["412", 0, 0, {}]]]}, {"name": "414", "class_name": "Activation", "config": {"name": "414", "trainable": true, "dtype": "float32", "activation": "sigmoid"}, "inbound_nodes": [[["413", 0, 0, {}]]]}, {"name": "422", "class_name": "Reshape", "config": {"name": "422", "trainable": true, "dtype": "float32", "target_shape": [120, 1, 1]}, "inbound_nodes": [[["414", 0, 0, {}]]]}, {"name": "423", "class_name": "Multiply", "config": {"name": "423", "trainable": true, "dtype": "float32"}, "inbound_nodes": [[["398", 0, 0, {}], ["422", 0, 0, {}]]]}, {"name": "424", "class_name": "Activation", "config": {"name": "424", "trainable": true, "dtype": "float32", "activation": "relu"}, "inbound_nodes": [[["423", 0, 0, {}]]]}, {"name": "425", "class_name": "Conv2D", "config": {"name": "425", "trainable": true, "dtype": "float32", "filters": 40, "kernel_size": [1, 1], "strides": [1, 1], "padding": "valid", "data_format": "channels_first", "dilation_rate": [1, 1], "activation": "linear", "use_bias": false, "kernel_initializer": {"class_name": "Zeros", "config": {"dtype": "float32"}}, "bias_initializer": {"class_name": "Zeros", "config": {"dtype": "float32"}}, "kernel_regularizer": null, "bias_regularizer": null, "activity_regularizer": null, "kernel_constraint": null, "bias_constraint": null}, "inbound_nodes": [[["424", 0, 0, {}]]]}, {"name": "426", "class_name": "BatchNormalization", "config": {"name": "426", "trainable": true, "dtype": "float32", "axis": [1], "momentum": 0.8999999761581421, "epsilon": 9.999999747378752e-06, "center": true, "scale": true, "beta_initializer": {"class_name": "Zeros", "config": {"dtype": "float32"}}, "gamma_initializer": {"class_name": "Ones", "config": {"dtype": "float32"}}, "moving_mean_initializer": {"class_name": "Zeros", "config": {"dtype": "float32"}}, "moving_variance_initializer": {"class_name": "Ones", "config": {"dtype": "float32"}}, "beta_regularizer": null, "gamma_regularizer": null, "beta_constraint": null, "gamma_constraint": null}, "inbound_nodes": [[["425", 0, 0, {}]]]}, {"name": "427", "class_name": "Add", "config": {"name": "427", "trainable": true, "dtype": "float32"}, "inbound_nodes": [[["393", 0, 0, {}], ["426", 0, 0, {}]]]}, {"name": "428", "class_name": "Conv2D", "config": {"name": "428", "trainable": true, "dtype": "float32", "filters": 120, "kernel_size": [1, 1], "strides": [1, 1], "padding": "valid", "data_format": "channels_first", "dilation_rate": [1, 1], "activation": "linear", "use_bias": false, "kernel_initializer": {"class_name": "Zeros", "config": {"dtype": "float32"}}, "bias_initializer": {"class_name": "Zeros", "config": {"dtype": "float32"}}, "kernel_regularizer": null, "bias_regularizer": null, "activity_regularizer": null, "kernel_constraint": null, "bias_constraint": null}, "inbound_nodes": [[["427", 0, 0, {}]]]}, {"name": "429", "class_name": "BatchNormalization", "config": {"name": "429", "trainable": true, "dtype": "float32", "axis": [1], "momentum": 0.8999999761581421, "epsilon": 9.999999747378752e-06, "center": true, "scale": true, "beta_initializer": {"class_name": "Zeros", "config": {"dtype": "float32"}}, "gamma_initializer": {"class_name": "Ones", "config": {"dtype": "float32"}}, "moving_mean_initializer": {"class_name": "Zeros", "config": {"dtype": "float32"}}, "moving_variance_initializer": {"class_name": "Ones", "config": {"dtype": "float32"}}, "beta_regularizer": null, "gamma_regularizer": null, "beta_constraint": null, "gamma_constraint": null}, "inbound_nodes": [[["428", 0, 0, {}]]]}, {"name": "430", "class_name": "Activation", "config": {"name": "430", "trainable": true, "dtype": "float32", "activation": "relu"}, "inbound_nodes": [[["429", 0, 0, {}]]]}, {"name": "431_pad", "class_name": "ZeroPadding2D", "config": {"name": "431_pad", "trainable": true, "dtype": "float32", "padding": [[2, 2], [2, 2]], "data_format": "channels_first"}, "inbound_nodes": [[["430", 0, 0, {}]]]}, {"name": "431", "class_name": "DepthwiseConv2D", "config": {"name": "431", "trainable": true, "dtype": "float32", "kernel_size": [5, 5], "strides": [1, 1], "padding": "valid", "data_format": "channels_first", "dilation_rate": [1, 1], "activation": "linear", "use_bias": false, "bias_initializer": {"class_name": "Zeros", "config": {"dtype": "float32"}}, "bias_regularizer": null, "activity_regularizer": null, "bias_constraint": null, "depth_multiplier": 1, "depthwise_initializer": {"class_name": "GlorotUniform", "config": {"seed": null, "dtype": "float32"}}, "depthwise_regularizer": null, "depthwise_constraint": null}, "inbound_nodes": [[["431_pad", 0, 0, {}]]]}, {"name": "432", "class_name": "BatchNormalization", "config": {"name": "432", "trainable": true, "dtype": "float32", "axis": [1], "momentum": 0.8999999761581421, "epsilon": 9.999999747378752e-06, "center": true, "scale": true, "beta_initializer": {"class_name": "Zeros", "config": {"dtype": "float32"}}, "gamma_initializer": {"class_name": "Ones", "config": {"dtype": "float32"}}, "moving_mean_initializer": {"class_name": "Zeros", "config": {"dtype": "float32"}}, "moving_variance_initializer": {"class_name": "Ones", "config": {"dtype": "float32"}}, "beta_regularizer": null, "gamma_regularizer": null, "beta_constraint": null, "gamma_constraint": null}, "inbound_nodes": [[["431", 0, 0, {}]]]}, {"name": "439", "class_name": "ZeroPadding2D", "config": {"name": "439", "trainable": true, "dtype": "float32", "padding": [[0, 0], [0, 0]], "data_format": "channels_first"}, "inbound_nodes": [[["432", 0, 0, {}]]]}, {"name": "440", "class_name": "AveragePooling2D", "config": {"name": "440", "trainable": true, "dtype": "float32", "pool_size": [56, 56], "padding": "valid", "strides": [56, 56], "data_format": "channels_first"}, "inbound_nodes": [[["439", 0, 0, {}]]]}, {"name": "444", "class_name": "Reshape", "config": {"name": "444", "trainable": true, "dtype": "float32", "target_shape": [120]}, "inbound_nodes": [[["440", 0, 0, {}]]]}, {"name": "445", "class_name": "Dense", "config": {"name": "445", "trainable": true, "dtype": "float32", "units": 32, "activation": "linear", "use_bias": true, "kernel_initializer": {"class_name": "Zeros", "config": {"dtype": "float32"}}, "bias_initializer": {"class_name": "Zeros", "config": {"dtype": "float32"}}, "kernel_regularizer": null, "bias_regularizer": null, "activity_regularizer": null, "kernel_constraint": null, "bias_constraint": null}, "inbound_nodes": [[["444", 0, 0, {}]]]}, {"name": "446", "class_name": "Activation", "config": {"name": "446", "trainable": true, "dtype": "float32", "activation": "relu"}, "inbound_nodes": [[["445", 0, 0, {}]]]}, {"name": "447", "class_name": "Dense", "config": {"name": "447", "trainable": true, "dtype": "float32", "units": 120, "activation": "linear", "use_bias": true, "kernel_initializer": {"class_name": "Zeros", "config": {"dtype": "float32"}}, "bias_initializer": {"class_name": "Zeros", "config": {"dtype": "float32"}}, "kernel_regularizer": null, "bias_regularizer": null, "activity_regularizer": null, "kernel_constraint": null, "bias_constraint": null}, "inbound_nodes": [[["446", 0, 0, {}]]]}, {"name": "448", "class_name": "Activation", "config": {"name": "448", "trainable": true, "dtype": "float32", "activation": "sigmoid"}, "inbound_nodes": [[["447", 0, 0, {}]]]}, {"name": "456", "class_name": "Reshape", "config": {"name": "456", "trainable": true, "dtype": "float32", "target_shape": [120, 1, 1]}, "inbound_nodes": [[["448", 0, 0, {}]]]}, {"name": "457", "class_name": "Multiply", "config": {"name": "457", "trainable": true, "dtype": "float32"}, "inbound_nodes": [[["432", 0, 0, {}], ["456", 0, 0, {}]]]}, {"name": "458", "class_name": "Activation", "config": {"name": "458", "trainable": true, "dtype": "float32", "activation": "relu"}, "inbound_nodes": [[["457", 0, 0, {}]]]}, {"name": "459", "class_name": "Conv2D", "config": {"name": "459", "trainable": true, "dtype": "float32", "filters": 40, "kernel_size": [1, 1], "strides": [1, 1], "padding": "valid", "data_format": "channels_first", "dilation_rate": [1, 1], "activation": "linear", "use_bias": false, "kernel_initializer": {"class_name": "Zeros", "config": {"dtype": "float32"}}, "bias_initializer": {"class_name": "Zeros", "config": {"dtype": "float32"}}, "kernel_regularizer": null, "bias_regularizer": null, "activity_regularizer": null, "kernel_constraint": null, "bias_constraint": null}, "inbound_nodes": [[["458", 0, 0, {}]]]}, {"name": "460", "class_name": "BatchNormalization", "config": {"name": "460", "trainable": true, "dtype": "float32", "axis": [1], "momentum": 0.8999999761581421, "epsilon": 9.999999747378752e-06, "center": true, "scale": true, "beta_initializer": {"class_name": "Zeros", "config": {"dtype": "float32"}}, "gamma_initializer": {"class_name": "Ones", "config": {"dtype": "float32"}}, "moving_mean_initializer": {"class_name": "Zeros", "config": {"dtype": "float32"}}, "moving_variance_initializer": {"class_name": "Ones", "config": {"dtype": "float32"}}, "beta_regularizer": null, "gamma_regularizer": null, "beta_constraint": null, "gamma_constraint": null}, "inbound_nodes": [[["459", 0, 0, {}]]]}, {"name": "461", "class_name": "Add", "config": {"name": "461", "trainable": true, "dtype": "float32"}, "inbound_nodes": [[["427", 0, 0, {}], ["460", 0, 0, {}]]]}, {"name": "462", "class_name": "Conv2D", "config": {"name": "462", "trainable": true, "dtype": "float32", "filters": 240, "kernel_size": [1, 1], "strides": [1, 1], "padding": "valid", "data_format": "channels_first", "dilation_rate": [1, 1], "activation": "linear", "use_bias": false, "kernel_initializer": {"class_name": "Zeros", "config": {"dtype": "float32"}}, "bias_initializer": {"class_name": "Zeros", "config": {"dtype": "float32"}}, "kernel_regularizer": null, "bias_regularizer": null, "activity_regularizer": null, "kernel_constraint": null, "bias_constraint": null}, "inbound_nodes": [[["461", 0, 0, {}]]]}, {"name": "463", "class_name": "BatchNormalization", "config": {"name": "463", "trainable": true, "dtype": "float32", "axis": [1], "momentum": 0.8999999761581421, "epsilon": 9.999999747378752e-06, "center": true, "scale": true, "beta_initializer": {"class_name": "Zeros", "config": {"dtype": "float32"}}, "gamma_initializer": {"class_name": "Ones", "config": {"dtype": "float32"}}, "moving_mean_initializer": {"class_name": "Zeros", "config": {"dtype": "float32"}}, "moving_variance_initializer": {"class_name": "Ones", "config": {"dtype": "float32"}}, "beta_regularizer": null, "gamma_regularizer": null, "beta_constraint": null, "gamma_constraint": null}, "inbound_nodes": [[["462", 0, 0, {}]]]}, {"name": "464", "class_name": "Activation", "config": {"name": "464", "trainable": true, "dtype": "float32", "activation": "relu"}, "inbound_nodes": [[["463", 0, 0, {}]]]}, {"name": "465_pad", "class_name": "ZeroPadding2D", "config": {"name": "465_pad", "trainable": true, "dtype": "float32", "padding": [[1, 1], [1, 1]], "data_format": "channels_first"}, "inbound_nodes": [[["464", 0, 0, {}]]]}, {"name": "465", "class_name": "DepthwiseConv2D", "config": {"name": "465", "trainable": true, "dtype": "float32", "kernel_size": [3, 3], "strides": [2, 2], "padding": "valid", "data_format": "channels_first", "dilation_rate": [1, 1], "activation": "linear", "use_bias": false, "bias_initializer": {"class_name": "Zeros", "config": {"dtype": "float32"}}, "bias_regularizer": null, "activity_regularizer": null, "bias_constraint": null, "depth_multiplier": 1, "depthwise_initializer": {"class_name": "GlorotUniform", "config": {"seed": null, "dtype": "float32"}}, "depthwise_regularizer": null, "depthwise_constraint": null}, "inbound_nodes": [[["465_pad", 0, 0, {}]]]}, {"name": "466", "class_name": "BatchNormalization", "config": {"name": "466", "trainable": true, "dtype": "float32", "axis": [1], "momentum": 0.8999999761581421, "epsilon": 9.999999747378752e-06, "center": true, "scale": true, "beta_initializer": {"class_name": "Zeros", "config": {"dtype": "float32"}}, "gamma_initializer": {"class_name": "Ones", "config": {"dtype": "float32"}}, "moving_mean_initializer": {"class_name": "Zeros", "config": {"dtype": "float32"}}, "moving_variance_initializer": {"class_name": "Ones", "config": {"dtype": "float32"}}, "beta_regularizer": null, "gamma_regularizer": null, "beta_constraint": null, "gamma_constraint": null}, "inbound_nodes": [[["465", 0, 0, {}]]]}, {"name": "467", "class_name": "Activation", "config": {"name": "467", "trainable": true, "dtype": "float32", "activation": "relu"}, "inbound_nodes": [[["466", 0, 0, {}]]]}, {"name": "468", "class_name": "Conv2D", "config": {"name": "468", "trainable": true, "dtype": "float32", "filters": 80, "kernel_size": [1, 1], "strides": [1, 1], "padding": "valid", "data_format": "channels_first", "dilation_rate": [1, 1], "activation": "linear", "use_bias": false, "kernel_initializer": {"class_name": "Zeros", "config": {"dtype": "float32"}}, "bias_initializer": {"class_name": "Zeros", "config": {"dtype": "float32"}}, "kernel_regularizer": null, "bias_regularizer": null, "activity_regularizer": null, "kernel_constraint": null, "bias_constraint": null}, "inbound_nodes": [[["467", 0, 0, {}]]]}, {"name": "469", "class_name": "BatchNormalization", "config": {"name": "469", "trainable": true, "dtype": "float32", "axis": [1], "momentum": 0.8999999761581421, "epsilon": 9.999999747378752e-06, "center": true, "scale": true, "beta_initializer": {"class_name": "Zeros", "config": {"dtype": "float32"}}, "gamma_initializer": {"class_name": "Ones", "config": {"dtype": "float32"}}, "moving_mean_initializer": {"class_name": "Zeros", "config": {"dtype": "float32"}}, "moving_variance_initializer": {"class_name": "Ones", "config": {"dtype": "float32"}}, "beta_regularizer": null, "gamma_regularizer": null, "beta_constraint": null, "gamma_constraint": null}, "inbound_nodes": [[["468", 0, 0, {}]]]}, {"name": "470", "class_name": "Conv2D", "config": {"name": "470", "trainable": true, "dtype": "float32", "filters": 200, "kernel_size": [1, 1], "strides": [1, 1], "padding": "valid", "data_format": "channels_first", "dilation_rate": [1, 1], "activation": "linear", "use_bias": false, "kernel_initializer": {"class_name": "Zeros", "config": {"dtype": "float32"}}, "bias_initializer": {"class_name": "Zeros", "config": {"dtype": "float32"}}, "kernel_regularizer": null, "bias_regularizer": null, "activity_regularizer": null, "kernel_constraint": null, "bias_constraint": null}, "inbound_nodes": [[["469", 0, 0, {}]]]}, {"name": "471", "class_name": "BatchNormalization", "config": {"name": "471", "trainable": true, "dtype": "float32", "axis": [1], "momentum": 0.8999999761581421, "epsilon": 9.999999747378752e-06, "center": true, "scale": true, "beta_initializer": {"class_name": "Zeros", "config": {"dtype": "float32"}}, "gamma_initializer": {"class_name": "Ones", "config": {"dtype": "float32"}}, "moving_mean_initializer": {"class_name": "Zeros", "config": {"dtype": "float32"}}, "moving_variance_initializer": {"class_name": "Ones", "config": {"dtype": "float32"}}, "beta_regularizer": null, "gamma_regularizer": null, "beta_constraint": null, "gamma_constraint": null}, "inbound_nodes": [[["470", 0, 0, {}]]]}, {"name": "472", "class_name": "Activation", "config": {"name": "472", "trainable": true, "dtype": "float32", "activation": "relu"}, "inbound_nodes": [[["471", 0, 0, {}]]]}, {"name": "473_pad", "class_name": "ZeroPadding2D", "config": {"name": "473_pad", "trainable": true, "dtype": "float32", "padding": [[1, 1], [1, 1]], "data_format": "channels_first"}, "inbound_nodes": [[["472", 0, 0, {}]]]}, {"name": "473", "class_name": "DepthwiseConv2D", "config": {"name": "473", "trainable": true, "dtype": "float32", "kernel_size": [3, 3], "strides": [1, 1], "padding": "valid", "data_format": "channels_first", "dilation_rate": [1, 1], "activation": "linear", "use_bias": false, "bias_initializer": {"class_name": "Zeros", "config": {"dtype": "float32"}}, "bias_regularizer": null, "activity_regularizer": null, "bias_constraint": null, "depth_multiplier": 1, "depthwise_initializer": {"class_name": "GlorotUniform", "config": {"seed": null, "dtype": "float32"}}, "depthwise_regularizer": null, "depthwise_constraint": null}, "inbound_nodes": [[["473_pad", 0, 0, {}]]]}, {"name": "474", "class_name": "BatchNormalization", "config": {"name": "474", "trainable": true, "dtype": "float32", "axis": [1], "momentum": 0.8999999761581421, "epsilon": 9.999999747378752e-06, "center": true, "scale": true, "beta_initializer": {"class_name": "Zeros", "config": {"dtype": "float32"}}, "gamma_initializer": {"class_name": "Ones", "config": {"dtype": "float32"}}, "moving_mean_initializer": {"class_name": "Zeros", "config": {"dtype": "float32"}}, "moving_variance_initializer": {"class_name": "Ones", "config": {"dtype": "float32"}}, "beta_regularizer": null, "gamma_regularizer": null, "beta_constraint": null, "gamma_constraint": null}, "inbound_nodes": [[["473", 0, 0, {}]]]}, {"name": "475", "class_name": "Activation", "config": {"name": "475", "trainable": true, "dtype": "float32", "activation": "relu"}, "inbound_nodes": [[["474", 0, 0, {}]]]}, {"name": "476", "class_name": "Conv2D", "config": {"name": "476", "trainable": true, "dtype": "float32", "filters": 80, "kernel_size": [1, 1], "strides": [1, 1], "padding": "valid", "data_format": "channels_first", "dilation_rate": [1, 1], "activation": "linear", "use_bias": false, "kernel_initializer": {"class_name": "Zeros", "config": {"dtype": "float32"}}, "bias_initializer": {"class_name": "Zeros", "config": {"dtype": "float32"}}, "kernel_regularizer": null, "bias_regularizer": null, "activity_regularizer": null, "kernel_constraint": null, "bias_constraint": null}, "inbound_nodes": [[["475", 0, 0, {}]]]}, {"name": "477", "class_name": "BatchNormalization", "config": {"name": "477", "trainable": true, "dtype": "float32", "axis": [1], "momentum": 0.8999999761581421, "epsilon": 9.999999747378752e-06, "center": true, "scale": true, "beta_initializer": {"class_name": "Zeros", "config": {"dtype": "float32"}}, "gamma_initializer": {"class_name": "Ones", "config": {"dtype": "float32"}}, "moving_mean_initializer": {"class_name": "Zeros", "config": {"dtype": "float32"}}, "moving_variance_initializer": {"class_name": "Ones", "config": {"dtype": "float32"}}, "beta_regularizer": null, "gamma_regularizer": null, "beta_constraint": null, "gamma_constraint": null}, "inbound_nodes": [[["476", 0, 0, {}]]]}, {"name": "478", "class_name": "Add", "config": {"name": "478", "trainable": true, "dtype": "float32"}, "inbound_nodes": [[["469", 0, 0, {}], ["477", 0, 0, {}]]]}, {"name": "479", "class_name": "Conv2D", "config": {"name": "479", "trainable": true, "dtype": "float32", "filters": 184, "kernel_size": [1, 1], "strides": [1, 1], "padding": "valid", "data_format": "channels_first", "dilation_rate": [1, 1], "activation": "linear", "use_bias": false, "kernel_initializer": {"class_name": "Zeros", "config": {"dtype": "float32"}}, "bias_initializer": {"class_name": "Zeros", "config": {"dtype": "float32"}}, "kernel_regularizer": null, "bias_regularizer": null, "activity_regularizer": null, "kernel_constraint": null, "bias_constraint": null}, "inbound_nodes": [[["478", 0, 0, {}]]]}, {"name": "480", "class_name": "BatchNormalization", "config": {"name": "480", "trainable": true, "dtype": "float32", "axis": [1], "momentum": 0.8999999761581421, "epsilon": 9.999999747378752e-06, "center": true, "scale": true, "beta_initializer": {"class_name": "Zeros", "config": {"dtype": "float32"}}, "gamma_initializer": {"class_name": "Ones", "config": {"dtype": "float32"}}, "moving_mean_initializer": {"class_name": "Zeros", "config": {"dtype": "float32"}}, "moving_variance_initializer": {"class_name": "Ones", "config": {"dtype": "float32"}}, "beta_regularizer": null, "gamma_regularizer": null, "beta_constraint": null, "gamma_constraint": null}, "inbound_nodes": [[["479", 0, 0, {}]]]}, {"name": "481", "class_name": "Activation", "config": {"name": "481", "trainable": true, "dtype": "float32", "activation": "relu"}, "inbound_nodes": [[["480", 0, 0, {}]]]}, {"name": "482_pad", "class_name": "ZeroPadding2D", "config": {"name": "482_pad", "trainable": true, "dtype": "float32", "padding": [[1, 1], [1, 1]], "data_format": "channels_first"}, "inbound_nodes": [[["481", 0, 0, {}]]]}, {"name": "482", "class_name": "DepthwiseConv2D", "config": {"name": "482", "trainable": true, "dtype": "float32", "kernel_size": [3, 3], "strides": [1, 1], "padding": "valid", "data_format": "channels_first", "dilation_rate": [1, 1], "activation": "linear", "use_bias": false, "bias_initializer": {"class_name": "Zeros", "config": {"dtype": "float32"}}, "bias_regularizer": null, "activity_regularizer": null, "bias_constraint": null, "depth_multiplier": 1, "depthwise_initializer": {"class_name": "GlorotUniform", "config": {"seed": null, "dtype": "float32"}}, "depthwise_regularizer": null, "depthwise_constraint": null}, "inbound_nodes": [[["482_pad", 0, 0, {}]]]}, {"name": "483", "class_name": "BatchNormalization", "config": {"name": "483", "trainable": true, "dtype": "float32", "axis": [1], "momentum": 0.8999999761581421, "epsilon": 9.999999747378752e-06, "center": true, "scale": true, "beta_initializer": {"class_name": "Zeros", "config": {"dtype": "float32"}}, "gamma_initializer": {"class_name": "Ones", "config": {"dtype": "float32"}}, "moving_mean_initializer": {"class_name": "Zeros", "config": {"dtype": "float32"}}, "moving_variance_initializer": {"class_name": "Ones", "config": {"dtype": "float32"}}, "beta_regularizer": null, "gamma_regularizer": null, "beta_constraint": null, "gamma_constraint": null}, "inbound_nodes": [[["482", 0, 0, {}]]]}, {"name": "484", "class_name": "Activation", "config": {"name": "484", "trainable": true, "dtype": "float32", "activation": "relu"}, "inbound_nodes": [[["483", 0, 0, {}]]]}, {"name": "485", "class_name": "Conv2D", "config": {"name": "485", "trainable": true, "dtype": "float32", "filters": 80, "kernel_size": [1, 1], "strides": [1, 1], "padding": "valid", "data_format": "channels_first", "dilation_rate": [1, 1], "activation": "linear", "use_bias": false, "kernel_initializer": {"class_name": "Zeros", "config": {"dtype": "float32"}}, "bias_initializer": {"class_name": "Zeros", "config": {"dtype": "float32"}}, "kernel_regularizer": null, "bias_regularizer": null, "activity_regularizer": null, "kernel_constraint": null, "bias_constraint": null}, "inbound_nodes": [[["484", 0, 0, {}]]]}, {"name": "486", "class_name": "BatchNormalization", "config": {"name": "486", "trainable": true, "dtype": "float32", "axis": [1], "momentum": 0.8999999761581421, "epsilon": 9.999999747378752e-06, "center": true, "scale": true, "beta_initializer": {"class_name": "Zeros", "config": {"dtype": "float32"}}, "gamma_initializer": {"class_name": "Ones", "config": {"dtype": "float32"}}, "moving_mean_initializer": {"class_name": "Zeros", "config": {"dtype": "float32"}}, "moving_variance_initializer": {"class_name": "Ones", "config": {"dtype": "float32"}}, "beta_regularizer": null, "gamma_regularizer": null, "beta_constraint": null, "gamma_constraint": null}, "inbound_nodes": [[["485", 0, 0, {}]]]}, {"name": "487", "class_name": "Add", "config": {"name": "487", "trainable": true, "dtype": "float32"}, "inbound_nodes": [[["478", 0, 0, {}], ["486", 0, 0, {}]]]}, {"name": "488", "class_name": "Conv2D", "config": {"name": "488", "trainable": true, "dtype": "float32", "filters": 184, "kernel_size": [1, 1], "strides": [1, 1], "padding": "valid", "data_format": "channels_first", "dilation_rate": [1, 1], "activation": "linear", "use_bias": false, "kernel_initializer": {"class_name": "Zeros", "config": {"dtype": "float32"}}, "bias_initializer": {"class_name": "Zeros", "config": {"dtype": "float32"}}, "kernel_regularizer": null, "bias_regularizer": null, "activity_regularizer": null, "kernel_constraint": null, "bias_constraint": null}, "inbound_nodes": [[["487", 0, 0, {}]]]}, {"name": "489", "class_name": "BatchNormalization", "config": {"name": "489", "trainable": true, "dtype": "float32", "axis": [1], "momentum": 0.8999999761581421, "epsilon": 9.999999747378752e-06, "center": true, "scale": true, "beta_initializer": {"class_name": "Zeros", "config": {"dtype": "float32"}}, "gamma_initializer": {"class_name": "Ones", "config": {"dtype": "float32"}}, "moving_mean_initializer": {"class_name": "Zeros", "config": {"dtype": "float32"}}, "moving_variance_initializer": {"class_name": "Ones", "config": {"dtype": "float32"}}, "beta_regularizer": null, "gamma_regularizer": null, "beta_constraint": null, "gamma_constraint": null}, "inbound_nodes": [[["488", 0, 0, {}]]]}, {"name": "490", "class_name": "Activation", "config": {"name": "490", "trainable": true, "dtype": "float32", "activation": "relu"}, "inbound_nodes": [[["489", 0, 0, {}]]]}, {"name": "491_pad", "class_name": "ZeroPadding2D", "config": {"name": "491_pad", "trainable": true, "dtype": "float32", "padding": [[1, 1], [1, 1]], "data_format": "channels_first"}, "inbound_nodes": [[["490", 0, 0, {}]]]}, {"name": "491", "class_name": "DepthwiseConv2D", "config": {"name": "491", "trainable": true, "dtype": "float32", "kernel_size": [3, 3], "strides": [1, 1], "padding": "valid", "data_format": "channels_first", "dilation_rate": [1, 1], "activation": "linear", "use_bias": false, "bias_initializer": {"class_name": "Zeros", "config": {"dtype": "float32"}}, "bias_regularizer": null, "activity_regularizer": null, "bias_constraint": null, "depth_multiplier": 1, "depthwise_initializer": {"class_name": "GlorotUniform", "config": {"seed": null, "dtype": "float32"}}, "depthwise_regularizer": null, "depthwise_constraint": null}, "inbound_nodes": [[["491_pad", 0, 0, {}]]]}, {"name": "492", "class_name": "BatchNormalization", "config": {"name": "492", "trainable": true, "dtype": "float32", "axis": [1], "momentum": 0.8999999761581421, "epsilon": 9.999999747378752e-06, "center": true, "scale": true, "beta_initializer": {"class_name": "Zeros", "config": {"dtype": "float32"}}, "gamma_initializer": {"class_name": "Ones", "config": {"dtype": "float32"}}, "moving_mean_initializer": {"class_name": "Zeros", "config": {"dtype": "float32"}}, "moving_variance_initializer": {"class_name": "Ones", "config": {"dtype": "float32"}}, "beta_regularizer": null, "gamma_regularizer": null, "beta_constraint": null, "gamma_constraint": null}, "inbound_nodes": [[["491", 0, 0, {}]]]}, {"name": "493", "class_name": "Activation", "config": {"name": "493", "trainable": true, "dtype": "float32", "activation": "relu"}, "inbound_nodes": [[["492", 0, 0, {}]]]}, {"name": "494", "class_name": "Conv2D", "config": {"name": "494", "trainable": true, "dtype": "float32", "filters": 80, "kernel_size": [1, 1], "strides": [1, 1], "padding": "valid", "data_format": "channels_first", "dilation_rate": [1, 1], "activation": "linear", "use_bias": false, "kernel_initializer": {"class_name": "Zeros", "config": {"dtype": "float32"}}, "bias_initializer": {"class_name": "Zeros", "config": {"dtype": "float32"}}, "kernel_regularizer": null, "bias_regularizer": null, "activity_regularizer": null, "kernel_constraint": null, "bias_constraint": null}, "inbound_nodes": [[["493", 0, 0, {}]]]}, {"name": "495", "class_name": "BatchNormalization", "config": {"name": "495", "trainable": true, "dtype": "float32", "axis": [1], "momentum": 0.8999999761581421, "epsilon": 9.999999747378752e-06, "center": true, "scale": true, "beta_initializer": {"class_name": "Zeros", "config": {"dtype": "float32"}}, "gamma_initializer": {"class_name": "Ones", "config": {"dtype": "float32"}}, "moving_mean_initializer": {"class_name": "Zeros", "config": {"dtype": "float32"}}, "moving_variance_initializer": {"class_name": "Ones", "config": {"dtype": "float32"}}, "beta_regularizer": null, "gamma_regularizer": null, "beta_constraint": null, "gamma_constraint": null}, "inbound_nodes": [[["494", 0, 0, {}]]]}, {"name": "496", "class_name": "Add", "config": {"name": "496", "trainable": true, "dtype": "float32"}, "inbound_nodes": [[["487", 0, 0, {}], ["495", 0, 0, {}]]]}, {"name": "497", "class_name": "Conv2D", "config": {"name": "497", "trainable": true, "dtype": "float32", "filters": 480, "kernel_size": [1, 1], "strides": [1, 1], "padding": "valid", "data_format": "channels_first", "dilation_rate": [1, 1], "activation": "linear", "use_bias": false, "kernel_initializer": {"class_name": "Zeros", "config": {"dtype": "float32"}}, "bias_initializer": {"class_name": "Zeros", "config": {"dtype": "float32"}}, "kernel_regularizer": null, "bias_regularizer": null, "activity_regularizer": null, "kernel_constraint": null, "bias_constraint": null}, "inbound_nodes": [[["496", 0, 0, {}]]]}, {"name": "498", "class_name": "BatchNormalization", "config": {"name": "498", "trainable": true, "dtype": "float32", "axis": [1], "momentum": 0.8999999761581421, "epsilon": 9.999999747378752e-06, "center": true, "scale": true, "beta_initializer": {"class_name": "Zeros", "config": {"dtype": "float32"}}, "gamma_initializer": {"class_name": "Ones", "config": {"dtype": "float32"}}, "moving_mean_initializer": {"class_name": "Zeros", "config": {"dtype": "float32"}}, "moving_variance_initializer": {"class_name": "Ones", "config": {"dtype": "float32"}}, "beta_regularizer": null, "gamma_regularizer": null, "beta_constraint": null, "gamma_constraint": null}, "inbound_nodes": [[["497", 0, 0, {}]]]}, {"name": "499", "class_name": "Activation", "config": {"name": "499", "trainable": true, "dtype": "float32", "activation": "relu"}, "inbound_nodes": [[["498", 0, 0, {}]]]}, {"name": "500_pad", "class_name": "ZeroPadding2D", "config": {"name": "500_pad", "trainable": true, "dtype": "float32", "padding": [[1, 1], [1, 1]], "data_format": "channels_first"}, "inbound_nodes": [[["499", 0, 0, {}]]]}, {"name": "500", "class_name": "DepthwiseConv2D", "config": {"name": "500", "trainable": true, "dtype": "float32", "kernel_size": [3, 3], "strides": [1, 1], "padding": "valid", "data_format": "channels_first", "dilation_rate": [1, 1], "activation": "linear", "use_bias": false, "bias_initializer": {"class_name": "Zeros", "config": {"dtype": "float32"}}, "bias_regularizer": null, "activity_regularizer": null, "bias_constraint": null, "depth_multiplier": 1, "depthwise_initializer": {"class_name": "GlorotUniform", "config": {"seed": null, "dtype": "float32"}}, "depthwise_regularizer": null, "depthwise_constraint": null}, "inbound_nodes": [[["500_pad", 0, 0, {}]]]}, {"name": "501", "class_name": "BatchNormalization", "config": {"name": "501", "trainable": true, "dtype": "float32", "axis": [1], "momentum": 0.8999999761581421, "epsilon": 9.999999747378752e-06, "center": true, "scale": true, "beta_initializer": {"class_name": "Zeros", "config": {"dtype": "float32"}}, "gamma_initializer": {"class_name": "Ones", "config": {"dtype": "float32"}}, "moving_mean_initializer": {"class_name": "Zeros", "config": {"dtype": "float32"}}, "moving_variance_initializer": {"class_name": "Ones", "config": {"dtype": "float32"}}, "beta_regularizer": null, "gamma_regularizer": null, "beta_constraint": null, "gamma_constraint": null}, "inbound_nodes": [[["500", 0, 0, {}]]]}, {"name": "508", "class_name": "ZeroPadding2D", "config": {"name": "508", "trainable": true, "dtype": "float32", "padding": [[0, 0], [0, 0]], "data_format": "channels_first"}, "inbound_nodes": [[["501", 0, 0, {}]]]}, {"name": "509", "class_name": "AveragePooling2D", "config": {"name": "509", "trainable": true, "dtype": "float32", "pool_size": [28, 28], "padding": "valid", "strides": [28, 28], "data_format": "channels_first"}, "inbound_nodes": [[["508", 0, 0, {}]]]}, {"name": "513", "class_name": "Reshape", "config": {"name": "513", "trainable": true, "dtype": "float32", "target_shape": [480]}, "inbound_nodes": [[["509", 0, 0, {}]]]}, {"name": "514", "class_name": "Dense", "config": {"name": "514", "trainable": true, "dtype": "float32", "units": 120, "activation": "linear", "use_bias": true, "kernel_initializer": {"class_name": "Zeros", "config": {"dtype": "float32"}}, "bias_initializer": {"class_name": "Zeros", "config": {"dtype": "float32"}}, "kernel_regularizer": null, "bias_regularizer": null, "activity_regularizer": null, "kernel_constraint": null, "bias_constraint": null}, "inbound_nodes": [[["513", 0, 0, {}]]]}, {"name": "515", "class_name": "Activation", "config": {"name": "515", "trainable": true, "dtype": "float32", "activation": "relu"}, "inbound_nodes": [[["514", 0, 0, {}]]]}, {"name": "516", "class_name": "Dense", "config": {"name": "516", "trainable": true, "dtype": "float32", "units": 480, "activation": "linear", "use_bias": true, "kernel_initializer": {"class_name": "Zeros", "config": {"dtype": "float32"}}, "bias_initializer": {"class_name": "Zeros", "config": {"dtype": "float32"}}, "kernel_regularizer": null, "bias_regularizer": null, "activity_regularizer": null, "kernel_constraint": null, "bias_constraint": null}, "inbound_nodes": [[["515", 0, 0, {}]]]}, {"name": "517", "class_name": "Activation", "config": {"name": "517", "trainable": true, "dtype": "float32", "activation": "sigmoid"}, "inbound_nodes": [[["516", 0, 0, {}]]]}, {"name": "525", "class_name": "Reshape", "config": {"name": "525", "trainable": true, "dtype": "float32", "target_shape": [480, 1, 1]}, "inbound_nodes": [[["517", 0, 0, {}]]]}, {"name": "526", "class_name": "Multiply", "config": {"name": "526", "trainable": true, "dtype": "float32"}, "inbound_nodes": [[["501", 0, 0, {}], ["525", 0, 0, {}]]]}, {"name": "527", "class_name": "Activation", "config": {"name": "527", "trainable": true, "dtype": "float32", "activation": "relu"}, "inbound_nodes": [[["526", 0, 0, {}]]]}, {"name": "528", "class_name": "Conv2D", "config": {"name": "528", "trainable": true, "dtype": "float32", "filters": 112, "kernel_size": [1, 1], "strides": [1, 1], "padding": "valid", "data_format": "channels_first", "dilation_rate": [1, 1], "activation": "linear", "use_bias": false, "kernel_initializer": {"class_name": "Zeros", "config": {"dtype": "float32"}}, "bias_initializer": {"class_name": "Zeros", "config": {"dtype": "float32"}}, "kernel_regularizer": null, "bias_regularizer": null, "activity_regularizer": null, "kernel_constraint": null, "bias_constraint": null}, "inbound_nodes": [[["527", 0, 0, {}]]]}, {"name": "529", "class_name": "BatchNormalization", "config": {"name": "529", "trainable": true, "dtype": "float32", "axis": [1], "momentum": 0.8999999761581421, "epsilon": 9.999999747378752e-06, "center": true, "scale": true, "beta_initializer": {"class_name": "Zeros", "config": {"dtype": "float32"}}, "gamma_initializer": {"class_name": "Ones", "config": {"dtype": "float32"}}, "moving_mean_initializer": {"class_name": "Zeros", "config": {"dtype": "float32"}}, "moving_variance_initializer": {"class_name": "Ones", "config": {"dtype": "float32"}}, "beta_regularizer": null, "gamma_regularizer": null, "beta_constraint": null, "gamma_constraint": null}, "inbound_nodes": [[["528", 0, 0, {}]]]}, {"name": "530", "class_name": "Conv2D", "config": {"name": "530", "trainable": true, "dtype": "float32", "filters": 672, "kernel_size": [1, 1], "strides": [1, 1], "padding": "valid", "data_format": "channels_first", "dilation_rate": [1, 1], "activation": "linear", "use_bias": false, "kernel_initializer": {"class_name": "Zeros", "config": {"dtype": "float32"}}, "bias_initializer": {"class_name": "Zeros", "config": {"dtype": "float32"}}, "kernel_regularizer": null, "bias_regularizer": null, "activity_regularizer": null, "kernel_constraint": null, "bias_constraint": null}, "inbound_nodes": [[["529", 0, 0, {}]]]}, {"name": "531", "class_name": "BatchNormalization", "config": {"name": "531", "trainable": true, "dtype": "float32", "axis": [1], "momentum": 0.8999999761581421, "epsilon": 9.999999747378752e-06, "center": true, "scale": true, "beta_initializer": {"class_name": "Zeros", "config": {"dtype": "float32"}}, "gamma_initializer": {"class_name": "Ones", "config": {"dtype": "float32"}}, "moving_mean_initializer": {"class_name": "Zeros", "config": {"dtype": "float32"}}, "moving_variance_initializer": {"class_name": "Ones", "config": {"dtype": "float32"}}, "beta_regularizer": null, "gamma_regularizer": null, "beta_constraint": null, "gamma_constraint": null}, "inbound_nodes": [[["530", 0, 0, {}]]]}, {"name": "532", "class_name": "Activation", "config": {"name": "532", "trainable": true, "dtype": "float32", "activation": "relu"}, "inbound_nodes": [[["531", 0, 0, {}]]]}, {"name": "533_pad", "class_name": "ZeroPadding2D", "config": {"name": "533_pad", "trainable": true, "dtype": "float32", "padding": [[1, 1], [1, 1]], "data_format": "channels_first"}, "inbound_nodes": [[["532", 0, 0, {}]]]}, {"name": "533", "class_name": "DepthwiseConv2D", "config": {"name": "533", "trainable": true, "dtype": "float32", "kernel_size": [3, 3], "strides": [1, 1], "padding": "valid", "data_format": "channels_first", "dilation_rate": [1, 1], "activation": "linear", "use_bias": false, "bias_initializer": {"class_name": "Zeros", "config": {"dtype": "float32"}}, "bias_regularizer": null, "activity_regularizer": null, "bias_constraint": null, "depth_multiplier": 1, "depthwise_initializer": {"class_name": "GlorotUniform", "config": {"seed": null, "dtype": "float32"}}, "depthwise_regularizer": null, "depthwise_constraint": null}, "inbound_nodes": [[["533_pad", 0, 0, {}]]]}, {"name": "534", "class_name": "BatchNormalization", "config": {"name": "534", "trainable": true, "dtype": "float32", "axis": [1], "momentum": 0.8999999761581421, "epsilon": 9.999999747378752e-06, "center": true, "scale": true, "beta_initializer": {"class_name": "Zeros", "config": {"dtype": "float32"}}, "gamma_initializer": {"class_name": "Ones", "config": {"dtype": "float32"}}, "moving_mean_initializer": {"class_name": "Zeros", "config": {"dtype": "float32"}}, "moving_variance_initializer": {"class_name": "Ones", "config": {"dtype": "float32"}}, "beta_regularizer": null, "gamma_regularizer": null, "beta_constraint": null, "gamma_constraint": null}, "inbound_nodes": [[["533", 0, 0, {}]]]}, {"name": "541", "class_name": "ZeroPadding2D", "config": {"name": "541", "trainable": true, "dtype": "float32", "padding": [[0, 0], [0, 0]], "data_format": "channels_first"}, "inbound_nodes": [[["534", 0, 0, {}]]]}, {"name": "542", "class_name": "AveragePooling2D", "config": {"name": "542", "trainable": true, "dtype": "float32", "pool_size": [28, 28], "padding": "valid", "strides": [28, 28], "data_format": "channels_first"}, "inbound_nodes": [[["541", 0, 0, {}]]]}, {"name": "546", "class_name": "Reshape", "config": {"name": "546", "trainable": true, "dtype": "float32", "target_shape": [672]}, "inbound_nodes": [[["542", 0, 0, {}]]]}, {"name": "547", "class_name": "Dense", "config": {"name": "547", "trainable": true, "dtype": "float32", "units": 168, "activation": "linear", "use_bias": true, "kernel_initializer": {"class_name": "Zeros", "config": {"dtype": "float32"}}, "bias_initializer": {"class_name": "Zeros", "config": {"dtype": "float32"}}, "kernel_regularizer": null, "bias_regularizer": null, "activity_regularizer": null, "kernel_constraint": null, "bias_constraint": null}, "inbound_nodes": [[["546", 0, 0, {}]]]}, {"name": "548", "class_name": "Activation", "config": {"name": "548", "trainable": true, "dtype": "float32", "activation": "relu"}, "inbound_nodes": [[["547", 0, 0, {}]]]}, {"name": "549", "class_name": "Dense", "config": {"name": "549", "trainable": true, "dtype": "float32", "units": 672, "activation": "linear", "use_bias": true, "kernel_initializer": {"class_name": "Zeros", "config": {"dtype": "float32"}}, "bias_initializer": {"class_name": "Zeros", "config": {"dtype": "float32"}}, "kernel_regularizer": null, "bias_regularizer": null, "activity_regularizer": null, "kernel_constraint": null, "bias_constraint": null}, "inbound_nodes": [[["548", 0, 0, {}]]]}, {"name": "550", "class_name": "Activation", "config": {"name": "550", "trainable": true, "dtype": "float32", "activation": "sigmoid"}, "inbound_nodes": [[["549", 0, 0, {}]]]}, {"name": "558", "class_name": "Reshape", "config": {"name": "558", "trainable": true, "dtype": "float32", "target_shape": [672, 1, 1]}, "inbound_nodes": [[["550", 0, 0, {}]]]}, {"name": "559", "class_name": "Multiply", "config": {"name": "559", "trainable": true, "dtype": "float32"}, "inbound_nodes": [[["534", 0, 0, {}], ["558", 0, 0, {}]]]}, {"name": "560", "class_name": "Activation", "config": {"name": "560", "trainable": true, "dtype": "float32", "activation": "relu"}, "inbound_nodes": [[["559", 0, 0, {}]]]}, {"name": "561", "class_name": "Conv2D", "config": {"name": "561", "trainable": true, "dtype": "float32", "filters": 112, "kernel_size": [1, 1], "strides": [1, 1], "padding": "valid", "data_format": "channels_first", "dilation_rate": [1, 1], "activation": "linear", "use_bias": false, "kernel_initializer": {"class_name": "Zeros", "config": {"dtype": "float32"}}, "bias_initializer": {"class_name": "Zeros", "config": {"dtype": "float32"}}, "kernel_regularizer": null, "bias_regularizer": null, "activity_regularizer": null, "kernel_constraint": null, "bias_constraint": null}, "inbound_nodes": [[["560", 0, 0, {}]]]}, {"name": "562", "class_name": "BatchNormalization", "config": {"name": "562", "trainable": true, "dtype": "float32", "axis": [1], "momentum": 0.8999999761581421, "epsilon": 9.999999747378752e-06, "center": true, "scale": true, "beta_initializer": {"class_name": "Zeros", "config": {"dtype": "float32"}}, "gamma_initializer": {"class_name": "Ones", "config": {"dtype": "float32"}}, "moving_mean_initializer": {"class_name": "Zeros", "config": {"dtype": "float32"}}, "moving_variance_initializer": {"class_name": "Ones", "config": {"dtype": "float32"}}, "beta_regularizer": null, "gamma_regularizer": null, "beta_constraint": null, "gamma_constraint": null}, "inbound_nodes": [[["561", 0, 0, {}]]]}, {"name": "563", "class_name": "Add", "config": {"name": "563", "trainable": true, "dtype": "float32"}, "inbound_nodes": [[["529", 0, 0, {}], ["562", 0, 0, {}]]]}, {"name": "564", "class_name": "Conv2D", "config": {"name": "564", "trainable": true, "dtype": "float32", "filters": 672, "kernel_size": [1, 1], "strides": [1, 1], "padding": "valid", "data_format": "channels_first", "dilation_rate": [1, 1], "activation": "linear", "use_bias": false, "kernel_initializer": {"class_name": "Zeros", "config": {"dtype": "float32"}}, "bias_initializer": {"class_name": "Zeros", "config": {"dtype": "float32"}}, "kernel_regularizer": null, "bias_regularizer": null, "activity_regularizer": null, "kernel_constraint": null, "bias_constraint": null}, "inbound_nodes": [[["563", 0, 0, {}]]]}, {"name": "565", "class_name": "BatchNormalization", "config": {"name": "565", "trainable": true, "dtype": "float32", "axis": [1], "momentum": 0.8999999761581421, "epsilon": 9.999999747378752e-06, "center": true, "scale": true, "beta_initializer": {"class_name": "Zeros", "config": {"dtype": "float32"}}, "gamma_initializer": {"class_name": "Ones", "config": {"dtype": "float32"}}, "moving_mean_initializer": {"class_name": "Zeros", "config": {"dtype": "float32"}}, "moving_variance_initializer": {"class_name": "Ones", "config": {"dtype": "float32"}}, "beta_regularizer": null, "gamma_regularizer": null, "beta_constraint": null, "gamma_constraint": null}, "inbound_nodes": [[["564", 0, 0, {}]]]}, {"name": "566", "class_name": "Activation", "config": {"name": "566", "trainable": true, "dtype": "float32", "activation": "relu"}, "inbound_nodes": [[["565", 0, 0, {}]]]}, {"name": "567_pad", "class_name": "ZeroPadding2D", "config": {"name": "567_pad", "trainable": true, "dtype": "float32", "padding": [[2, 2], [2, 2]], "data_format": "channels_first"}, "inbound_nodes": [[["566", 0, 0, {}]]]}, {"name": "567", "class_name": "DepthwiseConv2D", "config": {"name": "567", "trainable": true, "dtype": "float32", "kernel_size": [5, 5], "strides": [2, 2], "padding": "valid", "data_format": "channels_first", "dilation_rate": [1, 1], "activation": "linear", "use_bias": false, "bias_initializer": {"class_name": "Zeros", "config": {"dtype": "float32"}}, "bias_regularizer": null, "activity_regularizer": null, "bias_constraint": null, "depth_multiplier": 1, "depthwise_initializer": {"class_name": "GlorotUniform", "config": {"seed": null, "dtype": "float32"}}, "depthwise_regularizer": null, "depthwise_constraint": null}, "inbound_nodes": [[["567_pad", 0, 0, {}]]]}, {"name": "568", "class_name": "BatchNormalization", "config": {"name": "568", "trainable": true, "dtype": "float32", "axis": [1], "momentum": 0.8999999761581421, "epsilon": 9.999999747378752e-06, "center": true, "scale": true, "beta_initializer": {"class_name": "Zeros", "config": {"dtype": "float32"}}, "gamma_initializer": {"class_name": "Ones", "config": {"dtype": "float32"}}, "moving_mean_initializer": {"class_name": "Zeros", "config": {"dtype": "float32"}}, "moving_variance_initializer": {"class_name": "Ones", "config": {"dtype": "float32"}}, "beta_regularizer": null, "gamma_regularizer": null, "beta_constraint": null, "gamma_constraint": null}, "inbound_nodes": [[["567", 0, 0, {}]]]}, {"name": "575", "class_name": "ZeroPadding2D", "config": {"name": "575", "trainable": true, "dtype": "float32", "padding": [[0, 0], [0, 0]], "data_format": "channels_first"}, "inbound_nodes": [[["568", 0, 0, {}]]]}, {"name": "576", "class_name": "AveragePooling2D", "config": {"name": "576", "trainable": true, "dtype": "float32", "pool_size": [14, 14], "padding": "valid", "strides": [14, 14], "data_format": "channels_first"}, "inbound_nodes": [[["575", 0, 0, {}]]]}, {"name": "580", "class_name": "Reshape", "config": {"name": "580", "trainable": true, "dtype": "float32", "target_shape": [672]}, "inbound_nodes": [[["576", 0, 0, {}]]]}, {"name": "581", "class_name": "Dense", "config": {"name": "581", "trainable": true, "dtype": "float32", "units": 168, "activation": "linear", "use_bias": true, "kernel_initializer": {"class_name": "Zeros", "config": {"dtype": "float32"}}, "bias_initializer": {"class_name": "Zeros", "config": {"dtype": "float32"}}, "kernel_regularizer": null, "bias_regularizer": null, "activity_regularizer": null, "kernel_constraint": null, "bias_constraint": null}, "inbound_nodes": [[["580", 0, 0, {}]]]}, {"name": "582", "class_name": "Activation", "config": {"name": "582", "trainable": true, "dtype": "float32", "activation": "relu"}, "inbound_nodes": [[["581", 0, 0, {}]]]}, {"name": "583", "class_name": "Dense", "config": {"name": "583", "trainable": true, "dtype": "float32", "units": 672, "activation": "linear", "use_bias": true, "kernel_initializer": {"class_name": "Zeros", "config": {"dtype": "float32"}}, "bias_initializer": {"class_name": "Zeros", "config": {"dtype": "float32"}}, "kernel_regularizer": null, "bias_regularizer": null, "activity_regularizer": null, "kernel_constraint": null, "bias_constraint": null}, "inbound_nodes": [[["582", 0, 0, {}]]]}, {"name": "584", "class_name": "Activation", "config": {"name": "584", "trainable": true, "dtype": "float32", "activation": "sigmoid"}, "inbound_nodes": [[["583", 0, 0, {}]]]}, {"name": "592", "class_name": "Reshape", "config": {"name": "592", "trainable": true, "dtype": "float32", "target_shape": [672, 1, 1]}, "inbound_nodes": [[["584", 0, 0, {}]]]}, {"name": "593", "class_name": "Multiply", "config": {"name": "593", "trainable": true, "dtype": "float32"}, "inbound_nodes": [[["568", 0, 0, {}], ["592", 0, 0, {}]]]}, {"name": "594", "class_name": "Activation", "config": {"name": "594", "trainable": true, "dtype": "float32", "activation": "relu"}, "inbound_nodes": [[["593", 0, 0, {}]]]}, {"name": "595", "class_name": "Conv2D", "config": {"name": "595", "trainable": true, "dtype": "float32", "filters": 160, "kernel_size": [1, 1], "strides": [1, 1], "padding": "valid", "data_format": "channels_first", "dilation_rate": [1, 1], "activation": "linear", "use_bias": false, "kernel_initializer": {"class_name": "Zeros", "config": {"dtype": "float32"}}, "bias_initializer": {"class_name": "Zeros", "config": {"dtype": "float32"}}, "kernel_regularizer": null, "bias_regularizer": null, "activity_regularizer": null, "kernel_constraint": null, "bias_constraint": null}, "inbound_nodes": [[["594", 0, 0, {}]]]}, {"name": "596", "class_name": "BatchNormalization", "config": {"name": "596", "trainable": true, "dtype": "float32", "axis": [1], "momentum": 0.8999999761581421, "epsilon": 9.999999747378752e-06, "center": true, "scale": true, "beta_initializer": {"class_name": "Zeros", "config": {"dtype": "float32"}}, "gamma_initializer": {"class_name": "Ones", "config": {"dtype": "float32"}}, "moving_mean_initializer": {"class_name": "Zeros", "config": {"dtype": "float32"}}, "moving_variance_initializer": {"class_name": "Ones", "config": {"dtype": "float32"}}, "beta_regularizer": null, "gamma_regularizer": null, "beta_constraint": null, "gamma_constraint": null}, "inbound_nodes": [[["595", 0, 0, {}]]]}, {"name": "597", "class_name": "Conv2D", "config": {"name": "597", "trainable": true, "dtype": "float32", "filters": 960, "kernel_size": [1, 1], "strides": [1, 1], "padding": "valid", "data_format": "channels_first", "dilation_rate": [1, 1], "activation": "linear", "use_bias": false, "kernel_initializer": {"class_name": "Zeros", "config": {"dtype": "float32"}}, "bias_initializer": {"class_name": "Zeros", "config": {"dtype": "float32"}}, "kernel_regularizer": null, "bias_regularizer": null, "activity_regularizer": null, "kernel_constraint": null, "bias_constraint": null}, "inbound_nodes": [[["596", 0, 0, {}]]]}, {"name": "598", "class_name": "BatchNormalization", "config": {"name": "598", "trainable": true, "dtype": "float32", "axis": [1], "momentum": 0.8999999761581421, "epsilon": 9.999999747378752e-06, "center": true, "scale": true, "beta_initializer": {"class_name": "Zeros", "config": {"dtype": "float32"}}, "gamma_initializer": {"class_name": "Ones", "config": {"dtype": "float32"}}, "moving_mean_initializer": {"class_name": "Zeros", "config": {"dtype": "float32"}}, "moving_variance_initializer": {"class_name": "Ones", "config": {"dtype": "float32"}}, "beta_regularizer": null, "gamma_regularizer": null, "beta_constraint": null, "gamma_constraint": null}, "inbound_nodes": [[["597", 0, 0, {}]]]}, {"name": "599", "class_name": "Activation", "config": {"name": "599", "trainable": true, "dtype": "float32", "activation": "relu"}, "inbound_nodes": [[["598", 0, 0, {}]]]}, {"name": "600_pad", "class_name": "ZeroPadding2D", "config": {"name": "600_pad", "trainable": true, "dtype": "float32", "padding": [[2, 2], [2, 2]], "data_format": "channels_first"}, "inbound_nodes": [[["599", 0, 0, {}]]]}, {"name": "600", "class_name": "DepthwiseConv2D", "config": {"name": "600", "trainable": true, "dtype": "float32", "kernel_size": [5, 5], "strides": [1, 1], "padding": "valid", "data_format": "channels_first", "dilation_rate": [1, 1], "activation": "linear", "use_bias": false, "bias_initializer": {"class_name": "Zeros", "config": {"dtype": "float32"}}, "bias_regularizer": null, "activity_regularizer": null, "bias_constraint": null, "depth_multiplier": 1, "depthwise_initializer": {"class_name": "GlorotUniform", "config": {"seed": null, "dtype": "float32"}}, "depthwise_regularizer": null, "depthwise_constraint": null}, "inbound_nodes": [[["600_pad", 0, 0, {}]]]}, {"name": "601", "class_name": "BatchNormalization", "config": {"name": "601", "trainable": true, "dtype": "float32", "axis": [1], "momentum": 0.8999999761581421, "epsilon": 9.999999747378752e-06, "center": true, "scale": true, "beta_initializer": {"class_name": "Zeros", "config": {"dtype": "float32"}}, "gamma_initializer": {"class_name": "Ones", "config": {"dtype": "float32"}}, "moving_mean_initializer": {"class_name": "Zeros", "config": {"dtype": "float32"}}, "moving_variance_initializer": {"class_name": "Ones", "config": {"dtype": "float32"}}, "beta_regularizer": null, "gamma_regularizer": null, "beta_constraint": null, "gamma_constraint": null}, "inbound_nodes": [[["600", 0, 0, {}]]]}, {"name": "608", "class_name": "ZeroPadding2D", "config": {"name": "608", "trainable": true, "dtype": "float32", "padding": [[0, 0], [0, 0]], "data_format": "channels_first"}, "inbound_nodes": [[["601", 0, 0, {}]]]}, {"name": "609", "class_name": "AveragePooling2D", "config": {"name": "609", "trainable": true, "dtype": "float32", "pool_size": [14, 14], "padding": "valid", "strides": [14, 14], "data_format": "channels_first"}, "inbound_nodes": [[["608", 0, 0, {}]]]}, {"name": "613", "class_name": "Reshape", "config": {"name": "613", "trainable": true, "dtype": "float32", "target_shape": [960]}, "inbound_nodes": [[["609", 0, 0, {}]]]}, {"name": "614", "class_name": "Dense", "config": {"name": "614", "trainable": true, "dtype": "float32", "units": 240, "activation": "linear", "use_bias": true, "kernel_initializer": {"class_name": "Zeros", "config": {"dtype": "float32"}}, "bias_initializer": {"class_name": "Zeros", "config": {"dtype": "float32"}}, "kernel_regularizer": null, "bias_regularizer": null, "activity_regularizer": null, "kernel_constraint": null, "bias_constraint": null}, "inbound_nodes": [[["613", 0, 0, {}]]]}, {"name": "615", "class_name": "Activation", "config": {"name": "615", "trainable": true, "dtype": "float32", "activation": "relu"}, "inbound_nodes": [[["614", 0, 0, {}]]]}, {"name": "616", "class_name": "Dense", "config": {"name": "616", "trainable": true, "dtype": "float32", "units": 960, "activation": "linear", "use_bias": true, "kernel_initializer": {"class_name": "Zeros", "config": {"dtype": "float32"}}, "bias_initializer": {"class_name": "Zeros", "config": {"dtype": "float32"}}, "kernel_regularizer": null, "bias_regularizer": null, "activity_regularizer": null, "kernel_constraint": null, "bias_constraint": null}, "inbound_nodes": [[["615", 0, 0, {}]]]}, {"name": "617", "class_name": "Activation", "config": {"name": "617", "trainable": true, "dtype": "float32", "activation": "sigmoid"}, "inbound_nodes": [[["616", 0, 0, {}]]]}, {"name": "625", "class_name": "Reshape", "config": {"name": "625", "trainable": true, "dtype": "float32", "target_shape": [960, 1, 1]}, "inbound_nodes": [[["617", 0, 0, {}]]]}, {"name": "626", "class_name": "Multiply", "config": {"name": "626", "trainable": true, "dtype": "float32"}, "inbound_nodes": [[["601", 0, 0, {}], ["625", 0, 0, {}]]]}, {"name": "627", "class_name": "Activation", "config": {"name": "627", "trainable": true, "dtype": "float32", "activation": "relu"}, "inbound_nodes": [[["626", 0, 0, {}]]]}, {"name": "628", "class_name": "Conv2D", "config": {"name": "628", "trainable": true, "dtype": "float32", "filters": 160, "kernel_size": [1, 1], "strides": [1, 1], "padding": "valid", "data_format": "channels_first", "dilation_rate": [1, 1], "activation": "linear", "use_bias": false, "kernel_initializer": {"class_name": "Zeros", "config": {"dtype": "float32"}}, "bias_initializer": {"class_name": "Zeros", "config": {"dtype": "float32"}}, "kernel_regularizer": null, "bias_regularizer": null, "activity_regularizer": null, "kernel_constraint": null, "bias_constraint": null}, "inbound_nodes": [[["627", 0, 0, {}]]]}, {"name": "629", "class_name": "BatchNormalization", "config": {"name": "629", "trainable": true, "dtype": "float32", "axis": [1], "momentum": 0.8999999761581421, "epsilon": 9.999999747378752e-06, "center": true, "scale": true, "beta_initializer": {"class_name": "Zeros", "config": {"dtype": "float32"}}, "gamma_initializer": {"class_name": "Ones", "config": {"dtype": "float32"}}, "moving_mean_initializer": {"class_name": "Zeros", "config": {"dtype": "float32"}}, "moving_variance_initializer": {"class_name": "Ones", "config": {"dtype": "float32"}}, "beta_regularizer": null, "gamma_regularizer": null, "beta_constraint": null, "gamma_constraint": null}, "inbound_nodes": [[["628", 0, 0, {}]]]}, {"name": "630", "class_name": "Add", "config": {"name": "630", "trainable": true, "dtype": "float32"}, "inbound_nodes": [[["596", 0, 0, {}], ["629", 0, 0, {}]]]}, {"name": "631", "class_name": "Conv2D", "config": {"name": "631", "trainable": true, "dtype": "float32", "filters": 960, "kernel_size": [1, 1], "strides": [1, 1], "padding": "valid", "data_format": "channels_first", "dilation_rate": [1, 1], "activation": "linear", "use_bias": false, "kernel_initializer": {"class_name": "Zeros", "config": {"dtype": "float32"}}, "bias_initializer": {"class_name": "Zeros", "config": {"dtype": "float32"}}, "kernel_regularizer": null, "bias_regularizer": null, "activity_regularizer": null, "kernel_constraint": null, "bias_constraint": null}, "inbound_nodes": [[["630", 0, 0, {}]]]}, {"name": "632", "class_name": "BatchNormalization", "config": {"name": "632", "trainable": true, "dtype": "float32", "axis": [1], "momentum": 0.8999999761581421, "epsilon": 9.999999747378752e-06, "center": true, "scale": true, "beta_initializer": {"class_name": "Zeros", "config": {"dtype": "float32"}}, "gamma_initializer": {"class_name": "Ones", "config": {"dtype": "float32"}}, "moving_mean_initializer": {"class_name": "Zeros", "config": {"dtype": "float32"}}, "moving_variance_initializer": {"class_name": "Ones", "config": {"dtype": "float32"}}, "beta_regularizer": null, "gamma_regularizer": null, "beta_constraint": null, "gamma_constraint": null}, "inbound_nodes": [[["631", 0, 0, {}]]]}, {"name": "633", "class_name": "Activation", "config": {"name": "633", "trainable": true, "dtype": "float32", "activation": "relu"}, "inbound_nodes": [[["632", 0, 0, {}]]]}, {"name": "634_pad", "class_name": "ZeroPadding2D", "config": {"name": "634_pad", "trainable": true, "dtype": "float32", "padding": [[2, 2], [2, 2]], "data_format": "channels_first"}, "inbound_nodes": [[["633", 0, 0, {}]]]}, {"name": "634", "class_name": "DepthwiseConv2D", "config": {"name": "634", "trainable": true, "dtype": "float32", "kernel_size": [5, 5], "strides": [1, 1], "padding": "valid", "data_format": "channels_first", "dilation_rate": [1, 1], "activation": "linear", "use_bias": false, "bias_initializer": {"class_name": "Zeros", "config": {"dtype": "float32"}}, "bias_regularizer": null, "activity_regularizer": null, "bias_constraint": null, "depth_multiplier": 1, "depthwise_initializer": {"class_name": "GlorotUniform", "config": {"seed": null, "dtype": "float32"}}, "depthwise_regularizer": null, "depthwise_constraint": null}, "inbound_nodes": [[["634_pad", 0, 0, {}]]]}, {"name": "635", "class_name": "BatchNormalization", "config": {"name": "635", "trainable": true, "dtype": "float32", "axis": [1], "momentum": 0.8999999761581421, "epsilon": 9.999999747378752e-06, "center": true, "scale": true, "beta_initializer": {"class_name": "Zeros", "config": {"dtype": "float32"}}, "gamma_initializer": {"class_name": "Ones", "config": {"dtype": "float32"}}, "moving_mean_initializer": {"class_name": "Zeros", "config": {"dtype": "float32"}}, "moving_variance_initializer": {"class_name": "Ones", "config": {"dtype": "float32"}}, "beta_regularizer": null, "gamma_regularizer": null, "beta_constraint": null, "gamma_constraint": null}, "inbound_nodes": [[["634", 0, 0, {}]]]}, {"name": "642", "class_name": "ZeroPadding2D", "config": {"name": "642", "trainable": true, "dtype": "float32", "padding": [[0, 0], [0, 0]], "data_format": "channels_first"}, "inbound_nodes": [[["635", 0, 0, {}]]]}, {"name": "643", "class_name": "AveragePooling2D", "config": {"name": "643", "trainable": true, "dtype": "float32", "pool_size": [14, 14], "padding": "valid", "strides": [14, 14], "data_format": "channels_first"}, "inbound_nodes": [[["642", 0, 0, {}]]]}, {"name": "647", "class_name": "Reshape", "config": {"name": "647", "trainable": true, "dtype": "float32", "target_shape": [960]}, "inbound_nodes": [[["643", 0, 0, {}]]]}, {"name": "648", "class_name": "Dense", "config": {"name": "648", "trainable": true, "dtype": "float32", "units": 240, "activation": "linear", "use_bias": true, "kernel_initializer": {"class_name": "Zeros", "config": {"dtype": "float32"}}, "bias_initializer": {"class_name": "Zeros", "config": {"dtype": "float32"}}, "kernel_regularizer": null, "bias_regularizer": null, "activity_regularizer": null, "kernel_constraint": null, "bias_constraint": null}, "inbound_nodes": [[["647", 0, 0, {}]]]}, {"name": "649", "class_name": "Activation", "config": {"name": "649", "trainable": true, "dtype": "float32", "activation": "relu"}, "inbound_nodes": [[["648", 0, 0, {}]]]}, {"name": "650", "class_name": "Dense", "config": {"name": "650", "trainable": true, "dtype": "float32", "units": 960, "activation": "linear", "use_bias": true, "kernel_initializer": {"class_name": "Zeros", "config": {"dtype": "float32"}}, "bias_initializer": {"class_name": "Zeros", "config": {"dtype": "float32"}}, "kernel_regularizer": null, "bias_regularizer": null, "activity_regularizer": null, "kernel_constraint": null, "bias_constraint": null}, "inbound_nodes": [[["649", 0, 0, {}]]]}, {"name": "651", "class_name": "Activation", "config": {"name": "651", "trainable": true, "dtype": "float32", "activation": "sigmoid"}, "inbound_nodes": [[["650", 0, 0, {}]]]}, {"name": "659", "class_name": "Reshape", "config": {"name": "659", "trainable": true, "dtype": "float32", "target_shape": [960, 1, 1]}, "inbound_nodes": [[["651", 0, 0, {}]]]}, {"name": "660", "class_name": "Multiply", "config": {"name": "660", "trainable": true, "dtype": "float32"}, "inbound_nodes": [[["635", 0, 0, {}], ["659", 0, 0, {}]]]}, {"name": "661", "class_name": "Activation", "config": {"name": "661", "trainable": true, "dtype": "float32", "activation": "relu"}, "inbound_nodes": [[["660", 0, 0, {}]]]}, {"name": "662", "class_name": "Conv2D", "config": {"name": "662", "trainable": true, "dtype": "float32", "filters": 160, "kernel_size": [1, 1], "strides": [1, 1], "padding": "valid", "data_format": "channels_first", "dilation_rate": [1, 1], "activation": "linear", "use_bias": false, "kernel_initializer": {"class_name": "Zeros", "config": {"dtype": "float32"}}, "bias_initializer": {"class_name": "Zeros", "config": {"dtype": "float32"}}, "kernel_regularizer": null, "bias_regularizer": null, "activity_regularizer": null, "kernel_constraint": null, "bias_constraint": null}, "inbound_nodes": [[["661", 0, 0, {}]]]}, {"name": "663", "class_name": "BatchNormalization", "config": {"name": "663", "trainable": true, "dtype": "float32", "axis": [1], "momentum": 0.8999999761581421, "epsilon": 9.999999747378752e-06, "center": true, "scale": true, "beta_initializer": {"class_name": "Zeros", "config": {"dtype": "float32"}}, "gamma_initializer": {"class_name": "Ones", "config": {"dtype": "float32"}}, "moving_mean_initializer": {"class_name": "Zeros", "config": {"dtype": "float32"}}, "moving_variance_initializer": {"class_name": "Ones", "config": {"dtype": "float32"}}, "beta_regularizer": null, "gamma_regularizer": null, "beta_constraint": null, "gamma_constraint": null}, "inbound_nodes": [[["662", 0, 0, {}]]]}, {"name": "664", "class_name": "Add", "config": {"name": "664", "trainable": true, "dtype": "float32"}, "inbound_nodes": [[["630", 0, 0, {}], ["663", 0, 0, {}]]]}, {"name": "691", "class_name": "UpSampling2Dcustom", "config": {"name": "691", "trainable": true, "dtype": "float32", "size": [4, 4], "data_format": "channels_first", "interpolation": "bilinear", "alignCorners": true, "halfPixelCenters": true}, "inbound_nodes": [[["664", 0, 0, {}]]]}, {"name": "692", "class_name": "ZeroPadding2D", "config": {"name": "692", "trainable": true, "dtype": "float32", "padding": [[0, 0], [0, 0]], "data_format": "channels_first"}, "inbound_nodes": [[["691", 0, 0, {}]]]}, {"name": "724", "class_name": "ZeroPadding2D", "config": {"name": "724", "trainable": true, "dtype": "float32", "padding": [[0, 0], [0, 0]], "data_format": "channels_first"}, "inbound_nodes": [[["691", 0, 0, {}]]]}, {"name": "756", "class_name": "ZeroPadding2D", "config": {"name": "756", "trainable": true, "dtype": "float32", "padding": [[0, 0], [0, 0]], "data_format": "channels_first"}, "inbound_nodes": [[["691", 0, 0, {}]]]}, {"name": "788", "class_name": "ZeroPadding2D", "config": {"name": "788", "trainable": true, "dtype": "float32", "padding": [[0, 0], [0, 0]], "data_format": "channels_first"}, "inbound_nodes": [[["691", 0, 0, {}]]]}, {"name": "693", "class_name": "AveragePooling2D", "config": {"name": "693", "trainable": true, "dtype": "float32", "pool_size": [56, 56], "padding": "valid", "strides": [56, 56], "data_format": "channels_first"}, "inbound_nodes": [[["692", 0, 0, {}]]]}, {"name": "725", "class_name": "AveragePooling2D", "config": {"name": "725", "trainable": true, "dtype": "float32", "pool_size": [28, 28], "padding": "valid", "strides": [28, 28], "data_format": "channels_first"}, "inbound_nodes": [[["724", 0, 0, {}]]]}, {"name": "757", "class_name": "AveragePooling2D", "config": {"name": "757", "trainable": true, "dtype": "float32", "pool_size": [14, 14], "padding": "valid", "strides": [14, 14], "data_format": "channels_first"}, "inbound_nodes": [[["756", 0, 0, {}]]]}, {"name": "789", "class_name": "AveragePooling2D", "config": {"name": "789", "trainable": true, "dtype": "float32", "pool_size": [7, 7], "padding": "valid", "strides": [7, 7], "data_format": "channels_first"}, "inbound_nodes": [[["788", 0, 0, {}]]]}, {"name": "694", "class_name": "Conv2D", "config": {"name": "694", "trainable": true, "dtype": "float32", "filters": 40, "kernel_size": [1, 1], "strides": [1, 1], "padding": "valid", "data_format": "channels_first", "dilation_rate": [1, 1], "activation": "linear", "use_bias": false, "kernel_initializer": {"class_name": "Zeros", "config": {"dtype": "float32"}}, "bias_initializer": {"class_name": "Zeros", "config": {"dtype": "float32"}}, "kernel_regularizer": null, "bias_regularizer": null, "activity_regularizer": null, "kernel_constraint": null, "bias_constraint": null}, "inbound_nodes": [[["693", 0, 0, {}]]]}, {"name": "726", "class_name": "Conv2D", "config": {"name": "726", "trainable": true, "dtype": "float32", "filters": 40, "kernel_size": [1, 1], "strides": [1, 1], "padding": "valid", "data_format": "channels_first", "dilation_rate": [1, 1], "activation": "linear", "use_bias": false, "kernel_initializer": {"class_name": "Zeros", "config": {"dtype": "float32"}}, "bias_initializer": {"class_name": "Zeros", "config": {"dtype": "float32"}}, "kernel_regularizer": null, "bias_regularizer": null, "activity_regularizer": null, "kernel_constraint": null, "bias_constraint": null}, "inbound_nodes": [[["725", 0, 0, {}]]]}, {"name": "758", "class_name": "Conv2D", "config": {"name": "758", "trainable": true, "dtype": "float32", "filters": 40, "kernel_size": [1, 1], "strides": [1, 1], "padding": "valid", "data_format": "channels_first", "dilation_rate": [1, 1], "activation": "linear", "use_bias": false, "kernel_initializer": {"class_name": "Zeros", "config": {"dtype": "float32"}}, "bias_initializer": {"class_name": "Zeros", "config": {"dtype": "float32"}}, "kernel_regularizer": null, "bias_regularizer": null, "activity_regularizer": null, "kernel_constraint": null, "bias_constraint": null}, "inbound_nodes": [[["757", 0, 0, {}]]]}, {"name": "790", "class_name": "Conv2D", "config": {"name": "790", "trainable": true, "dtype": "float32", "filters": 40, "kernel_size": [1, 1], "strides": [1, 1], "padding": "valid", "data_format": "channels_first", "dilation_rate": [1, 1], "activation": "linear", "use_bias": false, "kernel_initializer": {"class_name": "Zeros", "config": {"dtype": "float32"}}, "bias_initializer": {"class_name": "Zeros", "config": {"dtype": "float32"}}, "kernel_regularizer": null, "bias_regularizer": null, "activity_regularizer": null, "kernel_constraint": null, "bias_constraint": null}, "inbound_nodes": [[["789", 0, 0, {}]]]}, {"name": "695", "class_name": "BatchNormalization", "config": {"name": "695", "trainable": true, "dtype": "float32", "axis": [1], "momentum": 0.8999999761581421, "epsilon": 9.999999747378752e-06, "center": true, "scale": true, "beta_initializer": {"class_name": "Zeros", "config": {"dtype": "float32"}}, "gamma_initializer": {"class_name": "Ones", "config": {"dtype": "float32"}}, "moving_mean_initializer": {"class_name": "Zeros", "config": {"dtype": "float32"}}, "moving_variance_initializer": {"class_name": "Ones", "config": {"dtype": "float32"}}, "beta_regularizer": null, "gamma_regularizer": null, "beta_constraint": null, "gamma_constraint": null}, "inbound_nodes": [[["694", 0, 0, {}]]]}, {"name": "727", "class_name": "BatchNormalization", "config": {"name": "727", "trainable": true, "dtype": "float32", "axis": [1], "momentum": 0.8999999761581421, "epsilon": 9.999999747378752e-06, "center": true, "scale": true, "beta_initializer": {"class_name": "Zeros", "config": {"dtype": "float32"}}, "gamma_initializer": {"class_name": "Ones", "config": {"dtype": "float32"}}, "moving_mean_initializer": {"class_name": "Zeros", "config": {"dtype": "float32"}}, "moving_variance_initializer": {"class_name": "Ones", "config": {"dtype": "float32"}}, "beta_regularizer": null, "gamma_regularizer": null, "beta_constraint": null, "gamma_constraint": null}, "inbound_nodes": [[["726", 0, 0, {}]]]}, {"name": "759", "class_name": "BatchNormalization", "config": {"name": "759", "trainable": true, "dtype": "float32", "axis": [1], "momentum": 0.8999999761581421, "epsilon": 9.999999747378752e-06, "center": true, "scale": true, "beta_initializer": {"class_name": "Zeros", "config": {"dtype": "float32"}}, "gamma_initializer": {"class_name": "Ones", "config": {"dtype": "float32"}}, "moving_mean_initializer": {"class_name": "Zeros", "config": {"dtype": "float32"}}, "moving_variance_initializer": {"class_name": "Ones", "config": {"dtype": "float32"}}, "beta_regularizer": null, "gamma_regularizer": null, "beta_constraint": null, "gamma_constraint": null}, "inbound_nodes": [[["758", 0, 0, {}]]]}, {"name": "791", "class_name": "BatchNormalization", "config": {"name": "791", "trainable": true, "dtype": "float32", "axis": [1], "momentum": 0.8999999761581421, "epsilon": 9.999999747378752e-06, "center": true, "scale": true, "beta_initializer": {"class_name": "Zeros", "config": {"dtype": "float32"}}, "gamma_initializer": {"class_name": "Ones", "config": {"dtype": "float32"}}, "moving_mean_initializer": {"class_name": "Zeros", "config": {"dtype": "float32"}}, "moving_variance_initializer": {"class_name": "Ones", "config": {"dtype": "float32"}}, "beta_regularizer": null, "gamma_regularizer": null, "beta_constraint": null, "gamma_constraint": null}, "inbound_nodes": [[["790", 0, 0, {}]]]}, {"name": "696", "class_name": "Activation", "config": {"name": "696", "trainable": true, "dtype": "float32", "activation": "relu"}, "inbound_nodes": [[["695", 0, 0, {}]]]}, {"name": "728", "class_name": "Activation", "config": {"name": "728", "trainable": true, "dtype": "float32", "activation": "relu"}, "inbound_nodes": [[["727", 0, 0, {}]]]}, {"name": "760", "class_name": "Activation", "config": {"name": "760", "trainable": true, "dtype": "float32", "activation": "relu"}, "inbound_nodes": [[["759", 0, 0, {}]]]}, {"name": "792", "class_name": "Activation", "config": {"name": "792", "trainable": true, "dtype": "float32", "activation": "relu"}, "inbound_nodes": [[["791", 0, 0, {}]]]}, {"name": "723", "class_name": "UpSampling2Dcustom", "config": {"name": "723", "trainable": true, "dtype": "float32", "size": [56, 56], "data_format": "channels_first", "interpolation": "bilinear", "alignCorners": true, "halfPixelCenters": true}, "inbound_nodes": [[["696", 0, 0, {}]]]}, {"name": "755", "class_name": "UpSampling2Dcustom", "config": {"name": "755", "trainable": true, "dtype": "float32", "size": [28, 28], "data_format": "channels_first", "interpolation": "bilinear", "alignCorners": true, "halfPixelCenters": true}, "inbound_nodes": [[["728", 0, 0, {}]]]}, {"name": "787", "class_name": "UpSampling2Dcustom", "config": {"name": "787", "trainable": true, "dtype": "float32", "size": [14, 14], "data_format": "channels_first", "interpolation": "bilinear", "alignCorners": true, "halfPixelCenters": true}, "inbound_nodes": [[["760", 0, 0, {}]]]}, {"name": "819", "class_name": "UpSampling2Dcustom", "config": {"name": "819", "trainable": true, "dtype": "float32", "size": [7, 7], "data_format": "channels_first", "interpolation": "bilinear", "alignCorners": true, "halfPixelCenters": true}, "inbound_nodes": [[["792", 0, 0, {}]]]}, {"name": "820", "class_name": "Concatenate", "config": {"name": "820", "trainable": true, "dtype": "float32", "axis": 1}, "inbound_nodes": [[["691", 0, 0, {}], ["723", 0, 0, {}], ["755", 0, 0, {}], ["787", 0, 0, {}], ["819", 0, 0, {}]]]}, {"name": "821_pad", "class_name": "ZeroPadding2D", "config": {"name": "821_pad", "trainable": true, "dtype": "float32", "padding": [[1, 1], [1, 1]], "data_format": "channels_first"}, "inbound_nodes": [[["820", 0, 0, {}]]]}, {"name": "821", "class_name": "Conv2D", "config": {"name": "821", "trainable": true, "dtype": "float32", "filters": 40, "kernel_size": [3, 3], "strides": [1, 1], "padding": "valid", "data_format": "channels_first", "dilation_rate": [1, 1], "activation": "linear", "use_bias": false, "kernel_initializer": {"class_name": "Zeros", "config": {"dtype": "float32"}}, "bias_initializer": {"class_name": "Zeros", "config": {"dtype": "float32"}}, "kernel_regularizer": null, "bias_regularizer": null, "activity_regularizer": null, "kernel_constraint": null, "bias_constraint": null}, "inbound_nodes": [[["821_pad", 0, 0, {}]]]}, {"name": "822", "class_name": "BatchNormalization", "config": {"name": "822", "trainable": true, "dtype": "float32", "axis": [1], "momentum": 0.8999999761581421, "epsilon": 9.999999747378752e-06, "center": true, "scale": true, "beta_initializer": {"class_name": "Zeros", "config": {"dtype": "float32"}}, "gamma_initializer": {"class_name": "Ones", "config": {"dtype": "float32"}}, "moving_mean_initializer": {"class_name": "Zeros", "config": {"dtype": "float32"}}, "moving_variance_initializer": {"class_name": "Ones", "config": {"dtype": "float32"}}, "beta_regularizer": null, "gamma_regularizer": null, "beta_constraint": null, "gamma_constraint": null}, "inbound_nodes": [[["821", 0, 0, {}]]]}, {"name": "823", "class_name": "Activation", "config": {"name": "823", "trainable": true, "dtype": "float32", "activation": "relu"}, "inbound_nodes": [[["822", 0, 0, {}]]]}, {"name": "824", "class_name": "Conv2D", "config": {"name": "824", "trainable": true, "dtype": "float32", "filters": 2, "kernel_size": [1, 1], "strides": [1, 1], "padding": "valid", "data_format": "channels_first", "dilation_rate": [1, 1], "activation": "linear", "use_bias": true, "kernel_initializer": {"class_name": "Zeros", "config": {"dtype": "float32"}}, "bias_initializer": {"class_name": "Zeros", "config": {"dtype": "float32"}}, "kernel_regularizer": null, "bias_regularizer": null, "activity_regularizer": null, "kernel_constraint": null, "bias_constraint": null}, "inbound_nodes": [[["823", 0, 0, {}]]]}, {"name": "output_0", "class_name": "UpSampling2Dcustom", "config": {"name": "output_0", "trainable": true, "dtype": "float32", "size": [8, 8], "data_format": "channels_first", "interpolation": "bilinear", "alignCorners": true, "halfPixelCenters": true}, "inbound_nodes": [[["824", 0, 0, {}]]]}], "input_layers": [["input_0", 0, 0]], "output_layers": [["output_0", 0, 0]]}}}, "weightsManifest": [{"paths": ["group1-shard1of2.bin", "group1-shard2of2.bin"], "weights": [{"name": "335/kernel", "shape": [3, 3, 3, 16], "dtype": "float32", "quantization": {"dtype": "float16", "original_dtype": "float32"}}, {"name": "336/gamma", "shape": [16], "dtype": "float32", "quantization": {"dtype": "float16", "original_dtype": "float32"}}, {"name": "336/beta", "shape": [16], "dtype": "float32", "quantization": {"dtype": "float16", "original_dtype": "float32"}}, {"name": "336/moving_mean", "shape": [16], "dtype": "float32", "quantization": {"dtype": "float16", "original_dtype": "float32"}}, {"name": "336/moving_variance", "shape": [16], "dtype": "float32", "quantization": {"dtype": "float16", "original_dtype": "float32"}}, {"name": "338/depthwise_kernel", "shape": [3, 3, 16, 1], "dtype": "float32", "quantization": {"dtype": "float16", "original_dtype": "float32"}}, {"name": "339/gamma", "shape": [16], "dtype": "float32", "quantization": {"dtype": "float16", "original_dtype": "float32"}}, {"name": "339/beta", "shape": [16], "dtype": "float32", "quantization": {"dtype": "float16", "original_dtype": "float32"}}, {"name": "339/moving_mean", "shape": [16], "dtype": "float32", "quantization": {"dtype": "float16", "original_dtype": "float32"}}, {"name": "339/moving_variance", "shape": [16], "dtype": "float32", "quantization": {"dtype": "float16", "original_dtype": "float32"}}, {"name": "341/kernel", "shape": [1, 1, 16, 16], "dtype": "float32", "quantization": {"dtype": "float16", "original_dtype": "float32"}}, {"name": "342/gamma", "shape": [16], "dtype": "float32", "quantization": {"dtype": "float16", "original_dtype": "float32"}}, {"name": "342/beta", "shape": [16], "dtype": "float32", "quantization": {"dtype": "float16", "original_dtype": "float32"}}, {"name": "342/moving_mean", "shape": [16], "dtype": "float32", "quantization": {"dtype": "float16", "original_dtype": "float32"}}, {"name": "342/moving_variance", "shape": [16], "dtype": "float32", "quantization": {"dtype": "float16", "original_dtype": "float32"}}, {"name": "344/kernel", "shape": [1, 1, 16, 64], "dtype": "float32", "quantization": {"dtype": "float16", "original_dtype": "float32"}}, {"name": "345/gamma", "shape": [64], "dtype": "float32", "quantization": {"dtype": "float16", "original_dtype": "float32"}}, {"name": "345/beta", "shape": [64], "dtype": "float32", "quantization": {"dtype": "float16", "original_dtype": "float32"}}, {"name": "345/moving_mean", "shape": [64], "dtype": "float32", "quantization": {"dtype": "float16", "original_dtype": "float32"}}, {"name": "345/moving_variance", "shape": [64], "dtype": "float32", "quantization": {"dtype": "float16", "original_dtype": "float32"}}, {"name": "347/depthwise_kernel", "shape": [3, 3, 64, 1], "dtype": "float32", "quantization": {"dtype": "float16", "original_dtype": "float32"}}, {"name": "348/gamma", "shape": [64], "dtype": "float32", "quantization": {"dtype": "float16", "original_dtype": "float32"}}, {"name": "348/beta", "shape": [64], "dtype": "float32", "quantization": {"dtype": "float16", "original_dtype": "float32"}}, {"name": "348/moving_mean", "shape": [64], "dtype": "float32", "quantization": {"dtype": "float16", "original_dtype": "float32"}}, {"name": "348/moving_variance", "shape": [64], "dtype": "float32", "quantization": {"dtype": "float16", "original_dtype": "float32"}}, {"name": "350/kernel", "shape": [1, 1, 64, 24], "dtype": "float32", "quantization": {"dtype": "float16", "original_dtype": "float32"}}, {"name": "351/gamma", "shape": [24], "dtype": "float32", "quantization": {"dtype": "float16", "original_dtype": "float32"}}, {"name": "351/beta", "shape": [24], "dtype": "float32", "quantization": {"dtype": "float16", "original_dtype": "float32"}}, {"name": "351/moving_mean", "shape": [24], "dtype": "float32", "quantization": {"dtype": "float16", "original_dtype": "float32"}}, {"name": "351/moving_variance", "shape": [24], "dtype": "float32", "quantization": {"dtype": "float16", "original_dtype": "float32"}}, {"name": "352/kernel", "shape": [1, 1, 24, 72], "dtype": "float32", "quantization": {"dtype": "float16", "original_dtype": "float32"}}, {"name": "353/gamma", "shape": [72], "dtype": "float32", "quantization": {"dtype": "float16", "original_dtype": "float32"}}, {"name": "353/beta", "shape": [72], "dtype": "float32", "quantization": {"dtype": "float16", "original_dtype": "float32"}}, {"name": "353/moving_mean", "shape": [72], "dtype": "float32", "quantization": {"dtype": "float16", "original_dtype": "float32"}}, {"name": "353/moving_variance", "shape": [72], "dtype": "float32", "quantization": {"dtype": "float16", "original_dtype": "float32"}}, {"name": "355/depthwise_kernel", "shape": [3, 3, 72, 1], "dtype": "float32", "quantization": {"dtype": "float16", "original_dtype": "float32"}}, {"name": "356/gamma", "shape": [72], "dtype": "float32", "quantization": {"dtype": "float16", "original_dtype": "float32"}}, {"name": "356/beta", "shape": [72], "dtype": "float32", "quantization": {"dtype": "float16", "original_dtype": "float32"}}, {"name": "356/moving_mean", "shape": [72], "dtype": "float32", "quantization": {"dtype": "float16", "original_dtype": "float32"}}, {"name": "356/moving_variance", "shape": [72], "dtype": "float32", "quantization": {"dtype": "float16", "original_dtype": "float32"}}, {"name": "358/kernel", "shape": [1, 1, 72, 24], "dtype": "float32", "quantization": {"dtype": "float16", "original_dtype": "float32"}}, {"name": "359/gamma", "shape": [24], "dtype": "float32", "quantization": {"dtype": "float16", "original_dtype": "float32"}}, {"name": "359/beta", "shape": [24], "dtype": "float32", "quantization": {"dtype": "float16", "original_dtype": "float32"}}, {"name": "359/moving_mean", "shape": [24], "dtype": "float32", "quantization": {"dtype": "float16", "original_dtype": "float32"}}, {"name": "359/moving_variance", "shape": [24], "dtype": "float32", "quantization": {"dtype": "float16", "original_dtype": "float32"}}, {"name": "361/kernel", "shape": [1, 1, 24, 72], "dtype": "float32", "quantization": {"dtype": "float16", "original_dtype": "float32"}}, {"name": "362/gamma", "shape": [72], "dtype": "float32", "quantization": {"dtype": "float16", "original_dtype": "float32"}}, {"name": "362/beta", "shape": [72], "dtype": "float32", "quantization": {"dtype": "float16", "original_dtype": "float32"}}, {"name": "362/moving_mean", "shape": [72], "dtype": "float32", "quantization": {"dtype": "float16", "original_dtype": "float32"}}, {"name": "362/moving_variance", "shape": [72], "dtype": "float32", "quantization": {"dtype": "float16", "original_dtype": "float32"}}, {"name": "364/depthwise_kernel", "shape": [5, 5, 72, 1], "dtype": "float32", "quantization": {"dtype": "float16", "original_dtype": "float32"}}, {"name": "365/gamma", "shape": [72], "dtype": "float32", "quantization": {"dtype": "float16", "original_dtype": "float32"}}, {"name": "365/beta", "shape": [72], "dtype": "float32", "quantization": {"dtype": "float16", "original_dtype": "float32"}}, {"name": "365/moving_mean", "shape": [72], "dtype": "float32", "quantization": {"dtype": "float16", "original_dtype": "float32"}}, {"name": "365/moving_variance", "shape": [72], "dtype": "float32", "quantization": {"dtype": "float16", "original_dtype": "float32"}}, {"name": "378/kernel", "shape": [72, 24], "dtype": "float32", "quantization": {"dtype": "float16", "original_dtype": "float32"}}, {"name": "378/bias", "shape": [24], "dtype": "float32", "quantization": {"dtype": "float16", "original_dtype": "float32"}}, {"name": "380/kernel", "shape": [24, 72], "dtype": "float32", "quantization": {"dtype": "float16", "original_dtype": "float32"}}, {"name": "380/bias", "shape": [72], "dtype": "float32", "quantization": {"dtype": "float16", "original_dtype": "float32"}}, {"name": "392/kernel", "shape": [1, 1, 72, 40], "dtype": "float32", "quantization": {"dtype": "float16", "original_dtype": "float32"}}, {"name": "393/gamma", "shape": [40], "dtype": "float32", "quantization": {"dtype": "float16", "original_dtype": "float32"}}, {"name": "393/beta", "shape": [40], "dtype": "float32", "quantization": {"dtype": "float16", "original_dtype": "float32"}}, {"name": "393/moving_mean", "shape": [40], "dtype": "float32", "quantization": {"dtype": "float16", "original_dtype": "float32"}}, {"name": "393/moving_variance", "shape": [40], "dtype": "float32", "quantization": {"dtype": "float16", "original_dtype": "float32"}}, {"name": "394/kernel", "shape": [1, 1, 40, 120], "dtype": "float32", "quantization": {"dtype": "float16", "original_dtype": "float32"}}, {"name": "395/gamma", "shape": [120], "dtype": "float32", "quantization": {"dtype": "float16", "original_dtype": "float32"}}, {"name": "395/beta", "shape": [120], "dtype": "float32", "quantization": {"dtype": "float16", "original_dtype": "float32"}}, {"name": "395/moving_mean", "shape": [120], "dtype": "float32", "quantization": {"dtype": "float16", "original_dtype": "float32"}}, {"name": "395/moving_variance", "shape": [120], "dtype": "float32", "quantization": {"dtype": "float16", "original_dtype": "float32"}}, {"name": "397/depthwise_kernel", "shape": [5, 5, 120, 1], "dtype": "float32", "quantization": {"dtype": "float16", "original_dtype": "float32"}}, {"name": "398/gamma", "shape": [120], "dtype": "float32", "quantization": {"dtype": "float16", "original_dtype": "float32"}}, {"name": "398/beta", "shape": [120], "dtype": "float32", "quantization": {"dtype": "float16", "original_dtype": "float32"}}, {"name": "398/moving_mean", "shape": [120], "dtype": "float32", "quantization": {"dtype": "float16", "original_dtype": "float32"}}, {"name": "398/moving_variance", "shape": [120], "dtype": "float32", "quantization": {"dtype": "float16", "original_dtype": "float32"}}, {"name": "411/kernel", "shape": [120, 32], "dtype": "float32", "quantization": {"dtype": "float16", "original_dtype": "float32"}}, {"name": "411/bias", "shape": [32], "dtype": "float32", "quantization": {"dtype": "float16", "original_dtype": "float32"}}, {"name": "413/kernel", "shape": [32, 120], "dtype": "float32", "quantization": {"dtype": "float16", "original_dtype": "float32"}}, {"name": "413/bias", "shape": [120], "dtype": "float32", "quantization": {"dtype": "float16", "original_dtype": "float32"}}, {"name": "425/kernel", "shape": [1, 1, 120, 40], "dtype": "float32", "quantization": {"dtype": "float16", "original_dtype": "float32"}}, {"name": "426/gamma", "shape": [40], "dtype": "float32", "quantization": {"dtype": "float16", "original_dtype": "float32"}}, {"name": "426/beta", "shape": [40], "dtype": "float32", "quantization": {"dtype": "float16", "original_dtype": "float32"}}, {"name": "426/moving_mean", "shape": [40], "dtype": "float32", "quantization": {"dtype": "float16", "original_dtype": "float32"}}, {"name": "426/moving_variance", "shape": [40], "dtype": "float32", "quantization": {"dtype": "float16", "original_dtype": "float32"}}, {"name": "428/kernel", "shape": [1, 1, 40, 120], "dtype": "float32", "quantization": {"dtype": "float16", "original_dtype": "float32"}}, {"name": "429/gamma", "shape": [120], "dtype": "float32", "quantization": {"dtype": "float16", "original_dtype": "float32"}}, {"name": "429/beta", "shape": [120], "dtype": "float32", "quantization": {"dtype": "float16", "original_dtype": "float32"}}, {"name": "429/moving_mean", "shape": [120], "dtype": "float32", "quantization": {"dtype": "float16", "original_dtype": "float32"}}, {"name": "429/moving_variance", "shape": [120], "dtype": "float32", "quantization": {"dtype": "float16", "original_dtype": "float32"}}, {"name": "431/depthwise_kernel", "shape": [5, 5, 120, 1], "dtype": "float32", "quantization": {"dtype": "float16", "original_dtype": "float32"}}, {"name": "432/gamma", "shape": [120], "dtype": "float32", "quantization": {"dtype": "float16", "original_dtype": "float32"}}, {"name": "432/beta", "shape": [120], "dtype": "float32", "quantization": {"dtype": "float16", "original_dtype": "float32"}}, {"name": "432/moving_mean", "shape": [120], "dtype": "float32", "quantization": {"dtype": "float16", "original_dtype": "float32"}}, {"name": "432/moving_variance", "shape": [120], "dtype": "float32", "quantization": {"dtype": "float16", "original_dtype": "float32"}}, {"name": "445/kernel", "shape": [120, 32], "dtype": "float32", "quantization": {"dtype": "float16", "original_dtype": "float32"}}, {"name": "445/bias", "shape": [32], "dtype": "float32", "quantization": {"dtype": "float16", "original_dtype": "float32"}}, {"name": "447/kernel", "shape": [32, 120], "dtype": "float32", "quantization": {"dtype": "float16", "original_dtype": "float32"}}, {"name": "447/bias", "shape": [120], "dtype": "float32", "quantization": {"dtype": "float16", "original_dtype": "float32"}}, {"name": "459/kernel", "shape": [1, 1, 120, 40], "dtype": "float32", "quantization": {"dtype": "float16", "original_dtype": "float32"}}, {"name": "460/gamma", "shape": [40], "dtype": "float32", "quantization": {"dtype": "float16", "original_dtype": "float32"}}, {"name": "460/beta", "shape": [40], "dtype": "float32", "quantization": {"dtype": "float16", "original_dtype": "float32"}}, {"name": "460/moving_mean", "shape": [40], "dtype": "float32", "quantization": {"dtype": "float16", "original_dtype": "float32"}}, {"name": "460/moving_variance", "shape": [40], "dtype": "float32", "quantization": {"dtype": "float16", "original_dtype": "float32"}}, {"name": "462/kernel", "shape": [1, 1, 40, 240], "dtype": "float32", "quantization": {"dtype": "float16", "original_dtype": "float32"}}, {"name": "463/gamma", "shape": [240], "dtype": "float32", "quantization": {"dtype": "float16", "original_dtype": "float32"}}, {"name": "463/beta", "shape": [240], "dtype": "float32", "quantization": {"dtype": "float16", "original_dtype": "float32"}}, {"name": "463/moving_mean", "shape": [240], "dtype": "float32", "quantization": {"dtype": "float16", "original_dtype": "float32"}}, {"name": "463/moving_variance", "shape": [240], "dtype": "float32", "quantization": {"dtype": "float16", "original_dtype": "float32"}}, {"name": "465/depthwise_kernel", "shape": [3, 3, 240, 1], "dtype": "float32", "quantization": {"dtype": "float16", "original_dtype": "float32"}}, {"name": "466/gamma", "shape": [240], "dtype": "float32", "quantization": {"dtype": "float16", "original_dtype": "float32"}}, {"name": "466/beta", "shape": [240], "dtype": "float32", "quantization": {"dtype": "float16", "original_dtype": "float32"}}, {"name": "466/moving_mean", "shape": [240], "dtype": "float32", "quantization": {"dtype": "float16", "original_dtype": "float32"}}, {"name": "466/moving_variance", "shape": [240], "dtype": "float32", "quantization": {"dtype": "float16", "original_dtype": "float32"}}, {"name": "468/kernel", "shape": [1, 1, 240, 80], "dtype": "float32", "quantization": {"dtype": "float16", "original_dtype": "float32"}}, {"name": "469/gamma", "shape": [80], "dtype": "float32", "quantization": {"dtype": "float16", "original_dtype": "float32"}}, {"name": "469/beta", "shape": [80], "dtype": "float32", "quantization": {"dtype": "float16", "original_dtype": "float32"}}, {"name": "469/moving_mean", "shape": [80], "dtype": "float32", "quantization": {"dtype": "float16", "original_dtype": "float32"}}, {"name": "469/moving_variance", "shape": [80], "dtype": "float32", "quantization": {"dtype": "float16", "original_dtype": "float32"}}, {"name": "470/kernel", "shape": [1, 1, 80, 200], "dtype": "float32", "quantization": {"dtype": "float16", "original_dtype": "float32"}}, {"name": "471/gamma", "shape": [200], "dtype": "float32", "quantization": {"dtype": "float16", "original_dtype": "float32"}}, {"name": "471/beta", "shape": [200], "dtype": "float32", "quantization": {"dtype": "float16", "original_dtype": "float32"}}, {"name": "471/moving_mean", "shape": [200], "dtype": "float32", "quantization": {"dtype": "float16", "original_dtype": "float32"}}, {"name": "471/moving_variance", "shape": [200], "dtype": "float32", "quantization": {"dtype": "float16", "original_dtype": "float32"}}, {"name": "473/depthwise_kernel", "shape": [3, 3, 200, 1], "dtype": "float32", "quantization": {"dtype": "float16", "original_dtype": "float32"}}, {"name": "474/gamma", "shape": [200], "dtype": "float32", "quantization": {"dtype": "float16", "original_dtype": "float32"}}, {"name": "474/beta", "shape": [200], "dtype": "float32", "quantization": {"dtype": "float16", "original_dtype": "float32"}}, {"name": "474/moving_mean", "shape": [200], "dtype": "float32", "quantization": {"dtype": "float16", "original_dtype": "float32"}}, {"name": "474/moving_variance", "shape": [200], "dtype": "float32", "quantization": {"dtype": "float16", "original_dtype": "float32"}}, {"name": "476/kernel", "shape": [1, 1, 200, 80], "dtype": "float32", "quantization": {"dtype": "float16", "original_dtype": "float32"}}, {"name": "477/gamma", "shape": [80], "dtype": "float32", "quantization": {"dtype": "float16", "original_dtype": "float32"}}, {"name": "477/beta", "shape": [80], "dtype": "float32", "quantization": {"dtype": "float16", "original_dtype": "float32"}}, {"name": "477/moving_mean", "shape": [80], "dtype": "float32", "quantization": {"dtype": "float16", "original_dtype": "float32"}}, {"name": "477/moving_variance", "shape": [80], "dtype": "float32", "quantization": {"dtype": "float16", "original_dtype": "float32"}}, {"name": "479/kernel", "shape": [1, 1, 80, 184], "dtype": "float32", "quantization": {"dtype": "float16", "original_dtype": "float32"}}, {"name": "480/gamma", "shape": [184], "dtype": "float32", "quantization": {"dtype": "float16", "original_dtype": "float32"}}, {"name": "480/beta", "shape": [184], "dtype": "float32", "quantization": {"dtype": "float16", "original_dtype": "float32"}}, {"name": "480/moving_mean", "shape": [184], "dtype": "float32", "quantization": {"dtype": "float16", "original_dtype": "float32"}}, {"name": "480/moving_variance", "shape": [184], "dtype": "float32", "quantization": {"dtype": "float16", "original_dtype": "float32"}}, {"name": "482/depthwise_kernel", "shape": [3, 3, 184, 1], "dtype": "float32", "quantization": {"dtype": "float16", "original_dtype": "float32"}}, {"name": "483/gamma", "shape": [184], "dtype": "float32", "quantization": {"dtype": "float16", "original_dtype": "float32"}}, {"name": "483/beta", "shape": [184], "dtype": "float32", "quantization": {"dtype": "float16", "original_dtype": "float32"}}, {"name": "483/moving_mean", "shape": [184], "dtype": "float32", "quantization": {"dtype": "float16", "original_dtype": "float32"}}, {"name": "483/moving_variance", "shape": [184], "dtype": "float32", "quantization": {"dtype": "float16", "original_dtype": "float32"}}, {"name": "485/kernel", "shape": [1, 1, 184, 80], "dtype": "float32", "quantization": {"dtype": "float16", "original_dtype": "float32"}}, {"name": "486/gamma", "shape": [80], "dtype": "float32", "quantization": {"dtype": "float16", "original_dtype": "float32"}}, {"name": "486/beta", "shape": [80], "dtype": "float32", "quantization": {"dtype": "float16", "original_dtype": "float32"}}, {"name": "486/moving_mean", "shape": [80], "dtype": "float32", "quantization": {"dtype": "float16", "original_dtype": "float32"}}, {"name": "486/moving_variance", "shape": [80], "dtype": "float32", "quantization": {"dtype": "float16", "original_dtype": "float32"}}, {"name": "488/kernel", "shape": [1, 1, 80, 184], "dtype": "float32", "quantization": {"dtype": "float16", "original_dtype": "float32"}}, {"name": "489/gamma", "shape": [184], "dtype": "float32", "quantization": {"dtype": "float16", "original_dtype": "float32"}}, {"name": "489/beta", "shape": [184], "dtype": "float32", "quantization": {"dtype": "float16", "original_dtype": "float32"}}, {"name": "489/moving_mean", "shape": [184], "dtype": "float32", "quantization": {"dtype": "float16", "original_dtype": "float32"}}, {"name": "489/moving_variance", "shape": [184], "dtype": "float32", "quantization": {"dtype": "float16", "original_dtype": "float32"}}, {"name": "491/depthwise_kernel", "shape": [3, 3, 184, 1], "dtype": "float32", "quantization": {"dtype": "float16", "original_dtype": "float32"}}, {"name": "492/gamma", "shape": [184], "dtype": "float32", "quantization": {"dtype": "float16", "original_dtype": "float32"}}, {"name": "492/beta", "shape": [184], "dtype": "float32", "quantization": {"dtype": "float16", "original_dtype": "float32"}}, {"name": "492/moving_mean", "shape": [184], "dtype": "float32", "quantization": {"dtype": "float16", "original_dtype": "float32"}}, {"name": "492/moving_variance", "shape": [184], "dtype": "float32", "quantization": {"dtype": "float16", "original_dtype": "float32"}}, {"name": "494/kernel", "shape": [1, 1, 184, 80], "dtype": "float32", "quantization": {"dtype": "float16", "original_dtype": "float32"}}, {"name": "495/gamma", "shape": [80], "dtype": "float32", "quantization": {"dtype": "float16", "original_dtype": "float32"}}, {"name": "495/beta", "shape": [80], "dtype": "float32", "quantization": {"dtype": "float16", "original_dtype": "float32"}}, {"name": "495/moving_mean", "shape": [80], "dtype": "float32", "quantization": {"dtype": "float16", "original_dtype": "float32"}}, {"name": "495/moving_variance", "shape": [80], "dtype": "float32", "quantization": {"dtype": "float16", "original_dtype": "float32"}}, {"name": "497/kernel", "shape": [1, 1, 80, 480], "dtype": "float32", "quantization": {"dtype": "float16", "original_dtype": "float32"}}, {"name": "498/gamma", "shape": [480], "dtype": "float32", "quantization": {"dtype": "float16", "original_dtype": "float32"}}, {"name": "498/beta", "shape": [480], "dtype": "float32", "quantization": {"dtype": "float16", "original_dtype": "float32"}}, {"name": "498/moving_mean", "shape": [480], "dtype": "float32", "quantization": {"dtype": "float16", "original_dtype": "float32"}}, {"name": "498/moving_variance", "shape": [480], "dtype": "float32", "quantization": {"dtype": "float16", "original_dtype": "float32"}}, {"name": "500/depthwise_kernel", "shape": [3, 3, 480, 1], "dtype": "float32", "quantization": {"dtype": "float16", "original_dtype": "float32"}}, {"name": "501/gamma", "shape": [480], "dtype": "float32", "quantization": {"dtype": "float16", "original_dtype": "float32"}}, {"name": "501/beta", "shape": [480], "dtype": "float32", "quantization": {"dtype": "float16", "original_dtype": "float32"}}, {"name": "501/moving_mean", "shape": [480], "dtype": "float32", "quantization": {"dtype": "float16", "original_dtype": "float32"}}, {"name": "501/moving_variance", "shape": [480], "dtype": "float32", "quantization": {"dtype": "float16", "original_dtype": "float32"}}, {"name": "514/kernel", "shape": [480, 120], "dtype": "float32", "quantization": {"dtype": "float16", "original_dtype": "float32"}}, {"name": "514/bias", "shape": [120], "dtype": "float32", "quantization": {"dtype": "float16", "original_dtype": "float32"}}, {"name": "516/kernel", "shape": [120, 480], "dtype": "float32", "quantization": {"dtype": "float16", "original_dtype": "float32"}}, {"name": "516/bias", "shape": [480], "dtype": "float32", "quantization": {"dtype": "float16", "original_dtype": "float32"}}, {"name": "528/kernel", "shape": [1, 1, 480, 112], "dtype": "float32", "quantization": {"dtype": "float16", "original_dtype": "float32"}}, {"name": "529/gamma", "shape": [112], "dtype": "float32", "quantization": {"dtype": "float16", "original_dtype": "float32"}}, {"name": "529/beta", "shape": [112], "dtype": "float32", "quantization": {"dtype": "float16", "original_dtype": "float32"}}, {"name": "529/moving_mean", "shape": [112], "dtype": "float32", "quantization": {"dtype": "float16", "original_dtype": "float32"}}, {"name": "529/moving_variance", "shape": [112], "dtype": "float32", "quantization": {"dtype": "float16", "original_dtype": "float32"}}, {"name": "530/kernel", "shape": [1, 1, 112, 672], "dtype": "float32", "quantization": {"dtype": "float16", "original_dtype": "float32"}}, {"name": "531/gamma", "shape": [672], "dtype": "float32", "quantization": {"dtype": "float16", "original_dtype": "float32"}}, {"name": "531/beta", "shape": [672], "dtype": "float32", "quantization": {"dtype": "float16", "original_dtype": "float32"}}, {"name": "531/moving_mean", "shape": [672], "dtype": "float32", "quantization": {"dtype": "float16", "original_dtype": "float32"}}, {"name": "531/moving_variance", "shape": [672], "dtype": "float32", "quantization": {"dtype": "float16", "original_dtype": "float32"}}, {"name": "533/depthwise_kernel", "shape": [3, 3, 672, 1], "dtype": "float32", "quantization": {"dtype": "float16", "original_dtype": "float32"}}, {"name": "534/gamma", "shape": [672], "dtype": "float32", "quantization": {"dtype": "float16", "original_dtype": "float32"}}, {"name": "534/beta", "shape": [672], "dtype": "float32", "quantization": {"dtype": "float16", "original_dtype": "float32"}}, {"name": "534/moving_mean", "shape": [672], "dtype": "float32", "quantization": {"dtype": "float16", "original_dtype": "float32"}}, {"name": "534/moving_variance", "shape": [672], "dtype": "float32", "quantization": {"dtype": "float16", "original_dtype": "float32"}}, {"name": "547/kernel", "shape": [672, 168], "dtype": "float32", "quantization": {"dtype": "float16", "original_dtype": "float32"}}, {"name": "547/bias", "shape": [168], "dtype": "float32", "quantization": {"dtype": "float16", "original_dtype": "float32"}}, {"name": "549/kernel", "shape": [168, 672], "dtype": "float32", "quantization": {"dtype": "float16", "original_dtype": "float32"}}, {"name": "549/bias", "shape": [672], "dtype": "float32", "quantization": {"dtype": "float16", "original_dtype": "float32"}}, {"name": "561/kernel", "shape": [1, 1, 672, 112], "dtype": "float32", "quantization": {"dtype": "float16", "original_dtype": "float32"}}, {"name": "562/gamma", "shape": [112], "dtype": "float32", "quantization": {"dtype": "float16", "original_dtype": "float32"}}, {"name": "562/beta", "shape": [112], "dtype": "float32", "quantization": {"dtype": "float16", "original_dtype": "float32"}}, {"name": "562/moving_mean", "shape": [112], "dtype": "float32", "quantization": {"dtype": "float16", "original_dtype": "float32"}}, {"name": "562/moving_variance", "shape": [112], "dtype": "float32", "quantization": {"dtype": "float16", "original_dtype": "float32"}}, {"name": "564/kernel", "shape": [1, 1, 112, 672], "dtype": "float32", "quantization": {"dtype": "float16", "original_dtype": "float32"}}, {"name": "565/gamma", "shape": [672], "dtype": "float32", "quantization": {"dtype": "float16", "original_dtype": "float32"}}, {"name": "565/beta", "shape": [672], "dtype": "float32", "quantization": {"dtype": "float16", "original_dtype": "float32"}}, {"name": "565/moving_mean", "shape": [672], "dtype": "float32", "quantization": {"dtype": "float16", "original_dtype": "float32"}}, {"name": "565/moving_variance", "shape": [672], "dtype": "float32", "quantization": {"dtype": "float16", "original_dtype": "float32"}}, {"name": "567/depthwise_kernel", "shape": [5, 5, 672, 1], "dtype": "float32", "quantization": {"dtype": "float16", "original_dtype": "float32"}}, {"name": "568/gamma", "shape": [672], "dtype": "float32", "quantization": {"dtype": "float16", "original_dtype": "float32"}}, {"name": "568/beta", "shape": [672], "dtype": "float32", "quantization": {"dtype": "float16", "original_dtype": "float32"}}, {"name": "568/moving_mean", "shape": [672], "dtype": "float32", "quantization": {"dtype": "float16", "original_dtype": "float32"}}, {"name": "568/moving_variance", "shape": [672], "dtype": "float32", "quantization": {"dtype": "float16", "original_dtype": "float32"}}, {"name": "581/kernel", "shape": [672, 168], "dtype": "float32", "quantization": {"dtype": "float16", "original_dtype": "float32"}}, {"name": "581/bias", "shape": [168], "dtype": "float32", "quantization": {"dtype": "float16", "original_dtype": "float32"}}, {"name": "583/kernel", "shape": [168, 672], "dtype": "float32", "quantization": {"dtype": "float16", "original_dtype": "float32"}}, {"name": "583/bias", "shape": [672], "dtype": "float32", "quantization": {"dtype": "float16", "original_dtype": "float32"}}, {"name": "595/kernel", "shape": [1, 1, 672, 160], "dtype": "float32", "quantization": {"dtype": "float16", "original_dtype": "float32"}}, {"name": "596/gamma", "shape": [160], "dtype": "float32", "quantization": {"dtype": "float16", "original_dtype": "float32"}}, {"name": "596/beta", "shape": [160], "dtype": "float32", "quantization": {"dtype": "float16", "original_dtype": "float32"}}, {"name": "596/moving_mean", "shape": [160], "dtype": "float32", "quantization": {"dtype": "float16", "original_dtype": "float32"}}, {"name": "596/moving_variance", "shape": [160], "dtype": "float32", "quantization": {"dtype": "float16", "original_dtype": "float32"}}, {"name": "597/kernel", "shape": [1, 1, 160, 960], "dtype": "float32", "quantization": {"dtype": "float16", "original_dtype": "float32"}}, {"name": "598/gamma", "shape": [960], "dtype": "float32", "quantization": {"dtype": "float16", "original_dtype": "float32"}}, {"name": "598/beta", "shape": [960], "dtype": "float32", "quantization": {"dtype": "float16", "original_dtype": "float32"}}, {"name": "598/moving_mean", "shape": [960], "dtype": "float32", "quantization": {"dtype": "float16", "original_dtype": "float32"}}, {"name": "598/moving_variance", "shape": [960], "dtype": "float32", "quantization": {"dtype": "float16", "original_dtype": "float32"}}, {"name": "600/depthwise_kernel", "shape": [5, 5, 960, 1], "dtype": "float32", "quantization": {"dtype": "float16", "original_dtype": "float32"}}, {"name": "601/gamma", "shape": [960], "dtype": "float32", "quantization": {"dtype": "float16", "original_dtype": "float32"}}, {"name": "601/beta", "shape": [960], "dtype": "float32", "quantization": {"dtype": "float16", "original_dtype": "float32"}}, {"name": "601/moving_mean", "shape": [960], "dtype": "float32", "quantization": {"dtype": "float16", "original_dtype": "float32"}}, {"name": "601/moving_variance", "shape": [960], "dtype": "float32", "quantization": {"dtype": "float16", "original_dtype": "float32"}}, {"name": "614/kernel", "shape": [960, 240], "dtype": "float32", "quantization": {"dtype": "float16", "original_dtype": "float32"}}, {"name": "614/bias", "shape": [240], "dtype": "float32", "quantization": {"dtype": "float16", "original_dtype": "float32"}}, {"name": "616/kernel", "shape": [240, 960], "dtype": "float32", "quantization": {"dtype": "float16", "original_dtype": "float32"}}, {"name": "616/bias", "shape": [960], "dtype": "float32", "quantization": {"dtype": "float16", "original_dtype": "float32"}}, {"name": "628/kernel", "shape": [1, 1, 960, 160], "dtype": "float32", "quantization": {"dtype": "float16", "original_dtype": "float32"}}, {"name": "629/gamma", "shape": [160], "dtype": "float32", "quantization": {"dtype": "float16", "original_dtype": "float32"}}, {"name": "629/beta", "shape": [160], "dtype": "float32", "quantization": {"dtype": "float16", "original_dtype": "float32"}}, {"name": "629/moving_mean", "shape": [160], "dtype": "float32", "quantization": {"dtype": "float16", "original_dtype": "float32"}}, {"name": "629/moving_variance", "shape": [160], "dtype": "float32", "quantization": {"dtype": "float16", "original_dtype": "float32"}}, {"name": "631/kernel", "shape": [1, 1, 160, 960], "dtype": "float32", "quantization": {"dtype": "float16", "original_dtype": "float32"}}, {"name": "632/gamma", "shape": [960], "dtype": "float32", "quantization": {"dtype": "float16", "original_dtype": "float32"}}, {"name": "632/beta", "shape": [960], "dtype": "float32", "quantization": {"dtype": "float16", "original_dtype": "float32"}}, {"name": "632/moving_mean", "shape": [960], "dtype": "float32", "quantization": {"dtype": "float16", "original_dtype": "float32"}}, {"name": "632/moving_variance", "shape": [960], "dtype": "float32", "quantization": {"dtype": "float16", "original_dtype": "float32"}}, {"name": "634/depthwise_kernel", "shape": [5, 5, 960, 1], "dtype": "float32", "quantization": {"dtype": "float16", "original_dtype": "float32"}}, {"name": "635/gamma", "shape": [960], "dtype": "float32", "quantization": {"dtype": "float16", "original_dtype": "float32"}}, {"name": "635/beta", "shape": [960], "dtype": "float32", "quantization": {"dtype": "float16", "original_dtype": "float32"}}, {"name": "635/moving_mean", "shape": [960], "dtype": "float32", "quantization": {"dtype": "float16", "original_dtype": "float32"}}, {"name": "635/moving_variance", "shape": [960], "dtype": "float32", "quantization": {"dtype": "float16", "original_dtype": "float32"}}, {"name": "648/kernel", "shape": [960, 240], "dtype": "float32", "quantization": {"dtype": "float16", "original_dtype": "float32"}}, {"name": "648/bias", "shape": [240], "dtype": "float32", "quantization": {"dtype": "float16", "original_dtype": "float32"}}, {"name": "650/kernel", "shape": [240, 960], "dtype": "float32", "quantization": {"dtype": "float16", "original_dtype": "float32"}}, {"name": "650/bias", "shape": [960], "dtype": "float32", "quantization": {"dtype": "float16", "original_dtype": "float32"}}, {"name": "662/kernel", "shape": [1, 1, 960, 160], "dtype": "float32", "quantization": {"dtype": "float16", "original_dtype": "float32"}}, {"name": "663/gamma", "shape": [160], "dtype": "float32", "quantization": {"dtype": "float16", "original_dtype": "float32"}}, {"name": "663/beta", "shape": [160], "dtype": "float32", "quantization": {"dtype": "float16", "original_dtype": "float32"}}, {"name": "663/moving_mean", "shape": [160], "dtype": "float32", "quantization": {"dtype": "float16", "original_dtype": "float32"}}, {"name": "663/moving_variance", "shape": [160], "dtype": "float32", "quantization": {"dtype": "float16", "original_dtype": "float32"}}, {"name": "694/kernel", "shape": [1, 1, 160, 40], "dtype": "float32", "quantization": {"dtype": "float16", "original_dtype": "float32"}}, {"name": "695/gamma", "shape": [40], "dtype": "float32", "quantization": {"dtype": "float16", "original_dtype": "float32"}}, {"name": "695/beta", "shape": [40], "dtype": "float32", "quantization": {"dtype": "float16", "original_dtype": "float32"}}, {"name": "695/moving_mean", "shape": [40], "dtype": "float32", "quantization": {"dtype": "float16", "original_dtype": "float32"}}, {"name": "695/moving_variance", "shape": [40], "dtype": "float32", "quantization": {"dtype": "float16", "original_dtype": "float32"}}, {"name": "726/kernel", "shape": [1, 1, 160, 40], "dtype": "float32", "quantization": {"dtype": "float16", "original_dtype": "float32"}}, {"name": "727/gamma", "shape": [40], "dtype": "float32", "quantization": {"dtype": "float16", "original_dtype": "float32"}}, {"name": "727/beta", "shape": [40], "dtype": "float32", "quantization": {"dtype": "float16", "original_dtype": "float32"}}, {"name": "727/moving_mean", "shape": [40], "dtype": "float32", "quantization": {"dtype": "float16", "original_dtype": "float32"}}, {"name": "727/moving_variance", "shape": [40], "dtype": "float32", "quantization": {"dtype": "float16", "original_dtype": "float32"}}, {"name": "758/kernel", "shape": [1, 1, 160, 40], "dtype": "float32", "quantization": {"dtype": "float16", "original_dtype": "float32"}}, {"name": "759/gamma", "shape": [40], "dtype": "float32", "quantization": {"dtype": "float16", "original_dtype": "float32"}}, {"name": "759/beta", "shape": [40], "dtype": "float32", "quantization": {"dtype": "float16", "original_dtype": "float32"}}, {"name": "759/moving_mean", "shape": [40], "dtype": "float32", "quantization": {"dtype": "float16", "original_dtype": "float32"}}, {"name": "759/moving_variance", "shape": [40], "dtype": "float32", "quantization": {"dtype": "float16", "original_dtype": "float32"}}, {"name": "790/kernel", "shape": [1, 1, 160, 40], "dtype": "float32", "quantization": {"dtype": "float16", "original_dtype": "float32"}}, {"name": "791/gamma", "shape": [40], "dtype": "float32", "quantization": {"dtype": "float16", "original_dtype": "float32"}}, {"name": "791/beta", "shape": [40], "dtype": "float32", "quantization": {"dtype": "float16", "original_dtype": "float32"}}, {"name": "791/moving_mean", "shape": [40], "dtype": "float32", "quantization": {"dtype": "float16", "original_dtype": "float32"}}, {"name": "791/moving_variance", "shape": [40], "dtype": "float32", "quantization": {"dtype": "float16", "original_dtype": "float32"}}, {"name": "821/kernel", "shape": [3, 3, 320, 40], "dtype": "float32", "quantization": {"dtype": "float16", "original_dtype": "float32"}}, {"name": "822/gamma", "shape": [40], "dtype": "float32", "quantization": {"dtype": "float16", "original_dtype": "float32"}}, {"name": "822/beta", "shape": [40], "dtype": "float32", "quantization": {"dtype": "float16", "original_dtype": "float32"}}, {"name": "822/moving_mean", "shape": [40], "dtype": "float32", "quantization": {"dtype": "float16", "original_dtype": "float32"}}, {"name": "822/moving_variance", "shape": [40], "dtype": "float32", "quantization": {"dtype": "float16", "original_dtype": "float32"}}, {"name": "824/kernel", "shape": [1, 1, 40, 2], "dtype": "float32", "quantization": {"dtype": "float16", "original_dtype": "float32"}}, {"name": "824/bias", "shape": [2], "dtype": "float32", "quantization": {"dtype": "float16", "original_dtype": "float32"}}]}]}
