{"format": "layers-model", "generatedBy": "keras v2.2.4-tf", "convertedBy": "TensorFlow.js Converter v2.7.0", "modelTopology": {"keras_version": "2.2.4-tf", "backend": "tensorflow", "model_config": {"class_name": "Model", "config": {"name": "model", "layers": [{"name": "input_0", "class_name": "InputLayer", "config": {"batch_input_shape": [null, null, null, 3], "dtype": "float32", "sparse": false, "ragged": false, "name": "input_0"}, "inbound_nodes": []}, {"name": "315_pad", "class_name": "ZeroPadding2D", "config": {"name": "315_pad", "trainable": true, "dtype": "float32", "padding": [[1, 1], [1, 1]], "data_format": "channels_last"}, "inbound_nodes": [[["input_0", 0, 0, {}]]]}, {"name": "315", "class_name": "Conv2D", "config": {"name": "315", "trainable": true, "dtype": "float32", "filters": 32, "kernel_size": [3, 3], "strides": [2, 2], "padding": "valid", "data_format": "channels_last", "dilation_rate": [1, 1], "activation": "linear", "use_bias": false, "kernel_initializer": {"class_name": "Zeros", "config": {"dtype": "float32"}}, "bias_initializer": {"class_name": "Zeros", "config": {"dtype": "float32"}}, "kernel_regularizer": null, "bias_regularizer": null, "activity_regularizer": null, "kernel_constraint": null, "bias_constraint": null}, "inbound_nodes": [[["315_pad", 0, 0, {}]]]}, {"name": "316", "class_name": "BatchNormalization", "config": {"name": "316", "trainable": true, "dtype": "float32", "axis": [3], "momentum": 0.8999999761581421, "epsilon": 9.999999747378752e-06, "center": true, "scale": true, "beta_initializer": {"class_name": "Zeros", "config": {"dtype": "float32"}}, "gamma_initializer": {"class_name": "Ones", "config": {"dtype": "float32"}}, "moving_mean_initializer": {"class_name": "Zeros", "config": {"dtype": "float32"}}, "moving_variance_initializer": {"class_name": "Ones", "config": {"dtype": "float32"}}, "beta_regularizer": null, "gamma_regularizer": null, "beta_constraint": null, "gamma_constraint": null}, "inbound_nodes": [[["315", 0, 0, {}]]]}, {"name": "317", "class_name": "ReLU", "config": {"name": "317", "trainable": true, "dtype": "float32", "max_value": 6.0, "negative_slope": 0.0, "threshold": 0.0}, "inbound_nodes": [[["316", 0, 0, {}]]]}, {"name": "318_pad", "class_name": "ZeroPadding2D", "config": {"name": "318_pad", "trainable": true, "dtype": "float32", "padding": [[1, 1], [1, 1]], "data_format": "channels_last"}, "inbound_nodes": [[["317", 0, 0, {}]]]}, {"name": "318", "class_name": "DepthwiseConv2D", "config": {"name": "318", "trainable": true, "dtype": "float32", "kernel_size": [3, 3], "strides": [1, 1], "padding": "valid", "data_format": "channels_last", "dilation_rate": [1, 1], "activation": "linear", "use_bias": false, "bias_initializer": {"class_name": "Zeros", "config": {"dtype": "float32"}}, "bias_regularizer": null, "activity_regularizer": null, "bias_constraint": null, "depth_multiplier": 1, "depthwise_initializer": {"class_name": "GlorotUniform", "config": {"seed": null, "dtype": "float32"}}, "depthwise_regularizer": null, "depthwise_constraint": null}, "inbound_nodes": [[["318_pad", 0, 0, {}]]]}, {"name": "319", "class_name": "BatchNormalization", "config": {"name": "319", "trainable": true, "dtype": "float32", "axis": [3], "momentum": 0.8999999761581421, "epsilon": 9.999999747378752e-06, "center": true, "scale": true, "beta_initializer": {"class_name": "Zeros", "config": {"dtype": "float32"}}, "gamma_initializer": {"class_name": "Ones", "config": {"dtype": "float32"}}, "moving_mean_initializer": {"class_name": "Zeros", "config": {"dtype": "float32"}}, "moving_variance_initializer": {"class_name": "Ones", "config": {"dtype": "float32"}}, "beta_regularizer": null, "gamma_regularizer": null, "beta_constraint": null, "gamma_constraint": null}, "inbound_nodes": [[["318", 0, 0, {}]]]}, {"name": "320", "class_name": "ReLU", "config": {"name": "320", "trainable": true, "dtype": "float32", "max_value": 6.0, "negative_slope": 0.0, "threshold": 0.0}, "inbound_nodes": [[["319", 0, 0, {}]]]}, {"name": "321", "class_name": "Conv2D", "config": {"name": "321", "trainable": true, "dtype": "float32", "filters": 16, "kernel_size": [1, 1], "strides": [1, 1], "padding": "valid", "data_format": "channels_last", "dilation_rate": [1, 1], "activation": "linear", "use_bias": false, "kernel_initializer": {"class_name": "Zeros", "config": {"dtype": "float32"}}, "bias_initializer": {"class_name": "Zeros", "config": {"dtype": "float32"}}, "kernel_regularizer": null, "bias_regularizer": null, "activity_regularizer": null, "kernel_constraint": null, "bias_constraint": null}, "inbound_nodes": [[["320", 0, 0, {}]]]}, {"name": "output_0", "class_name": "BatchNormalization", "config": {"name": "output_0", "trainable": true, "dtype": "float32", "axis": [3], "momentum": 0.8999999761581421, "epsilon": 9.999999747378752e-06, "center": true, "scale": true, "beta_initializer": {"class_name": "Zeros", "config": {"dtype": "float32"}}, "gamma_initializer": {"class_name": "Ones", "config": {"dtype": "float32"}}, "moving_mean_initializer": {"class_name": "Zeros", "config": {"dtype": "float32"}}, "moving_variance_initializer": {"class_name": "Ones", "config": {"dtype": "float32"}}, "beta_regularizer": null, "gamma_regularizer": null, "beta_constraint": null, "gamma_constraint": null}, "inbound_nodes": [[["321", 0, 0, {}]]]}, {"name": "323", "class_name": "Conv2D", "config": {"name": "323", "trainable": true, "dtype": "float32", "filters": 96, "kernel_size": [1, 1], "strides": [1, 1], "padding": "valid", "data_format": "channels_last", "dilation_rate": [1, 1], "activation": "linear", "use_bias": false, "kernel_initializer": {"class_name": "Zeros", "config": {"dtype": "float32"}}, "bias_initializer": {"class_name": "Zeros", "config": {"dtype": "float32"}}, "kernel_regularizer": null, "bias_regularizer": null, "activity_regularizer": null, "kernel_constraint": null, "bias_constraint": null}, "inbound_nodes": [[["output_0", 0, 0, {}]]]}, {"name": "324", "class_name": "BatchNormalization", "config": {"name": "324", "trainable": true, "dtype": "float32", "axis": [3], "momentum": 0.8999999761581421, "epsilon": 9.999999747378752e-06, "center": true, "scale": true, "beta_initializer": {"class_name": "Zeros", "config": {"dtype": "float32"}}, "gamma_initializer": {"class_name": "Ones", "config": {"dtype": "float32"}}, "moving_mean_initializer": {"class_name": "Zeros", "config": {"dtype": "float32"}}, "moving_variance_initializer": {"class_name": "Ones", "config": {"dtype": "float32"}}, "beta_regularizer": null, "gamma_regularizer": null, "beta_constraint": null, "gamma_constraint": null}, "inbound_nodes": [[["323", 0, 0, {}]]]}, {"name": "325", "class_name": "ReLU", "config": {"name": "325", "trainable": true, "dtype": "float32", "max_value": 6.0, "negative_slope": 0.0, "threshold": 0.0}, "inbound_nodes": [[["324", 0, 0, {}]]]}, {"name": "326_pad", "class_name": "ZeroPadding2D", "config": {"name": "326_pad", "trainable": true, "dtype": "float32", "padding": [[1, 1], [1, 1]], "data_format": "channels_last"}, "inbound_nodes": [[["325", 0, 0, {}]]]}, {"name": "326", "class_name": "DepthwiseConv2D", "config": {"name": "326", "trainable": true, "dtype": "float32", "kernel_size": [3, 3], "strides": [2, 2], "padding": "valid", "data_format": "channels_last", "dilation_rate": [1, 1], "activation": "linear", "use_bias": false, "bias_initializer": {"class_name": "Zeros", "config": {"dtype": "float32"}}, "bias_regularizer": null, "activity_regularizer": null, "bias_constraint": null, "depth_multiplier": 1, "depthwise_initializer": {"class_name": "GlorotUniform", "config": {"seed": null, "dtype": "float32"}}, "depthwise_regularizer": null, "depthwise_constraint": null}, "inbound_nodes": [[["326_pad", 0, 0, {}]]]}, {"name": "327", "class_name": "BatchNormalization", "config": {"name": "327", "trainable": true, "dtype": "float32", "axis": [3], "momentum": 0.8999999761581421, "epsilon": 9.999999747378752e-06, "center": true, "scale": true, "beta_initializer": {"class_name": "Zeros", "config": {"dtype": "float32"}}, "gamma_initializer": {"class_name": "Ones", "config": {"dtype": "float32"}}, "moving_mean_initializer": {"class_name": "Zeros", "config": {"dtype": "float32"}}, "moving_variance_initializer": {"class_name": "Ones", "config": {"dtype": "float32"}}, "beta_regularizer": null, "gamma_regularizer": null, "beta_constraint": null, "gamma_constraint": null}, "inbound_nodes": [[["326", 0, 0, {}]]]}, {"name": "328", "class_name": "ReLU", "config": {"name": "328", "trainable": true, "dtype": "float32", "max_value": 6.0, "negative_slope": 0.0, "threshold": 0.0}, "inbound_nodes": [[["327", 0, 0, {}]]]}, {"name": "329", "class_name": "Conv2D", "config": {"name": "329", "trainable": true, "dtype": "float32", "filters": 24, "kernel_size": [1, 1], "strides": [1, 1], "padding": "valid", "data_format": "channels_last", "dilation_rate": [1, 1], "activation": "linear", "use_bias": false, "kernel_initializer": {"class_name": "Zeros", "config": {"dtype": "float32"}}, "bias_initializer": {"class_name": "Zeros", "config": {"dtype": "float32"}}, "kernel_regularizer": null, "bias_regularizer": null, "activity_regularizer": null, "kernel_constraint": null, "bias_constraint": null}, "inbound_nodes": [[["328", 0, 0, {}]]]}, {"name": "330", "class_name": "BatchNormalization", "config": {"name": "330", "trainable": true, "dtype": "float32", "axis": [3], "momentum": 0.8999999761581421, "epsilon": 9.999999747378752e-06, "center": true, "scale": true, "beta_initializer": {"class_name": "Zeros", "config": {"dtype": "float32"}}, "gamma_initializer": {"class_name": "Ones", "config": {"dtype": "float32"}}, "moving_mean_initializer": {"class_name": "Zeros", "config": {"dtype": "float32"}}, "moving_variance_initializer": {"class_name": "Ones", "config": {"dtype": "float32"}}, "beta_regularizer": null, "gamma_regularizer": null, "beta_constraint": null, "gamma_constraint": null}, "inbound_nodes": [[["329", 0, 0, {}]]]}, {"name": "331", "class_name": "Conv2D", "config": {"name": "331", "trainable": true, "dtype": "float32", "filters": 144, "kernel_size": [1, 1], "strides": [1, 1], "padding": "valid", "data_format": "channels_last", "dilation_rate": [1, 1], "activation": "linear", "use_bias": false, "kernel_initializer": {"class_name": "Zeros", "config": {"dtype": "float32"}}, "bias_initializer": {"class_name": "Zeros", "config": {"dtype": "float32"}}, "kernel_regularizer": null, "bias_regularizer": null, "activity_regularizer": null, "kernel_constraint": null, "bias_constraint": null}, "inbound_nodes": [[["330", 0, 0, {}]]]}, {"name": "332", "class_name": "BatchNormalization", "config": {"name": "332", "trainable": true, "dtype": "float32", "axis": [3], "momentum": 0.8999999761581421, "epsilon": 9.999999747378752e-06, "center": true, "scale": true, "beta_initializer": {"class_name": "Zeros", "config": {"dtype": "float32"}}, "gamma_initializer": {"class_name": "Ones", "config": {"dtype": "float32"}}, "moving_mean_initializer": {"class_name": "Zeros", "config": {"dtype": "float32"}}, "moving_variance_initializer": {"class_name": "Ones", "config": {"dtype": "float32"}}, "beta_regularizer": null, "gamma_regularizer": null, "beta_constraint": null, "gamma_constraint": null}, "inbound_nodes": [[["331", 0, 0, {}]]]}, {"name": "333", "class_name": "ReLU", "config": {"name": "333", "trainable": true, "dtype": "float32", "max_value": 6.0, "negative_slope": 0.0, "threshold": 0.0}, "inbound_nodes": [[["332", 0, 0, {}]]]}, {"name": "334_pad", "class_name": "ZeroPadding2D", "config": {"name": "334_pad", "trainable": true, "dtype": "float32", "padding": [[1, 1], [1, 1]], "data_format": "channels_last"}, "inbound_nodes": [[["333", 0, 0, {}]]]}, {"name": "334", "class_name": "DepthwiseConv2D", "config": {"name": "334", "trainable": true, "dtype": "float32", "kernel_size": [3, 3], "strides": [1, 1], "padding": "valid", "data_format": "channels_last", "dilation_rate": [1, 1], "activation": "linear", "use_bias": false, "bias_initializer": {"class_name": "Zeros", "config": {"dtype": "float32"}}, "bias_regularizer": null, "activity_regularizer": null, "bias_constraint": null, "depth_multiplier": 1, "depthwise_initializer": {"class_name": "GlorotUniform", "config": {"seed": null, "dtype": "float32"}}, "depthwise_regularizer": null, "depthwise_constraint": null}, "inbound_nodes": [[["334_pad", 0, 0, {}]]]}, {"name": "335", "class_name": "BatchNormalization", "config": {"name": "335", "trainable": true, "dtype": "float32", "axis": [3], "momentum": 0.8999999761581421, "epsilon": 9.999999747378752e-06, "center": true, "scale": true, "beta_initializer": {"class_name": "Zeros", "config": {"dtype": "float32"}}, "gamma_initializer": {"class_name": "Ones", "config": {"dtype": "float32"}}, "moving_mean_initializer": {"class_name": "Zeros", "config": {"dtype": "float32"}}, "moving_variance_initializer": {"class_name": "Ones", "config": {"dtype": "float32"}}, "beta_regularizer": null, "gamma_regularizer": null, "beta_constraint": null, "gamma_constraint": null}, "inbound_nodes": [[["334", 0, 0, {}]]]}, {"name": "336", "class_name": "ReLU", "config": {"name": "336", "trainable": true, "dtype": "float32", "max_value": 6.0, "negative_slope": 0.0, "threshold": 0.0}, "inbound_nodes": [[["335", 0, 0, {}]]]}, {"name": "337", "class_name": "Conv2D", "config": {"name": "337", "trainable": true, "dtype": "float32", "filters": 24, "kernel_size": [1, 1], "strides": [1, 1], "padding": "valid", "data_format": "channels_last", "dilation_rate": [1, 1], "activation": "linear", "use_bias": false, "kernel_initializer": {"class_name": "Zeros", "config": {"dtype": "float32"}}, "bias_initializer": {"class_name": "Zeros", "config": {"dtype": "float32"}}, "kernel_regularizer": null, "bias_regularizer": null, "activity_regularizer": null, "kernel_constraint": null, "bias_constraint": null}, "inbound_nodes": [[["336", 0, 0, {}]]]}, {"name": "338", "class_name": "BatchNormalization", "config": {"name": "338", "trainable": true, "dtype": "float32", "axis": [3], "momentum": 0.8999999761581421, "epsilon": 9.999999747378752e-06, "center": true, "scale": true, "beta_initializer": {"class_name": "Zeros", "config": {"dtype": "float32"}}, "gamma_initializer": {"class_name": "Ones", "config": {"dtype": "float32"}}, "moving_mean_initializer": {"class_name": "Zeros", "config": {"dtype": "float32"}}, "moving_variance_initializer": {"class_name": "Ones", "config": {"dtype": "float32"}}, "beta_regularizer": null, "gamma_regularizer": null, "beta_constraint": null, "gamma_constraint": null}, "inbound_nodes": [[["337", 0, 0, {}]]]}, {"name": "output_1", "class_name": "Add", "config": {"name": "output_1", "trainable": true, "dtype": "float32"}, "inbound_nodes": [[["330", 0, 0, {}], ["338", 0, 0, {}]]]}, {"name": "340", "class_name": "Conv2D", "config": {"name": "340", "trainable": true, "dtype": "float32", "filters": 144, "kernel_size": [1, 1], "strides": [1, 1], "padding": "valid", "data_format": "channels_last", "dilation_rate": [1, 1], "activation": "linear", "use_bias": false, "kernel_initializer": {"class_name": "Zeros", "config": {"dtype": "float32"}}, "bias_initializer": {"class_name": "Zeros", "config": {"dtype": "float32"}}, "kernel_regularizer": null, "bias_regularizer": null, "activity_regularizer": null, "kernel_constraint": null, "bias_constraint": null}, "inbound_nodes": [[["output_1", 0, 0, {}]]]}, {"name": "341", "class_name": "BatchNormalization", "config": {"name": "341", "trainable": true, "dtype": "float32", "axis": [3], "momentum": 0.8999999761581421, "epsilon": 9.999999747378752e-06, "center": true, "scale": true, "beta_initializer": {"class_name": "Zeros", "config": {"dtype": "float32"}}, "gamma_initializer": {"class_name": "Ones", "config": {"dtype": "float32"}}, "moving_mean_initializer": {"class_name": "Zeros", "config": {"dtype": "float32"}}, "moving_variance_initializer": {"class_name": "Ones", "config": {"dtype": "float32"}}, "beta_regularizer": null, "gamma_regularizer": null, "beta_constraint": null, "gamma_constraint": null}, "inbound_nodes": [[["340", 0, 0, {}]]]}, {"name": "342", "class_name": "ReLU", "config": {"name": "342", "trainable": true, "dtype": "float32", "max_value": 6.0, "negative_slope": 0.0, "threshold": 0.0}, "inbound_nodes": [[["341", 0, 0, {}]]]}, {"name": "343_pad", "class_name": "ZeroPadding2D", "config": {"name": "343_pad", "trainable": true, "dtype": "float32", "padding": [[1, 1], [1, 1]], "data_format": "channels_last"}, "inbound_nodes": [[["342", 0, 0, {}]]]}, {"name": "343", "class_name": "DepthwiseConv2D", "config": {"name": "343", "trainable": true, "dtype": "float32", "kernel_size": [3, 3], "strides": [2, 2], "padding": "valid", "data_format": "channels_last", "dilation_rate": [1, 1], "activation": "linear", "use_bias": false, "bias_initializer": {"class_name": "Zeros", "config": {"dtype": "float32"}}, "bias_regularizer": null, "activity_regularizer": null, "bias_constraint": null, "depth_multiplier": 1, "depthwise_initializer": {"class_name": "GlorotUniform", "config": {"seed": null, "dtype": "float32"}}, "depthwise_regularizer": null, "depthwise_constraint": null}, "inbound_nodes": [[["343_pad", 0, 0, {}]]]}, {"name": "344", "class_name": "BatchNormalization", "config": {"name": "344", "trainable": true, "dtype": "float32", "axis": [3], "momentum": 0.8999999761581421, "epsilon": 9.999999747378752e-06, "center": true, "scale": true, "beta_initializer": {"class_name": "Zeros", "config": {"dtype": "float32"}}, "gamma_initializer": {"class_name": "Ones", "config": {"dtype": "float32"}}, "moving_mean_initializer": {"class_name": "Zeros", "config": {"dtype": "float32"}}, "moving_variance_initializer": {"class_name": "Ones", "config": {"dtype": "float32"}}, "beta_regularizer": null, "gamma_regularizer": null, "beta_constraint": null, "gamma_constraint": null}, "inbound_nodes": [[["343", 0, 0, {}]]]}, {"name": "345", "class_name": "ReLU", "config": {"name": "345", "trainable": true, "dtype": "float32", "max_value": 6.0, "negative_slope": 0.0, "threshold": 0.0}, "inbound_nodes": [[["344", 0, 0, {}]]]}, {"name": "346", "class_name": "Conv2D", "config": {"name": "346", "trainable": true, "dtype": "float32", "filters": 32, "kernel_size": [1, 1], "strides": [1, 1], "padding": "valid", "data_format": "channels_last", "dilation_rate": [1, 1], "activation": "linear", "use_bias": false, "kernel_initializer": {"class_name": "Zeros", "config": {"dtype": "float32"}}, "bias_initializer": {"class_name": "Zeros", "config": {"dtype": "float32"}}, "kernel_regularizer": null, "bias_regularizer": null, "activity_regularizer": null, "kernel_constraint": null, "bias_constraint": null}, "inbound_nodes": [[["345", 0, 0, {}]]]}, {"name": "347", "class_name": "BatchNormalization", "config": {"name": "347", "trainable": true, "dtype": "float32", "axis": [3], "momentum": 0.8999999761581421, "epsilon": 9.999999747378752e-06, "center": true, "scale": true, "beta_initializer": {"class_name": "Zeros", "config": {"dtype": "float32"}}, "gamma_initializer": {"class_name": "Ones", "config": {"dtype": "float32"}}, "moving_mean_initializer": {"class_name": "Zeros", "config": {"dtype": "float32"}}, "moving_variance_initializer": {"class_name": "Ones", "config": {"dtype": "float32"}}, "beta_regularizer": null, "gamma_regularizer": null, "beta_constraint": null, "gamma_constraint": null}, "inbound_nodes": [[["346", 0, 0, {}]]]}, {"name": "348", "class_name": "Conv2D", "config": {"name": "348", "trainable": true, "dtype": "float32", "filters": 192, "kernel_size": [1, 1], "strides": [1, 1], "padding": "valid", "data_format": "channels_last", "dilation_rate": [1, 1], "activation": "linear", "use_bias": false, "kernel_initializer": {"class_name": "Zeros", "config": {"dtype": "float32"}}, "bias_initializer": {"class_name": "Zeros", "config": {"dtype": "float32"}}, "kernel_regularizer": null, "bias_regularizer": null, "activity_regularizer": null, "kernel_constraint": null, "bias_constraint": null}, "inbound_nodes": [[["347", 0, 0, {}]]]}, {"name": "349", "class_name": "BatchNormalization", "config": {"name": "349", "trainable": true, "dtype": "float32", "axis": [3], "momentum": 0.8999999761581421, "epsilon": 9.999999747378752e-06, "center": true, "scale": true, "beta_initializer": {"class_name": "Zeros", "config": {"dtype": "float32"}}, "gamma_initializer": {"class_name": "Ones", "config": {"dtype": "float32"}}, "moving_mean_initializer": {"class_name": "Zeros", "config": {"dtype": "float32"}}, "moving_variance_initializer": {"class_name": "Ones", "config": {"dtype": "float32"}}, "beta_regularizer": null, "gamma_regularizer": null, "beta_constraint": null, "gamma_constraint": null}, "inbound_nodes": [[["348", 0, 0, {}]]]}, {"name": "350", "class_name": "ReLU", "config": {"name": "350", "trainable": true, "dtype": "float32", "max_value": 6.0, "negative_slope": 0.0, "threshold": 0.0}, "inbound_nodes": [[["349", 0, 0, {}]]]}, {"name": "351_pad", "class_name": "ZeroPadding2D", "config": {"name": "351_pad", "trainable": true, "dtype": "float32", "padding": [[1, 1], [1, 1]], "data_format": "channels_last"}, "inbound_nodes": [[["350", 0, 0, {}]]]}, {"name": "351", "class_name": "DepthwiseConv2D", "config": {"name": "351", "trainable": true, "dtype": "float32", "kernel_size": [3, 3], "strides": [1, 1], "padding": "valid", "data_format": "channels_last", "dilation_rate": [1, 1], "activation": "linear", "use_bias": false, "bias_initializer": {"class_name": "Zeros", "config": {"dtype": "float32"}}, "bias_regularizer": null, "activity_regularizer": null, "bias_constraint": null, "depth_multiplier": 1, "depthwise_initializer": {"class_name": "GlorotUniform", "config": {"seed": null, "dtype": "float32"}}, "depthwise_regularizer": null, "depthwise_constraint": null}, "inbound_nodes": [[["351_pad", 0, 0, {}]]]}, {"name": "352", "class_name": "BatchNormalization", "config": {"name": "352", "trainable": true, "dtype": "float32", "axis": [3], "momentum": 0.8999999761581421, "epsilon": 9.999999747378752e-06, "center": true, "scale": true, "beta_initializer": {"class_name": "Zeros", "config": {"dtype": "float32"}}, "gamma_initializer": {"class_name": "Ones", "config": {"dtype": "float32"}}, "moving_mean_initializer": {"class_name": "Zeros", "config": {"dtype": "float32"}}, "moving_variance_initializer": {"class_name": "Ones", "config": {"dtype": "float32"}}, "beta_regularizer": null, "gamma_regularizer": null, "beta_constraint": null, "gamma_constraint": null}, "inbound_nodes": [[["351", 0, 0, {}]]]}, {"name": "353", "class_name": "ReLU", "config": {"name": "353", "trainable": true, "dtype": "float32", "max_value": 6.0, "negative_slope": 0.0, "threshold": 0.0}, "inbound_nodes": [[["352", 0, 0, {}]]]}, {"name": "354", "class_name": "Conv2D", "config": {"name": "354", "trainable": true, "dtype": "float32", "filters": 32, "kernel_size": [1, 1], "strides": [1, 1], "padding": "valid", "data_format": "channels_last", "dilation_rate": [1, 1], "activation": "linear", "use_bias": false, "kernel_initializer": {"class_name": "Zeros", "config": {"dtype": "float32"}}, "bias_initializer": {"class_name": "Zeros", "config": {"dtype": "float32"}}, "kernel_regularizer": null, "bias_regularizer": null, "activity_regularizer": null, "kernel_constraint": null, "bias_constraint": null}, "inbound_nodes": [[["353", 0, 0, {}]]]}, {"name": "355", "class_name": "BatchNormalization", "config": {"name": "355", "trainable": true, "dtype": "float32", "axis": [3], "momentum": 0.8999999761581421, "epsilon": 9.999999747378752e-06, "center": true, "scale": true, "beta_initializer": {"class_name": "Zeros", "config": {"dtype": "float32"}}, "gamma_initializer": {"class_name": "Ones", "config": {"dtype": "float32"}}, "moving_mean_initializer": {"class_name": "Zeros", "config": {"dtype": "float32"}}, "moving_variance_initializer": {"class_name": "Ones", "config": {"dtype": "float32"}}, "beta_regularizer": null, "gamma_regularizer": null, "beta_constraint": null, "gamma_constraint": null}, "inbound_nodes": [[["354", 0, 0, {}]]]}, {"name": "356", "class_name": "Add", "config": {"name": "356", "trainable": true, "dtype": "float32"}, "inbound_nodes": [[["347", 0, 0, {}], ["355", 0, 0, {}]]]}, {"name": "357", "class_name": "Conv2D", "config": {"name": "357", "trainable": true, "dtype": "float32", "filters": 192, "kernel_size": [1, 1], "strides": [1, 1], "padding": "valid", "data_format": "channels_last", "dilation_rate": [1, 1], "activation": "linear", "use_bias": false, "kernel_initializer": {"class_name": "Zeros", "config": {"dtype": "float32"}}, "bias_initializer": {"class_name": "Zeros", "config": {"dtype": "float32"}}, "kernel_regularizer": null, "bias_regularizer": null, "activity_regularizer": null, "kernel_constraint": null, "bias_constraint": null}, "inbound_nodes": [[["356", 0, 0, {}]]]}, {"name": "358", "class_name": "BatchNormalization", "config": {"name": "358", "trainable": true, "dtype": "float32", "axis": [3], "momentum": 0.8999999761581421, "epsilon": 9.999999747378752e-06, "center": true, "scale": true, "beta_initializer": {"class_name": "Zeros", "config": {"dtype": "float32"}}, "gamma_initializer": {"class_name": "Ones", "config": {"dtype": "float32"}}, "moving_mean_initializer": {"class_name": "Zeros", "config": {"dtype": "float32"}}, "moving_variance_initializer": {"class_name": "Ones", "config": {"dtype": "float32"}}, "beta_regularizer": null, "gamma_regularizer": null, "beta_constraint": null, "gamma_constraint": null}, "inbound_nodes": [[["357", 0, 0, {}]]]}, {"name": "359", "class_name": "ReLU", "config": {"name": "359", "trainable": true, "dtype": "float32", "max_value": 6.0, "negative_slope": 0.0, "threshold": 0.0}, "inbound_nodes": [[["358", 0, 0, {}]]]}, {"name": "360_pad", "class_name": "ZeroPadding2D", "config": {"name": "360_pad", "trainable": true, "dtype": "float32", "padding": [[1, 1], [1, 1]], "data_format": "channels_last"}, "inbound_nodes": [[["359", 0, 0, {}]]]}, {"name": "360", "class_name": "DepthwiseConv2D", "config": {"name": "360", "trainable": true, "dtype": "float32", "kernel_size": [3, 3], "strides": [1, 1], "padding": "valid", "data_format": "channels_last", "dilation_rate": [1, 1], "activation": "linear", "use_bias": false, "bias_initializer": {"class_name": "Zeros", "config": {"dtype": "float32"}}, "bias_regularizer": null, "activity_regularizer": null, "bias_constraint": null, "depth_multiplier": 1, "depthwise_initializer": {"class_name": "GlorotUniform", "config": {"seed": null, "dtype": "float32"}}, "depthwise_regularizer": null, "depthwise_constraint": null}, "inbound_nodes": [[["360_pad", 0, 0, {}]]]}, {"name": "361", "class_name": "BatchNormalization", "config": {"name": "361", "trainable": true, "dtype": "float32", "axis": [3], "momentum": 0.8999999761581421, "epsilon": 9.999999747378752e-06, "center": true, "scale": true, "beta_initializer": {"class_name": "Zeros", "config": {"dtype": "float32"}}, "gamma_initializer": {"class_name": "Ones", "config": {"dtype": "float32"}}, "moving_mean_initializer": {"class_name": "Zeros", "config": {"dtype": "float32"}}, "moving_variance_initializer": {"class_name": "Ones", "config": {"dtype": "float32"}}, "beta_regularizer": null, "gamma_regularizer": null, "beta_constraint": null, "gamma_constraint": null}, "inbound_nodes": [[["360", 0, 0, {}]]]}, {"name": "362", "class_name": "ReLU", "config": {"name": "362", "trainable": true, "dtype": "float32", "max_value": 6.0, "negative_slope": 0.0, "threshold": 0.0}, "inbound_nodes": [[["361", 0, 0, {}]]]}, {"name": "363", "class_name": "Conv2D", "config": {"name": "363", "trainable": true, "dtype": "float32", "filters": 32, "kernel_size": [1, 1], "strides": [1, 1], "padding": "valid", "data_format": "channels_last", "dilation_rate": [1, 1], "activation": "linear", "use_bias": false, "kernel_initializer": {"class_name": "Zeros", "config": {"dtype": "float32"}}, "bias_initializer": {"class_name": "Zeros", "config": {"dtype": "float32"}}, "kernel_regularizer": null, "bias_regularizer": null, "activity_regularizer": null, "kernel_constraint": null, "bias_constraint": null}, "inbound_nodes": [[["362", 0, 0, {}]]]}, {"name": "364", "class_name": "BatchNormalization", "config": {"name": "364", "trainable": true, "dtype": "float32", "axis": [3], "momentum": 0.8999999761581421, "epsilon": 9.999999747378752e-06, "center": true, "scale": true, "beta_initializer": {"class_name": "Zeros", "config": {"dtype": "float32"}}, "gamma_initializer": {"class_name": "Ones", "config": {"dtype": "float32"}}, "moving_mean_initializer": {"class_name": "Zeros", "config": {"dtype": "float32"}}, "moving_variance_initializer": {"class_name": "Ones", "config": {"dtype": "float32"}}, "beta_regularizer": null, "gamma_regularizer": null, "beta_constraint": null, "gamma_constraint": null}, "inbound_nodes": [[["363", 0, 0, {}]]]}, {"name": "output_2", "class_name": "Add", "config": {"name": "output_2", "trainable": true, "dtype": "float32"}, "inbound_nodes": [[["356", 0, 0, {}], ["364", 0, 0, {}]]]}, {"name": "366", "class_name": "Conv2D", "config": {"name": "366", "trainable": true, "dtype": "float32", "filters": 192, "kernel_size": [1, 1], "strides": [1, 1], "padding": "valid", "data_format": "channels_last", "dilation_rate": [1, 1], "activation": "linear", "use_bias": false, "kernel_initializer": {"class_name": "Zeros", "config": {"dtype": "float32"}}, "bias_initializer": {"class_name": "Zeros", "config": {"dtype": "float32"}}, "kernel_regularizer": null, "bias_regularizer": null, "activity_regularizer": null, "kernel_constraint": null, "bias_constraint": null}, "inbound_nodes": [[["output_2", 0, 0, {}]]]}, {"name": "367", "class_name": "BatchNormalization", "config": {"name": "367", "trainable": true, "dtype": "float32", "axis": [3], "momentum": 0.8999999761581421, "epsilon": 9.999999747378752e-06, "center": true, "scale": true, "beta_initializer": {"class_name": "Zeros", "config": {"dtype": "float32"}}, "gamma_initializer": {"class_name": "Ones", "config": {"dtype": "float32"}}, "moving_mean_initializer": {"class_name": "Zeros", "config": {"dtype": "float32"}}, "moving_variance_initializer": {"class_name": "Ones", "config": {"dtype": "float32"}}, "beta_regularizer": null, "gamma_regularizer": null, "beta_constraint": null, "gamma_constraint": null}, "inbound_nodes": [[["366", 0, 0, {}]]]}, {"name": "368", "class_name": "ReLU", "config": {"name": "368", "trainable": true, "dtype": "float32", "max_value": 6.0, "negative_slope": 0.0, "threshold": 0.0}, "inbound_nodes": [[["367", 0, 0, {}]]]}, {"name": "369_pad", "class_name": "ZeroPadding2D", "config": {"name": "369_pad", "trainable": true, "dtype": "float32", "padding": [[1, 1], [1, 1]], "data_format": "channels_last"}, "inbound_nodes": [[["368", 0, 0, {}]]]}, {"name": "369", "class_name": "DepthwiseConv2D", "config": {"name": "369", "trainable": true, "dtype": "float32", "kernel_size": [3, 3], "strides": [2, 2], "padding": "valid", "data_format": "channels_last", "dilation_rate": [1, 1], "activation": "linear", "use_bias": false, "bias_initializer": {"class_name": "Zeros", "config": {"dtype": "float32"}}, "bias_regularizer": null, "activity_regularizer": null, "bias_constraint": null, "depth_multiplier": 1, "depthwise_initializer": {"class_name": "GlorotUniform", "config": {"seed": null, "dtype": "float32"}}, "depthwise_regularizer": null, "depthwise_constraint": null}, "inbound_nodes": [[["369_pad", 0, 0, {}]]]}, {"name": "370", "class_name": "BatchNormalization", "config": {"name": "370", "trainable": true, "dtype": "float32", "axis": [3], "momentum": 0.8999999761581421, "epsilon": 9.999999747378752e-06, "center": true, "scale": true, "beta_initializer": {"class_name": "Zeros", "config": {"dtype": "float32"}}, "gamma_initializer": {"class_name": "Ones", "config": {"dtype": "float32"}}, "moving_mean_initializer": {"class_name": "Zeros", "config": {"dtype": "float32"}}, "moving_variance_initializer": {"class_name": "Ones", "config": {"dtype": "float32"}}, "beta_regularizer": null, "gamma_regularizer": null, "beta_constraint": null, "gamma_constraint": null}, "inbound_nodes": [[["369", 0, 0, {}]]]}, {"name": "371", "class_name": "ReLU", "config": {"name": "371", "trainable": true, "dtype": "float32", "max_value": 6.0, "negative_slope": 0.0, "threshold": 0.0}, "inbound_nodes": [[["370", 0, 0, {}]]]}, {"name": "372", "class_name": "Conv2D", "config": {"name": "372", "trainable": true, "dtype": "float32", "filters": 64, "kernel_size": [1, 1], "strides": [1, 1], "padding": "valid", "data_format": "channels_last", "dilation_rate": [1, 1], "activation": "linear", "use_bias": false, "kernel_initializer": {"class_name": "Zeros", "config": {"dtype": "float32"}}, "bias_initializer": {"class_name": "Zeros", "config": {"dtype": "float32"}}, "kernel_regularizer": null, "bias_regularizer": null, "activity_regularizer": null, "kernel_constraint": null, "bias_constraint": null}, "inbound_nodes": [[["371", 0, 0, {}]]]}, {"name": "373", "class_name": "BatchNormalization", "config": {"name": "373", "trainable": true, "dtype": "float32", "axis": [3], "momentum": 0.8999999761581421, "epsilon": 9.999999747378752e-06, "center": true, "scale": true, "beta_initializer": {"class_name": "Zeros", "config": {"dtype": "float32"}}, "gamma_initializer": {"class_name": "Ones", "config": {"dtype": "float32"}}, "moving_mean_initializer": {"class_name": "Zeros", "config": {"dtype": "float32"}}, "moving_variance_initializer": {"class_name": "Ones", "config": {"dtype": "float32"}}, "beta_regularizer": null, "gamma_regularizer": null, "beta_constraint": null, "gamma_constraint": null}, "inbound_nodes": [[["372", 0, 0, {}]]]}, {"name": "374", "class_name": "Conv2D", "config": {"name": "374", "trainable": true, "dtype": "float32", "filters": 384, "kernel_size": [1, 1], "strides": [1, 1], "padding": "valid", "data_format": "channels_last", "dilation_rate": [1, 1], "activation": "linear", "use_bias": false, "kernel_initializer": {"class_name": "Zeros", "config": {"dtype": "float32"}}, "bias_initializer": {"class_name": "Zeros", "config": {"dtype": "float32"}}, "kernel_regularizer": null, "bias_regularizer": null, "activity_regularizer": null, "kernel_constraint": null, "bias_constraint": null}, "inbound_nodes": [[["373", 0, 0, {}]]]}, {"name": "375", "class_name": "BatchNormalization", "config": {"name": "375", "trainable": true, "dtype": "float32", "axis": [3], "momentum": 0.8999999761581421, "epsilon": 9.999999747378752e-06, "center": true, "scale": true, "beta_initializer": {"class_name": "Zeros", "config": {"dtype": "float32"}}, "gamma_initializer": {"class_name": "Ones", "config": {"dtype": "float32"}}, "moving_mean_initializer": {"class_name": "Zeros", "config": {"dtype": "float32"}}, "moving_variance_initializer": {"class_name": "Ones", "config": {"dtype": "float32"}}, "beta_regularizer": null, "gamma_regularizer": null, "beta_constraint": null, "gamma_constraint": null}, "inbound_nodes": [[["374", 0, 0, {}]]]}, {"name": "376", "class_name": "ReLU", "config": {"name": "376", "trainable": true, "dtype": "float32", "max_value": 6.0, "negative_slope": 0.0, "threshold": 0.0}, "inbound_nodes": [[["375", 0, 0, {}]]]}, {"name": "377_pad", "class_name": "ZeroPadding2D", "config": {"name": "377_pad", "trainable": true, "dtype": "float32", "padding": [[1, 1], [1, 1]], "data_format": "channels_last"}, "inbound_nodes": [[["376", 0, 0, {}]]]}, {"name": "377", "class_name": "DepthwiseConv2D", "config": {"name": "377", "trainable": true, "dtype": "float32", "kernel_size": [3, 3], "strides": [1, 1], "padding": "valid", "data_format": "channels_last", "dilation_rate": [1, 1], "activation": "linear", "use_bias": false, "bias_initializer": {"class_name": "Zeros", "config": {"dtype": "float32"}}, "bias_regularizer": null, "activity_regularizer": null, "bias_constraint": null, "depth_multiplier": 1, "depthwise_initializer": {"class_name": "GlorotUniform", "config": {"seed": null, "dtype": "float32"}}, "depthwise_regularizer": null, "depthwise_constraint": null}, "inbound_nodes": [[["377_pad", 0, 0, {}]]]}, {"name": "378", "class_name": "BatchNormalization", "config": {"name": "378", "trainable": true, "dtype": "float32", "axis": [3], "momentum": 0.8999999761581421, "epsilon": 9.999999747378752e-06, "center": true, "scale": true, "beta_initializer": {"class_name": "Zeros", "config": {"dtype": "float32"}}, "gamma_initializer": {"class_name": "Ones", "config": {"dtype": "float32"}}, "moving_mean_initializer": {"class_name": "Zeros", "config": {"dtype": "float32"}}, "moving_variance_initializer": {"class_name": "Ones", "config": {"dtype": "float32"}}, "beta_regularizer": null, "gamma_regularizer": null, "beta_constraint": null, "gamma_constraint": null}, "inbound_nodes": [[["377", 0, 0, {}]]]}, {"name": "379", "class_name": "ReLU", "config": {"name": "379", "trainable": true, "dtype": "float32", "max_value": 6.0, "negative_slope": 0.0, "threshold": 0.0}, "inbound_nodes": [[["378", 0, 0, {}]]]}, {"name": "380", "class_name": "Conv2D", "config": {"name": "380", "trainable": true, "dtype": "float32", "filters": 64, "kernel_size": [1, 1], "strides": [1, 1], "padding": "valid", "data_format": "channels_last", "dilation_rate": [1, 1], "activation": "linear", "use_bias": false, "kernel_initializer": {"class_name": "Zeros", "config": {"dtype": "float32"}}, "bias_initializer": {"class_name": "Zeros", "config": {"dtype": "float32"}}, "kernel_regularizer": null, "bias_regularizer": null, "activity_regularizer": null, "kernel_constraint": null, "bias_constraint": null}, "inbound_nodes": [[["379", 0, 0, {}]]]}, {"name": "381", "class_name": "BatchNormalization", "config": {"name": "381", "trainable": true, "dtype": "float32", "axis": [3], "momentum": 0.8999999761581421, "epsilon": 9.999999747378752e-06, "center": true, "scale": true, "beta_initializer": {"class_name": "Zeros", "config": {"dtype": "float32"}}, "gamma_initializer": {"class_name": "Ones", "config": {"dtype": "float32"}}, "moving_mean_initializer": {"class_name": "Zeros", "config": {"dtype": "float32"}}, "moving_variance_initializer": {"class_name": "Ones", "config": {"dtype": "float32"}}, "beta_regularizer": null, "gamma_regularizer": null, "beta_constraint": null, "gamma_constraint": null}, "inbound_nodes": [[["380", 0, 0, {}]]]}, {"name": "382", "class_name": "Add", "config": {"name": "382", "trainable": true, "dtype": "float32"}, "inbound_nodes": [[["373", 0, 0, {}], ["381", 0, 0, {}]]]}, {"name": "383", "class_name": "Conv2D", "config": {"name": "383", "trainable": true, "dtype": "float32", "filters": 384, "kernel_size": [1, 1], "strides": [1, 1], "padding": "valid", "data_format": "channels_last", "dilation_rate": [1, 1], "activation": "linear", "use_bias": false, "kernel_initializer": {"class_name": "Zeros", "config": {"dtype": "float32"}}, "bias_initializer": {"class_name": "Zeros", "config": {"dtype": "float32"}}, "kernel_regularizer": null, "bias_regularizer": null, "activity_regularizer": null, "kernel_constraint": null, "bias_constraint": null}, "inbound_nodes": [[["382", 0, 0, {}]]]}, {"name": "384", "class_name": "BatchNormalization", "config": {"name": "384", "trainable": true, "dtype": "float32", "axis": [3], "momentum": 0.8999999761581421, "epsilon": 9.999999747378752e-06, "center": true, "scale": true, "beta_initializer": {"class_name": "Zeros", "config": {"dtype": "float32"}}, "gamma_initializer": {"class_name": "Ones", "config": {"dtype": "float32"}}, "moving_mean_initializer": {"class_name": "Zeros", "config": {"dtype": "float32"}}, "moving_variance_initializer": {"class_name": "Ones", "config": {"dtype": "float32"}}, "beta_regularizer": null, "gamma_regularizer": null, "beta_constraint": null, "gamma_constraint": null}, "inbound_nodes": [[["383", 0, 0, {}]]]}, {"name": "385", "class_name": "ReLU", "config": {"name": "385", "trainable": true, "dtype": "float32", "max_value": 6.0, "negative_slope": 0.0, "threshold": 0.0}, "inbound_nodes": [[["384", 0, 0, {}]]]}, {"name": "386_pad", "class_name": "ZeroPadding2D", "config": {"name": "386_pad", "trainable": true, "dtype": "float32", "padding": [[1, 1], [1, 1]], "data_format": "channels_last"}, "inbound_nodes": [[["385", 0, 0, {}]]]}, {"name": "386", "class_name": "DepthwiseConv2D", "config": {"name": "386", "trainable": true, "dtype": "float32", "kernel_size": [3, 3], "strides": [1, 1], "padding": "valid", "data_format": "channels_last", "dilation_rate": [1, 1], "activation": "linear", "use_bias": false, "bias_initializer": {"class_name": "Zeros", "config": {"dtype": "float32"}}, "bias_regularizer": null, "activity_regularizer": null, "bias_constraint": null, "depth_multiplier": 1, "depthwise_initializer": {"class_name": "GlorotUniform", "config": {"seed": null, "dtype": "float32"}}, "depthwise_regularizer": null, "depthwise_constraint": null}, "inbound_nodes": [[["386_pad", 0, 0, {}]]]}, {"name": "387", "class_name": "BatchNormalization", "config": {"name": "387", "trainable": true, "dtype": "float32", "axis": [3], "momentum": 0.8999999761581421, "epsilon": 9.999999747378752e-06, "center": true, "scale": true, "beta_initializer": {"class_name": "Zeros", "config": {"dtype": "float32"}}, "gamma_initializer": {"class_name": "Ones", "config": {"dtype": "float32"}}, "moving_mean_initializer": {"class_name": "Zeros", "config": {"dtype": "float32"}}, "moving_variance_initializer": {"class_name": "Ones", "config": {"dtype": "float32"}}, "beta_regularizer": null, "gamma_regularizer": null, "beta_constraint": null, "gamma_constraint": null}, "inbound_nodes": [[["386", 0, 0, {}]]]}, {"name": "388", "class_name": "ReLU", "config": {"name": "388", "trainable": true, "dtype": "float32", "max_value": 6.0, "negative_slope": 0.0, "threshold": 0.0}, "inbound_nodes": [[["387", 0, 0, {}]]]}, {"name": "389", "class_name": "Conv2D", "config": {"name": "389", "trainable": true, "dtype": "float32", "filters": 64, "kernel_size": [1, 1], "strides": [1, 1], "padding": "valid", "data_format": "channels_last", "dilation_rate": [1, 1], "activation": "linear", "use_bias": false, "kernel_initializer": {"class_name": "Zeros", "config": {"dtype": "float32"}}, "bias_initializer": {"class_name": "Zeros", "config": {"dtype": "float32"}}, "kernel_regularizer": null, "bias_regularizer": null, "activity_regularizer": null, "kernel_constraint": null, "bias_constraint": null}, "inbound_nodes": [[["388", 0, 0, {}]]]}, {"name": "390", "class_name": "BatchNormalization", "config": {"name": "390", "trainable": true, "dtype": "float32", "axis": [3], "momentum": 0.8999999761581421, "epsilon": 9.999999747378752e-06, "center": true, "scale": true, "beta_initializer": {"class_name": "Zeros", "config": {"dtype": "float32"}}, "gamma_initializer": {"class_name": "Ones", "config": {"dtype": "float32"}}, "moving_mean_initializer": {"class_name": "Zeros", "config": {"dtype": "float32"}}, "moving_variance_initializer": {"class_name": "Ones", "config": {"dtype": "float32"}}, "beta_regularizer": null, "gamma_regularizer": null, "beta_constraint": null, "gamma_constraint": null}, "inbound_nodes": [[["389", 0, 0, {}]]]}, {"name": "391", "class_name": "Add", "config": {"name": "391", "trainable": true, "dtype": "float32"}, "inbound_nodes": [[["382", 0, 0, {}], ["390", 0, 0, {}]]]}, {"name": "392", "class_name": "Conv2D", "config": {"name": "392", "trainable": true, "dtype": "float32", "filters": 384, "kernel_size": [1, 1], "strides": [1, 1], "padding": "valid", "data_format": "channels_last", "dilation_rate": [1, 1], "activation": "linear", "use_bias": false, "kernel_initializer": {"class_name": "Zeros", "config": {"dtype": "float32"}}, "bias_initializer": {"class_name": "Zeros", "config": {"dtype": "float32"}}, "kernel_regularizer": null, "bias_regularizer": null, "activity_regularizer": null, "kernel_constraint": null, "bias_constraint": null}, "inbound_nodes": [[["391", 0, 0, {}]]]}, {"name": "393", "class_name": "BatchNormalization", "config": {"name": "393", "trainable": true, "dtype": "float32", "axis": [3], "momentum": 0.8999999761581421, "epsilon": 9.999999747378752e-06, "center": true, "scale": true, "beta_initializer": {"class_name": "Zeros", "config": {"dtype": "float32"}}, "gamma_initializer": {"class_name": "Ones", "config": {"dtype": "float32"}}, "moving_mean_initializer": {"class_name": "Zeros", "config": {"dtype": "float32"}}, "moving_variance_initializer": {"class_name": "Ones", "config": {"dtype": "float32"}}, "beta_regularizer": null, "gamma_regularizer": null, "beta_constraint": null, "gamma_constraint": null}, "inbound_nodes": [[["392", 0, 0, {}]]]}, {"name": "394", "class_name": "ReLU", "config": {"name": "394", "trainable": true, "dtype": "float32", "max_value": 6.0, "negative_slope": 0.0, "threshold": 0.0}, "inbound_nodes": [[["393", 0, 0, {}]]]}, {"name": "395_pad", "class_name": "ZeroPadding2D", "config": {"name": "395_pad", "trainable": true, "dtype": "float32", "padding": [[1, 1], [1, 1]], "data_format": "channels_last"}, "inbound_nodes": [[["394", 0, 0, {}]]]}, {"name": "395", "class_name": "DepthwiseConv2D", "config": {"name": "395", "trainable": true, "dtype": "float32", "kernel_size": [3, 3], "strides": [1, 1], "padding": "valid", "data_format": "channels_last", "dilation_rate": [1, 1], "activation": "linear", "use_bias": false, "bias_initializer": {"class_name": "Zeros", "config": {"dtype": "float32"}}, "bias_regularizer": null, "activity_regularizer": null, "bias_constraint": null, "depth_multiplier": 1, "depthwise_initializer": {"class_name": "GlorotUniform", "config": {"seed": null, "dtype": "float32"}}, "depthwise_regularizer": null, "depthwise_constraint": null}, "inbound_nodes": [[["395_pad", 0, 0, {}]]]}, {"name": "396", "class_name": "BatchNormalization", "config": {"name": "396", "trainable": true, "dtype": "float32", "axis": [3], "momentum": 0.8999999761581421, "epsilon": 9.999999747378752e-06, "center": true, "scale": true, "beta_initializer": {"class_name": "Zeros", "config": {"dtype": "float32"}}, "gamma_initializer": {"class_name": "Ones", "config": {"dtype": "float32"}}, "moving_mean_initializer": {"class_name": "Zeros", "config": {"dtype": "float32"}}, "moving_variance_initializer": {"class_name": "Ones", "config": {"dtype": "float32"}}, "beta_regularizer": null, "gamma_regularizer": null, "beta_constraint": null, "gamma_constraint": null}, "inbound_nodes": [[["395", 0, 0, {}]]]}, {"name": "397", "class_name": "ReLU", "config": {"name": "397", "trainable": true, "dtype": "float32", "max_value": 6.0, "negative_slope": 0.0, "threshold": 0.0}, "inbound_nodes": [[["396", 0, 0, {}]]]}, {"name": "398", "class_name": "Conv2D", "config": {"name": "398", "trainable": true, "dtype": "float32", "filters": 64, "kernel_size": [1, 1], "strides": [1, 1], "padding": "valid", "data_format": "channels_last", "dilation_rate": [1, 1], "activation": "linear", "use_bias": false, "kernel_initializer": {"class_name": "Zeros", "config": {"dtype": "float32"}}, "bias_initializer": {"class_name": "Zeros", "config": {"dtype": "float32"}}, "kernel_regularizer": null, "bias_regularizer": null, "activity_regularizer": null, "kernel_constraint": null, "bias_constraint": null}, "inbound_nodes": [[["397", 0, 0, {}]]]}, {"name": "399", "class_name": "BatchNormalization", "config": {"name": "399", "trainable": true, "dtype": "float32", "axis": [3], "momentum": 0.8999999761581421, "epsilon": 9.999999747378752e-06, "center": true, "scale": true, "beta_initializer": {"class_name": "Zeros", "config": {"dtype": "float32"}}, "gamma_initializer": {"class_name": "Ones", "config": {"dtype": "float32"}}, "moving_mean_initializer": {"class_name": "Zeros", "config": {"dtype": "float32"}}, "moving_variance_initializer": {"class_name": "Ones", "config": {"dtype": "float32"}}, "beta_regularizer": null, "gamma_regularizer": null, "beta_constraint": null, "gamma_constraint": null}, "inbound_nodes": [[["398", 0, 0, {}]]]}, {"name": "400", "class_name": "Add", "config": {"name": "400", "trainable": true, "dtype": "float32"}, "inbound_nodes": [[["391", 0, 0, {}], ["399", 0, 0, {}]]]}, {"name": "401", "class_name": "Conv2D", "config": {"name": "401", "trainable": true, "dtype": "float32", "filters": 384, "kernel_size": [1, 1], "strides": [1, 1], "padding": "valid", "data_format": "channels_last", "dilation_rate": [1, 1], "activation": "linear", "use_bias": false, "kernel_initializer": {"class_name": "Zeros", "config": {"dtype": "float32"}}, "bias_initializer": {"class_name": "Zeros", "config": {"dtype": "float32"}}, "kernel_regularizer": null, "bias_regularizer": null, "activity_regularizer": null, "kernel_constraint": null, "bias_constraint": null}, "inbound_nodes": [[["400", 0, 0, {}]]]}, {"name": "402", "class_name": "BatchNormalization", "config": {"name": "402", "trainable": true, "dtype": "float32", "axis": [3], "momentum": 0.8999999761581421, "epsilon": 9.999999747378752e-06, "center": true, "scale": true, "beta_initializer": {"class_name": "Zeros", "config": {"dtype": "float32"}}, "gamma_initializer": {"class_name": "Ones", "config": {"dtype": "float32"}}, "moving_mean_initializer": {"class_name": "Zeros", "config": {"dtype": "float32"}}, "moving_variance_initializer": {"class_name": "Ones", "config": {"dtype": "float32"}}, "beta_regularizer": null, "gamma_regularizer": null, "beta_constraint": null, "gamma_constraint": null}, "inbound_nodes": [[["401", 0, 0, {}]]]}, {"name": "403", "class_name": "ReLU", "config": {"name": "403", "trainable": true, "dtype": "float32", "max_value": 6.0, "negative_slope": 0.0, "threshold": 0.0}, "inbound_nodes": [[["402", 0, 0, {}]]]}, {"name": "404_pad", "class_name": "ZeroPadding2D", "config": {"name": "404_pad", "trainable": true, "dtype": "float32", "padding": [[1, 1], [1, 1]], "data_format": "channels_last"}, "inbound_nodes": [[["403", 0, 0, {}]]]}, {"name": "404", "class_name": "DepthwiseConv2D", "config": {"name": "404", "trainable": true, "dtype": "float32", "kernel_size": [3, 3], "strides": [1, 1], "padding": "valid", "data_format": "channels_last", "dilation_rate": [1, 1], "activation": "linear", "use_bias": false, "bias_initializer": {"class_name": "Zeros", "config": {"dtype": "float32"}}, "bias_regularizer": null, "activity_regularizer": null, "bias_constraint": null, "depth_multiplier": 1, "depthwise_initializer": {"class_name": "GlorotUniform", "config": {"seed": null, "dtype": "float32"}}, "depthwise_regularizer": null, "depthwise_constraint": null}, "inbound_nodes": [[["404_pad", 0, 0, {}]]]}, {"name": "405", "class_name": "BatchNormalization", "config": {"name": "405", "trainable": true, "dtype": "float32", "axis": [3], "momentum": 0.8999999761581421, "epsilon": 9.999999747378752e-06, "center": true, "scale": true, "beta_initializer": {"class_name": "Zeros", "config": {"dtype": "float32"}}, "gamma_initializer": {"class_name": "Ones", "config": {"dtype": "float32"}}, "moving_mean_initializer": {"class_name": "Zeros", "config": {"dtype": "float32"}}, "moving_variance_initializer": {"class_name": "Ones", "config": {"dtype": "float32"}}, "beta_regularizer": null, "gamma_regularizer": null, "beta_constraint": null, "gamma_constraint": null}, "inbound_nodes": [[["404", 0, 0, {}]]]}, {"name": "406", "class_name": "ReLU", "config": {"name": "406", "trainable": true, "dtype": "float32", "max_value": 6.0, "negative_slope": 0.0, "threshold": 0.0}, "inbound_nodes": [[["405", 0, 0, {}]]]}, {"name": "407", "class_name": "Conv2D", "config": {"name": "407", "trainable": true, "dtype": "float32", "filters": 96, "kernel_size": [1, 1], "strides": [1, 1], "padding": "valid", "data_format": "channels_last", "dilation_rate": [1, 1], "activation": "linear", "use_bias": false, "kernel_initializer": {"class_name": "Zeros", "config": {"dtype": "float32"}}, "bias_initializer": {"class_name": "Zeros", "config": {"dtype": "float32"}}, "kernel_regularizer": null, "bias_regularizer": null, "activity_regularizer": null, "kernel_constraint": null, "bias_constraint": null}, "inbound_nodes": [[["406", 0, 0, {}]]]}, {"name": "408", "class_name": "BatchNormalization", "config": {"name": "408", "trainable": true, "dtype": "float32", "axis": [3], "momentum": 0.8999999761581421, "epsilon": 9.999999747378752e-06, "center": true, "scale": true, "beta_initializer": {"class_name": "Zeros", "config": {"dtype": "float32"}}, "gamma_initializer": {"class_name": "Ones", "config": {"dtype": "float32"}}, "moving_mean_initializer": {"class_name": "Zeros", "config": {"dtype": "float32"}}, "moving_variance_initializer": {"class_name": "Ones", "config": {"dtype": "float32"}}, "beta_regularizer": null, "gamma_regularizer": null, "beta_constraint": null, "gamma_constraint": null}, "inbound_nodes": [[["407", 0, 0, {}]]]}, {"name": "409", "class_name": "Conv2D", "config": {"name": "409", "trainable": true, "dtype": "float32", "filters": 576, "kernel_size": [1, 1], "strides": [1, 1], "padding": "valid", "data_format": "channels_last", "dilation_rate": [1, 1], "activation": "linear", "use_bias": false, "kernel_initializer": {"class_name": "Zeros", "config": {"dtype": "float32"}}, "bias_initializer": {"class_name": "Zeros", "config": {"dtype": "float32"}}, "kernel_regularizer": null, "bias_regularizer": null, "activity_regularizer": null, "kernel_constraint": null, "bias_constraint": null}, "inbound_nodes": [[["408", 0, 0, {}]]]}, {"name": "410", "class_name": "BatchNormalization", "config": {"name": "410", "trainable": true, "dtype": "float32", "axis": [3], "momentum": 0.8999999761581421, "epsilon": 9.999999747378752e-06, "center": true, "scale": true, "beta_initializer": {"class_name": "Zeros", "config": {"dtype": "float32"}}, "gamma_initializer": {"class_name": "Ones", "config": {"dtype": "float32"}}, "moving_mean_initializer": {"class_name": "Zeros", "config": {"dtype": "float32"}}, "moving_variance_initializer": {"class_name": "Ones", "config": {"dtype": "float32"}}, "beta_regularizer": null, "gamma_regularizer": null, "beta_constraint": null, "gamma_constraint": null}, "inbound_nodes": [[["409", 0, 0, {}]]]}, {"name": "411", "class_name": "ReLU", "config": {"name": "411", "trainable": true, "dtype": "float32", "max_value": 6.0, "negative_slope": 0.0, "threshold": 0.0}, "inbound_nodes": [[["410", 0, 0, {}]]]}, {"name": "412_pad", "class_name": "ZeroPadding2D", "config": {"name": "412_pad", "trainable": true, "dtype": "float32", "padding": [[1, 1], [1, 1]], "data_format": "channels_last"}, "inbound_nodes": [[["411", 0, 0, {}]]]}, {"name": "412", "class_name": "DepthwiseConv2D", "config": {"name": "412", "trainable": true, "dtype": "float32", "kernel_size": [3, 3], "strides": [1, 1], "padding": "valid", "data_format": "channels_last", "dilation_rate": [1, 1], "activation": "linear", "use_bias": false, "bias_initializer": {"class_name": "Zeros", "config": {"dtype": "float32"}}, "bias_regularizer": null, "activity_regularizer": null, "bias_constraint": null, "depth_multiplier": 1, "depthwise_initializer": {"class_name": "GlorotUniform", "config": {"seed": null, "dtype": "float32"}}, "depthwise_regularizer": null, "depthwise_constraint": null}, "inbound_nodes": [[["412_pad", 0, 0, {}]]]}, {"name": "413", "class_name": "BatchNormalization", "config": {"name": "413", "trainable": true, "dtype": "float32", "axis": [3], "momentum": 0.8999999761581421, "epsilon": 9.999999747378752e-06, "center": true, "scale": true, "beta_initializer": {"class_name": "Zeros", "config": {"dtype": "float32"}}, "gamma_initializer": {"class_name": "Ones", "config": {"dtype": "float32"}}, "moving_mean_initializer": {"class_name": "Zeros", "config": {"dtype": "float32"}}, "moving_variance_initializer": {"class_name": "Ones", "config": {"dtype": "float32"}}, "beta_regularizer": null, "gamma_regularizer": null, "beta_constraint": null, "gamma_constraint": null}, "inbound_nodes": [[["412", 0, 0, {}]]]}, {"name": "414", "class_name": "ReLU", "config": {"name": "414", "trainable": true, "dtype": "float32", "max_value": 6.0, "negative_slope": 0.0, "threshold": 0.0}, "inbound_nodes": [[["413", 0, 0, {}]]]}, {"name": "415", "class_name": "Conv2D", "config": {"name": "415", "trainable": true, "dtype": "float32", "filters": 96, "kernel_size": [1, 1], "strides": [1, 1], "padding": "valid", "data_format": "channels_last", "dilation_rate": [1, 1], "activation": "linear", "use_bias": false, "kernel_initializer": {"class_name": "Zeros", "config": {"dtype": "float32"}}, "bias_initializer": {"class_name": "Zeros", "config": {"dtype": "float32"}}, "kernel_regularizer": null, "bias_regularizer": null, "activity_regularizer": null, "kernel_constraint": null, "bias_constraint": null}, "inbound_nodes": [[["414", 0, 0, {}]]]}, {"name": "416", "class_name": "BatchNormalization", "config": {"name": "416", "trainable": true, "dtype": "float32", "axis": [3], "momentum": 0.8999999761581421, "epsilon": 9.999999747378752e-06, "center": true, "scale": true, "beta_initializer": {"class_name": "Zeros", "config": {"dtype": "float32"}}, "gamma_initializer": {"class_name": "Ones", "config": {"dtype": "float32"}}, "moving_mean_initializer": {"class_name": "Zeros", "config": {"dtype": "float32"}}, "moving_variance_initializer": {"class_name": "Ones", "config": {"dtype": "float32"}}, "beta_regularizer": null, "gamma_regularizer": null, "beta_constraint": null, "gamma_constraint": null}, "inbound_nodes": [[["415", 0, 0, {}]]]}, {"name": "417", "class_name": "Add", "config": {"name": "417", "trainable": true, "dtype": "float32"}, "inbound_nodes": [[["408", 0, 0, {}], ["416", 0, 0, {}]]]}, {"name": "418", "class_name": "Conv2D", "config": {"name": "418", "trainable": true, "dtype": "float32", "filters": 576, "kernel_size": [1, 1], "strides": [1, 1], "padding": "valid", "data_format": "channels_last", "dilation_rate": [1, 1], "activation": "linear", "use_bias": false, "kernel_initializer": {"class_name": "Zeros", "config": {"dtype": "float32"}}, "bias_initializer": {"class_name": "Zeros", "config": {"dtype": "float32"}}, "kernel_regularizer": null, "bias_regularizer": null, "activity_regularizer": null, "kernel_constraint": null, "bias_constraint": null}, "inbound_nodes": [[["417", 0, 0, {}]]]}, {"name": "419", "class_name": "BatchNormalization", "config": {"name": "419", "trainable": true, "dtype": "float32", "axis": [3], "momentum": 0.8999999761581421, "epsilon": 9.999999747378752e-06, "center": true, "scale": true, "beta_initializer": {"class_name": "Zeros", "config": {"dtype": "float32"}}, "gamma_initializer": {"class_name": "Ones", "config": {"dtype": "float32"}}, "moving_mean_initializer": {"class_name": "Zeros", "config": {"dtype": "float32"}}, "moving_variance_initializer": {"class_name": "Ones", "config": {"dtype": "float32"}}, "beta_regularizer": null, "gamma_regularizer": null, "beta_constraint": null, "gamma_constraint": null}, "inbound_nodes": [[["418", 0, 0, {}]]]}, {"name": "420", "class_name": "ReLU", "config": {"name": "420", "trainable": true, "dtype": "float32", "max_value": 6.0, "negative_slope": 0.0, "threshold": 0.0}, "inbound_nodes": [[["419", 0, 0, {}]]]}, {"name": "421_pad", "class_name": "ZeroPadding2D", "config": {"name": "421_pad", "trainable": true, "dtype": "float32", "padding": [[1, 1], [1, 1]], "data_format": "channels_last"}, "inbound_nodes": [[["420", 0, 0, {}]]]}, {"name": "421", "class_name": "DepthwiseConv2D", "config": {"name": "421", "trainable": true, "dtype": "float32", "kernel_size": [3, 3], "strides": [1, 1], "padding": "valid", "data_format": "channels_last", "dilation_rate": [1, 1], "activation": "linear", "use_bias": false, "bias_initializer": {"class_name": "Zeros", "config": {"dtype": "float32"}}, "bias_regularizer": null, "activity_regularizer": null, "bias_constraint": null, "depth_multiplier": 1, "depthwise_initializer": {"class_name": "GlorotUniform", "config": {"seed": null, "dtype": "float32"}}, "depthwise_regularizer": null, "depthwise_constraint": null}, "inbound_nodes": [[["421_pad", 0, 0, {}]]]}, {"name": "422", "class_name": "BatchNormalization", "config": {"name": "422", "trainable": true, "dtype": "float32", "axis": [3], "momentum": 0.8999999761581421, "epsilon": 9.999999747378752e-06, "center": true, "scale": true, "beta_initializer": {"class_name": "Zeros", "config": {"dtype": "float32"}}, "gamma_initializer": {"class_name": "Ones", "config": {"dtype": "float32"}}, "moving_mean_initializer": {"class_name": "Zeros", "config": {"dtype": "float32"}}, "moving_variance_initializer": {"class_name": "Ones", "config": {"dtype": "float32"}}, "beta_regularizer": null, "gamma_regularizer": null, "beta_constraint": null, "gamma_constraint": null}, "inbound_nodes": [[["421", 0, 0, {}]]]}, {"name": "423", "class_name": "ReLU", "config": {"name": "423", "trainable": true, "dtype": "float32", "max_value": 6.0, "negative_slope": 0.0, "threshold": 0.0}, "inbound_nodes": [[["422", 0, 0, {}]]]}, {"name": "424", "class_name": "Conv2D", "config": {"name": "424", "trainable": true, "dtype": "float32", "filters": 96, "kernel_size": [1, 1], "strides": [1, 1], "padding": "valid", "data_format": "channels_last", "dilation_rate": [1, 1], "activation": "linear", "use_bias": false, "kernel_initializer": {"class_name": "Zeros", "config": {"dtype": "float32"}}, "bias_initializer": {"class_name": "Zeros", "config": {"dtype": "float32"}}, "kernel_regularizer": null, "bias_regularizer": null, "activity_regularizer": null, "kernel_constraint": null, "bias_constraint": null}, "inbound_nodes": [[["423", 0, 0, {}]]]}, {"name": "425", "class_name": "BatchNormalization", "config": {"name": "425", "trainable": true, "dtype": "float32", "axis": [3], "momentum": 0.8999999761581421, "epsilon": 9.999999747378752e-06, "center": true, "scale": true, "beta_initializer": {"class_name": "Zeros", "config": {"dtype": "float32"}}, "gamma_initializer": {"class_name": "Ones", "config": {"dtype": "float32"}}, "moving_mean_initializer": {"class_name": "Zeros", "config": {"dtype": "float32"}}, "moving_variance_initializer": {"class_name": "Ones", "config": {"dtype": "float32"}}, "beta_regularizer": null, "gamma_regularizer": null, "beta_constraint": null, "gamma_constraint": null}, "inbound_nodes": [[["424", 0, 0, {}]]]}, {"name": "output_3", "class_name": "Add", "config": {"name": "output_3", "trainable": true, "dtype": "float32"}, "inbound_nodes": [[["417", 0, 0, {}], ["425", 0, 0, {}]]]}, {"name": "427", "class_name": "Conv2D", "config": {"name": "427", "trainable": true, "dtype": "float32", "filters": 576, "kernel_size": [1, 1], "strides": [1, 1], "padding": "valid", "data_format": "channels_last", "dilation_rate": [1, 1], "activation": "linear", "use_bias": false, "kernel_initializer": {"class_name": "Zeros", "config": {"dtype": "float32"}}, "bias_initializer": {"class_name": "Zeros", "config": {"dtype": "float32"}}, "kernel_regularizer": null, "bias_regularizer": null, "activity_regularizer": null, "kernel_constraint": null, "bias_constraint": null}, "inbound_nodes": [[["output_3", 0, 0, {}]]]}, {"name": "428", "class_name": "BatchNormalization", "config": {"name": "428", "trainable": true, "dtype": "float32", "axis": [3], "momentum": 0.8999999761581421, "epsilon": 9.999999747378752e-06, "center": true, "scale": true, "beta_initializer": {"class_name": "Zeros", "config": {"dtype": "float32"}}, "gamma_initializer": {"class_name": "Ones", "config": {"dtype": "float32"}}, "moving_mean_initializer": {"class_name": "Zeros", "config": {"dtype": "float32"}}, "moving_variance_initializer": {"class_name": "Ones", "config": {"dtype": "float32"}}, "beta_regularizer": null, "gamma_regularizer": null, "beta_constraint": null, "gamma_constraint": null}, "inbound_nodes": [[["427", 0, 0, {}]]]}, {"name": "429", "class_name": "ReLU", "config": {"name": "429", "trainable": true, "dtype": "float32", "max_value": 6.0, "negative_slope": 0.0, "threshold": 0.0}, "inbound_nodes": [[["428", 0, 0, {}]]]}, {"name": "430_pad", "class_name": "ZeroPadding2D", "config": {"name": "430_pad", "trainable": true, "dtype": "float32", "padding": [[1, 1], [1, 1]], "data_format": "channels_last"}, "inbound_nodes": [[["429", 0, 0, {}]]]}, {"name": "430", "class_name": "DepthwiseConv2D", "config": {"name": "430", "trainable": true, "dtype": "float32", "kernel_size": [3, 3], "strides": [2, 2], "padding": "valid", "data_format": "channels_last", "dilation_rate": [1, 1], "activation": "linear", "use_bias": false, "bias_initializer": {"class_name": "Zeros", "config": {"dtype": "float32"}}, "bias_regularizer": null, "activity_regularizer": null, "bias_constraint": null, "depth_multiplier": 1, "depthwise_initializer": {"class_name": "GlorotUniform", "config": {"seed": null, "dtype": "float32"}}, "depthwise_regularizer": null, "depthwise_constraint": null}, "inbound_nodes": [[["430_pad", 0, 0, {}]]]}, {"name": "431", "class_name": "BatchNormalization", "config": {"name": "431", "trainable": true, "dtype": "float32", "axis": [3], "momentum": 0.8999999761581421, "epsilon": 9.999999747378752e-06, "center": true, "scale": true, "beta_initializer": {"class_name": "Zeros", "config": {"dtype": "float32"}}, "gamma_initializer": {"class_name": "Ones", "config": {"dtype": "float32"}}, "moving_mean_initializer": {"class_name": "Zeros", "config": {"dtype": "float32"}}, "moving_variance_initializer": {"class_name": "Ones", "config": {"dtype": "float32"}}, "beta_regularizer": null, "gamma_regularizer": null, "beta_constraint": null, "gamma_constraint": null}, "inbound_nodes": [[["430", 0, 0, {}]]]}, {"name": "432", "class_name": "ReLU", "config": {"name": "432", "trainable": true, "dtype": "float32", "max_value": 6.0, "negative_slope": 0.0, "threshold": 0.0}, "inbound_nodes": [[["431", 0, 0, {}]]]}, {"name": "433", "class_name": "Conv2D", "config": {"name": "433", "trainable": true, "dtype": "float32", "filters": 160, "kernel_size": [1, 1], "strides": [1, 1], "padding": "valid", "data_format": "channels_last", "dilation_rate": [1, 1], "activation": "linear", "use_bias": false, "kernel_initializer": {"class_name": "Zeros", "config": {"dtype": "float32"}}, "bias_initializer": {"class_name": "Zeros", "config": {"dtype": "float32"}}, "kernel_regularizer": null, "bias_regularizer": null, "activity_regularizer": null, "kernel_constraint": null, "bias_constraint": null}, "inbound_nodes": [[["432", 0, 0, {}]]]}, {"name": "434", "class_name": "BatchNormalization", "config": {"name": "434", "trainable": true, "dtype": "float32", "axis": [3], "momentum": 0.8999999761581421, "epsilon": 9.999999747378752e-06, "center": true, "scale": true, "beta_initializer": {"class_name": "Zeros", "config": {"dtype": "float32"}}, "gamma_initializer": {"class_name": "Ones", "config": {"dtype": "float32"}}, "moving_mean_initializer": {"class_name": "Zeros", "config": {"dtype": "float32"}}, "moving_variance_initializer": {"class_name": "Ones", "config": {"dtype": "float32"}}, "beta_regularizer": null, "gamma_regularizer": null, "beta_constraint": null, "gamma_constraint": null}, "inbound_nodes": [[["433", 0, 0, {}]]]}, {"name": "435", "class_name": "Conv2D", "config": {"name": "435", "trainable": true, "dtype": "float32", "filters": 960, "kernel_size": [1, 1], "strides": [1, 1], "padding": "valid", "data_format": "channels_last", "dilation_rate": [1, 1], "activation": "linear", "use_bias": false, "kernel_initializer": {"class_name": "Zeros", "config": {"dtype": "float32"}}, "bias_initializer": {"class_name": "Zeros", "config": {"dtype": "float32"}}, "kernel_regularizer": null, "bias_regularizer": null, "activity_regularizer": null, "kernel_constraint": null, "bias_constraint": null}, "inbound_nodes": [[["434", 0, 0, {}]]]}, {"name": "436", "class_name": "BatchNormalization", "config": {"name": "436", "trainable": true, "dtype": "float32", "axis": [3], "momentum": 0.8999999761581421, "epsilon": 9.999999747378752e-06, "center": true, "scale": true, "beta_initializer": {"class_name": "Zeros", "config": {"dtype": "float32"}}, "gamma_initializer": {"class_name": "Ones", "config": {"dtype": "float32"}}, "moving_mean_initializer": {"class_name": "Zeros", "config": {"dtype": "float32"}}, "moving_variance_initializer": {"class_name": "Ones", "config": {"dtype": "float32"}}, "beta_regularizer": null, "gamma_regularizer": null, "beta_constraint": null, "gamma_constraint": null}, "inbound_nodes": [[["435", 0, 0, {}]]]}, {"name": "437", "class_name": "ReLU", "config": {"name": "437", "trainable": true, "dtype": "float32", "max_value": 6.0, "negative_slope": 0.0, "threshold": 0.0}, "inbound_nodes": [[["436", 0, 0, {}]]]}, {"name": "438_pad", "class_name": "ZeroPadding2D", "config": {"name": "438_pad", "trainable": true, "dtype": "float32", "padding": [[1, 1], [1, 1]], "data_format": "channels_last"}, "inbound_nodes": [[["437", 0, 0, {}]]]}, {"name": "438", "class_name": "DepthwiseConv2D", "config": {"name": "438", "trainable": true, "dtype": "float32", "kernel_size": [3, 3], "strides": [1, 1], "padding": "valid", "data_format": "channels_last", "dilation_rate": [1, 1], "activation": "linear", "use_bias": false, "bias_initializer": {"class_name": "Zeros", "config": {"dtype": "float32"}}, "bias_regularizer": null, "activity_regularizer": null, "bias_constraint": null, "depth_multiplier": 1, "depthwise_initializer": {"class_name": "GlorotUniform", "config": {"seed": null, "dtype": "float32"}}, "depthwise_regularizer": null, "depthwise_constraint": null}, "inbound_nodes": [[["438_pad", 0, 0, {}]]]}, {"name": "439", "class_name": "BatchNormalization", "config": {"name": "439", "trainable": true, "dtype": "float32", "axis": [3], "momentum": 0.8999999761581421, "epsilon": 9.999999747378752e-06, "center": true, "scale": true, "beta_initializer": {"class_name": "Zeros", "config": {"dtype": "float32"}}, "gamma_initializer": {"class_name": "Ones", "config": {"dtype": "float32"}}, "moving_mean_initializer": {"class_name": "Zeros", "config": {"dtype": "float32"}}, "moving_variance_initializer": {"class_name": "Ones", "config": {"dtype": "float32"}}, "beta_regularizer": null, "gamma_regularizer": null, "beta_constraint": null, "gamma_constraint": null}, "inbound_nodes": [[["438", 0, 0, {}]]]}, {"name": "440", "class_name": "ReLU", "config": {"name": "440", "trainable": true, "dtype": "float32", "max_value": 6.0, "negative_slope": 0.0, "threshold": 0.0}, "inbound_nodes": [[["439", 0, 0, {}]]]}, {"name": "441", "class_name": "Conv2D", "config": {"name": "441", "trainable": true, "dtype": "float32", "filters": 160, "kernel_size": [1, 1], "strides": [1, 1], "padding": "valid", "data_format": "channels_last", "dilation_rate": [1, 1], "activation": "linear", "use_bias": false, "kernel_initializer": {"class_name": "Zeros", "config": {"dtype": "float32"}}, "bias_initializer": {"class_name": "Zeros", "config": {"dtype": "float32"}}, "kernel_regularizer": null, "bias_regularizer": null, "activity_regularizer": null, "kernel_constraint": null, "bias_constraint": null}, "inbound_nodes": [[["440", 0, 0, {}]]]}, {"name": "442", "class_name": "BatchNormalization", "config": {"name": "442", "trainable": true, "dtype": "float32", "axis": [3], "momentum": 0.8999999761581421, "epsilon": 9.999999747378752e-06, "center": true, "scale": true, "beta_initializer": {"class_name": "Zeros", "config": {"dtype": "float32"}}, "gamma_initializer": {"class_name": "Ones", "config": {"dtype": "float32"}}, "moving_mean_initializer": {"class_name": "Zeros", "config": {"dtype": "float32"}}, "moving_variance_initializer": {"class_name": "Ones", "config": {"dtype": "float32"}}, "beta_regularizer": null, "gamma_regularizer": null, "beta_constraint": null, "gamma_constraint": null}, "inbound_nodes": [[["441", 0, 0, {}]]]}, {"name": "443", "class_name": "Add", "config": {"name": "443", "trainable": true, "dtype": "float32"}, "inbound_nodes": [[["434", 0, 0, {}], ["442", 0, 0, {}]]]}, {"name": "444", "class_name": "Conv2D", "config": {"name": "444", "trainable": true, "dtype": "float32", "filters": 960, "kernel_size": [1, 1], "strides": [1, 1], "padding": "valid", "data_format": "channels_last", "dilation_rate": [1, 1], "activation": "linear", "use_bias": false, "kernel_initializer": {"class_name": "Zeros", "config": {"dtype": "float32"}}, "bias_initializer": {"class_name": "Zeros", "config": {"dtype": "float32"}}, "kernel_regularizer": null, "bias_regularizer": null, "activity_regularizer": null, "kernel_constraint": null, "bias_constraint": null}, "inbound_nodes": [[["443", 0, 0, {}]]]}, {"name": "445", "class_name": "BatchNormalization", "config": {"name": "445", "trainable": true, "dtype": "float32", "axis": [3], "momentum": 0.8999999761581421, "epsilon": 9.999999747378752e-06, "center": true, "scale": true, "beta_initializer": {"class_name": "Zeros", "config": {"dtype": "float32"}}, "gamma_initializer": {"class_name": "Ones", "config": {"dtype": "float32"}}, "moving_mean_initializer": {"class_name": "Zeros", "config": {"dtype": "float32"}}, "moving_variance_initializer": {"class_name": "Ones", "config": {"dtype": "float32"}}, "beta_regularizer": null, "gamma_regularizer": null, "beta_constraint": null, "gamma_constraint": null}, "inbound_nodes": [[["444", 0, 0, {}]]]}, {"name": "446", "class_name": "ReLU", "config": {"name": "446", "trainable": true, "dtype": "float32", "max_value": 6.0, "negative_slope": 0.0, "threshold": 0.0}, "inbound_nodes": [[["445", 0, 0, {}]]]}, {"name": "447_pad", "class_name": "ZeroPadding2D", "config": {"name": "447_pad", "trainable": true, "dtype": "float32", "padding": [[1, 1], [1, 1]], "data_format": "channels_last"}, "inbound_nodes": [[["446", 0, 0, {}]]]}, {"name": "447", "class_name": "DepthwiseConv2D", "config": {"name": "447", "trainable": true, "dtype": "float32", "kernel_size": [3, 3], "strides": [1, 1], "padding": "valid", "data_format": "channels_last", "dilation_rate": [1, 1], "activation": "linear", "use_bias": false, "bias_initializer": {"class_name": "Zeros", "config": {"dtype": "float32"}}, "bias_regularizer": null, "activity_regularizer": null, "bias_constraint": null, "depth_multiplier": 1, "depthwise_initializer": {"class_name": "GlorotUniform", "config": {"seed": null, "dtype": "float32"}}, "depthwise_regularizer": null, "depthwise_constraint": null}, "inbound_nodes": [[["447_pad", 0, 0, {}]]]}, {"name": "448", "class_name": "BatchNormalization", "config": {"name": "448", "trainable": true, "dtype": "float32", "axis": [3], "momentum": 0.8999999761581421, "epsilon": 9.999999747378752e-06, "center": true, "scale": true, "beta_initializer": {"class_name": "Zeros", "config": {"dtype": "float32"}}, "gamma_initializer": {"class_name": "Ones", "config": {"dtype": "float32"}}, "moving_mean_initializer": {"class_name": "Zeros", "config": {"dtype": "float32"}}, "moving_variance_initializer": {"class_name": "Ones", "config": {"dtype": "float32"}}, "beta_regularizer": null, "gamma_regularizer": null, "beta_constraint": null, "gamma_constraint": null}, "inbound_nodes": [[["447", 0, 0, {}]]]}, {"name": "449", "class_name": "ReLU", "config": {"name": "449", "trainable": true, "dtype": "float32", "max_value": 6.0, "negative_slope": 0.0, "threshold": 0.0}, "inbound_nodes": [[["448", 0, 0, {}]]]}, {"name": "450", "class_name": "Conv2D", "config": {"name": "450", "trainable": true, "dtype": "float32", "filters": 160, "kernel_size": [1, 1], "strides": [1, 1], "padding": "valid", "data_format": "channels_last", "dilation_rate": [1, 1], "activation": "linear", "use_bias": false, "kernel_initializer": {"class_name": "Zeros", "config": {"dtype": "float32"}}, "bias_initializer": {"class_name": "Zeros", "config": {"dtype": "float32"}}, "kernel_regularizer": null, "bias_regularizer": null, "activity_regularizer": null, "kernel_constraint": null, "bias_constraint": null}, "inbound_nodes": [[["449", 0, 0, {}]]]}, {"name": "451", "class_name": "BatchNormalization", "config": {"name": "451", "trainable": true, "dtype": "float32", "axis": [3], "momentum": 0.8999999761581421, "epsilon": 9.999999747378752e-06, "center": true, "scale": true, "beta_initializer": {"class_name": "Zeros", "config": {"dtype": "float32"}}, "gamma_initializer": {"class_name": "Ones", "config": {"dtype": "float32"}}, "moving_mean_initializer": {"class_name": "Zeros", "config": {"dtype": "float32"}}, "moving_variance_initializer": {"class_name": "Ones", "config": {"dtype": "float32"}}, "beta_regularizer": null, "gamma_regularizer": null, "beta_constraint": null, "gamma_constraint": null}, "inbound_nodes": [[["450", 0, 0, {}]]]}, {"name": "452", "class_name": "Add", "config": {"name": "452", "trainable": true, "dtype": "float32"}, "inbound_nodes": [[["443", 0, 0, {}], ["451", 0, 0, {}]]]}, {"name": "453", "class_name": "Conv2D", "config": {"name": "453", "trainable": true, "dtype": "float32", "filters": 960, "kernel_size": [1, 1], "strides": [1, 1], "padding": "valid", "data_format": "channels_last", "dilation_rate": [1, 1], "activation": "linear", "use_bias": false, "kernel_initializer": {"class_name": "Zeros", "config": {"dtype": "float32"}}, "bias_initializer": {"class_name": "Zeros", "config": {"dtype": "float32"}}, "kernel_regularizer": null, "bias_regularizer": null, "activity_regularizer": null, "kernel_constraint": null, "bias_constraint": null}, "inbound_nodes": [[["452", 0, 0, {}]]]}, {"name": "454", "class_name": "BatchNormalization", "config": {"name": "454", "trainable": true, "dtype": "float32", "axis": [3], "momentum": 0.8999999761581421, "epsilon": 9.999999747378752e-06, "center": true, "scale": true, "beta_initializer": {"class_name": "Zeros", "config": {"dtype": "float32"}}, "gamma_initializer": {"class_name": "Ones", "config": {"dtype": "float32"}}, "moving_mean_initializer": {"class_name": "Zeros", "config": {"dtype": "float32"}}, "moving_variance_initializer": {"class_name": "Ones", "config": {"dtype": "float32"}}, "beta_regularizer": null, "gamma_regularizer": null, "beta_constraint": null, "gamma_constraint": null}, "inbound_nodes": [[["453", 0, 0, {}]]]}, {"name": "455", "class_name": "ReLU", "config": {"name": "455", "trainable": true, "dtype": "float32", "max_value": 6.0, "negative_slope": 0.0, "threshold": 0.0}, "inbound_nodes": [[["454", 0, 0, {}]]]}, {"name": "456_pad", "class_name": "ZeroPadding2D", "config": {"name": "456_pad", "trainable": true, "dtype": "float32", "padding": [[1, 1], [1, 1]], "data_format": "channels_last"}, "inbound_nodes": [[["455", 0, 0, {}]]]}, {"name": "456", "class_name": "DepthwiseConv2D", "config": {"name": "456", "trainable": true, "dtype": "float32", "kernel_size": [3, 3], "strides": [1, 1], "padding": "valid", "data_format": "channels_last", "dilation_rate": [1, 1], "activation": "linear", "use_bias": false, "bias_initializer": {"class_name": "Zeros", "config": {"dtype": "float32"}}, "bias_regularizer": null, "activity_regularizer": null, "bias_constraint": null, "depth_multiplier": 1, "depthwise_initializer": {"class_name": "GlorotUniform", "config": {"seed": null, "dtype": "float32"}}, "depthwise_regularizer": null, "depthwise_constraint": null}, "inbound_nodes": [[["456_pad", 0, 0, {}]]]}, {"name": "457", "class_name": "BatchNormalization", "config": {"name": "457", "trainable": true, "dtype": "float32", "axis": [3], "momentum": 0.8999999761581421, "epsilon": 9.999999747378752e-06, "center": true, "scale": true, "beta_initializer": {"class_name": "Zeros", "config": {"dtype": "float32"}}, "gamma_initializer": {"class_name": "Ones", "config": {"dtype": "float32"}}, "moving_mean_initializer": {"class_name": "Zeros", "config": {"dtype": "float32"}}, "moving_variance_initializer": {"class_name": "Ones", "config": {"dtype": "float32"}}, "beta_regularizer": null, "gamma_regularizer": null, "beta_constraint": null, "gamma_constraint": null}, "inbound_nodes": [[["456", 0, 0, {}]]]}, {"name": "458", "class_name": "ReLU", "config": {"name": "458", "trainable": true, "dtype": "float32", "max_value": 6.0, "negative_slope": 0.0, "threshold": 0.0}, "inbound_nodes": [[["457", 0, 0, {}]]]}, {"name": "459", "class_name": "Conv2D", "config": {"name": "459", "trainable": true, "dtype": "float32", "filters": 320, "kernel_size": [1, 1], "strides": [1, 1], "padding": "valid", "data_format": "channels_last", "dilation_rate": [1, 1], "activation": "linear", "use_bias": false, "kernel_initializer": {"class_name": "Zeros", "config": {"dtype": "float32"}}, "bias_initializer": {"class_name": "Zeros", "config": {"dtype": "float32"}}, "kernel_regularizer": null, "bias_regularizer": null, "activity_regularizer": null, "kernel_constraint": null, "bias_constraint": null}, "inbound_nodes": [[["458", 0, 0, {}]]]}, {"name": "output_4", "class_name": "BatchNormalization", "config": {"name": "output_4", "trainable": true, "dtype": "float32", "axis": [3], "momentum": 0.8999999761581421, "epsilon": 9.999999747378752e-06, "center": true, "scale": true, "beta_initializer": {"class_name": "Zeros", "config": {"dtype": "float32"}}, "gamma_initializer": {"class_name": "Ones", "config": {"dtype": "float32"}}, "moving_mean_initializer": {"class_name": "Zeros", "config": {"dtype": "float32"}}, "moving_variance_initializer": {"class_name": "Ones", "config": {"dtype": "float32"}}, "beta_regularizer": null, "gamma_regularizer": null, "beta_constraint": null, "gamma_constraint": null}, "inbound_nodes": [[["459", 0, 0, {}]]]}], "input_layers": [["input_0", 0, 0]], "output_layers": [["output_0", 0, 0], ["output_1", 0, 0], ["output_2", 0, 0], ["output_3", 0, 0], ["output_4", 0, 0]]}}}, "weightsManifest": [{"paths": ["group1-shard1of2.bin", "group1-shard2of2.bin"], "weights": [{"name": "315/kernel", "shape": [3, 3, 3, 32], "dtype": "float32"}, {"name": "316/gamma", "shape": [32], "dtype": "float32"}, {"name": "316/beta", "shape": [32], "dtype": "float32"}, {"name": "316/moving_mean", "shape": [32], "dtype": "float32"}, {"name": "316/moving_variance", "shape": [32], "dtype": "float32"}, {"name": "318/depthwise_kernel", "shape": [3, 3, 32, 1], "dtype": "float32"}, {"name": "319/gamma", "shape": [32], "dtype": "float32"}, {"name": "319/beta", "shape": [32], "dtype": "float32"}, {"name": "319/moving_mean", "shape": [32], "dtype": "float32"}, {"name": "319/moving_variance", "shape": [32], "dtype": "float32"}, {"name": "321/kernel", "shape": [1, 1, 32, 16], "dtype": "float32"}, {"name": "323/kernel", "shape": [1, 1, 16, 96], "dtype": "float32"}, {"name": "324/gamma", "shape": [96], "dtype": "float32"}, {"name": "324/beta", "shape": [96], "dtype": "float32"}, {"name": "324/moving_mean", "shape": [96], "dtype": "float32"}, {"name": "324/moving_variance", "shape": [96], "dtype": "float32"}, {"name": "326/depthwise_kernel", "shape": [3, 3, 96, 1], "dtype": "float32"}, {"name": "327/gamma", "shape": [96], "dtype": "float32"}, {"name": "327/beta", "shape": [96], "dtype": "float32"}, {"name": "327/moving_mean", "shape": [96], "dtype": "float32"}, {"name": "327/moving_variance", "shape": [96], "dtype": "float32"}, {"name": "329/kernel", "shape": [1, 1, 96, 24], "dtype": "float32"}, {"name": "330/gamma", "shape": [24], "dtype": "float32"}, {"name": "330/beta", "shape": [24], "dtype": "float32"}, {"name": "330/moving_mean", "shape": [24], "dtype": "float32"}, {"name": "330/moving_variance", "shape": [24], "dtype": "float32"}, {"name": "331/kernel", "shape": [1, 1, 24, 144], "dtype": "float32"}, {"name": "332/gamma", "shape": [144], "dtype": "float32"}, {"name": "332/beta", "shape": [144], "dtype": "float32"}, {"name": "332/moving_mean", "shape": [144], "dtype": "float32"}, {"name": "332/moving_variance", "shape": [144], "dtype": "float32"}, {"name": "334/depthwise_kernel", "shape": [3, 3, 144, 1], "dtype": "float32"}, {"name": "335/gamma", "shape": [144], "dtype": "float32"}, {"name": "335/beta", "shape": [144], "dtype": "float32"}, {"name": "335/moving_mean", "shape": [144], "dtype": "float32"}, {"name": "335/moving_variance", "shape": [144], "dtype": "float32"}, {"name": "337/kernel", "shape": [1, 1, 144, 24], "dtype": "float32"}, {"name": "338/gamma", "shape": [24], "dtype": "float32"}, {"name": "338/beta", "shape": [24], "dtype": "float32"}, {"name": "338/moving_mean", "shape": [24], "dtype": "float32"}, {"name": "338/moving_variance", "shape": [24], "dtype": "float32"}, {"name": "340/kernel", "shape": [1, 1, 24, 144], "dtype": "float32"}, {"name": "341/gamma", "shape": [144], "dtype": "float32"}, {"name": "341/beta", "shape": [144], "dtype": "float32"}, {"name": "341/moving_mean", "shape": [144], "dtype": "float32"}, {"name": "341/moving_variance", "shape": [144], "dtype": "float32"}, {"name": "343/depthwise_kernel", "shape": [3, 3, 144, 1], "dtype": "float32"}, {"name": "344/gamma", "shape": [144], "dtype": "float32"}, {"name": "344/beta", "shape": [144], "dtype": "float32"}, {"name": "344/moving_mean", "shape": [144], "dtype": "float32"}, {"name": "344/moving_variance", "shape": [144], "dtype": "float32"}, {"name": "346/kernel", "shape": [1, 1, 144, 32], "dtype": "float32"}, {"name": "347/gamma", "shape": [32], "dtype": "float32"}, {"name": "347/beta", "shape": [32], "dtype": "float32"}, {"name": "347/moving_mean", "shape": [32], "dtype": "float32"}, {"name": "347/moving_variance", "shape": [32], "dtype": "float32"}, {"name": "348/kernel", "shape": [1, 1, 32, 192], "dtype": "float32"}, {"name": "349/gamma", "shape": [192], "dtype": "float32"}, {"name": "349/beta", "shape": [192], "dtype": "float32"}, {"name": "349/moving_mean", "shape": [192], "dtype": "float32"}, {"name": "349/moving_variance", "shape": [192], "dtype": "float32"}, {"name": "351/depthwise_kernel", "shape": [3, 3, 192, 1], "dtype": "float32"}, {"name": "352/gamma", "shape": [192], "dtype": "float32"}, {"name": "352/beta", "shape": [192], "dtype": "float32"}, {"name": "352/moving_mean", "shape": [192], "dtype": "float32"}, {"name": "352/moving_variance", "shape": [192], "dtype": "float32"}, {"name": "354/kernel", "shape": [1, 1, 192, 32], "dtype": "float32"}, {"name": "355/gamma", "shape": [32], "dtype": "float32"}, {"name": "355/beta", "shape": [32], "dtype": "float32"}, {"name": "355/moving_mean", "shape": [32], "dtype": "float32"}, {"name": "355/moving_variance", "shape": [32], "dtype": "float32"}, {"name": "357/kernel", "shape": [1, 1, 32, 192], "dtype": "float32"}, {"name": "358/gamma", "shape": [192], "dtype": "float32"}, {"name": "358/beta", "shape": [192], "dtype": "float32"}, {"name": "358/moving_mean", "shape": [192], "dtype": "float32"}, {"name": "358/moving_variance", "shape": [192], "dtype": "float32"}, {"name": "360/depthwise_kernel", "shape": [3, 3, 192, 1], "dtype": "float32"}, {"name": "361/gamma", "shape": [192], "dtype": "float32"}, {"name": "361/beta", "shape": [192], "dtype": "float32"}, {"name": "361/moving_mean", "shape": [192], "dtype": "float32"}, {"name": "361/moving_variance", "shape": [192], "dtype": "float32"}, {"name": "363/kernel", "shape": [1, 1, 192, 32], "dtype": "float32"}, {"name": "364/gamma", "shape": [32], "dtype": "float32"}, {"name": "364/beta", "shape": [32], "dtype": "float32"}, {"name": "364/moving_mean", "shape": [32], "dtype": "float32"}, {"name": "364/moving_variance", "shape": [32], "dtype": "float32"}, {"name": "366/kernel", "shape": [1, 1, 32, 192], "dtype": "float32"}, {"name": "367/gamma", "shape": [192], "dtype": "float32"}, {"name": "367/beta", "shape": [192], "dtype": "float32"}, {"name": "367/moving_mean", "shape": [192], "dtype": "float32"}, {"name": "367/moving_variance", "shape": [192], "dtype": "float32"}, {"name": "369/depthwise_kernel", "shape": [3, 3, 192, 1], "dtype": "float32"}, {"name": "370/gamma", "shape": [192], "dtype": "float32"}, {"name": "370/beta", "shape": [192], "dtype": "float32"}, {"name": "370/moving_mean", "shape": [192], "dtype": "float32"}, {"name": "370/moving_variance", "shape": [192], "dtype": "float32"}, {"name": "372/kernel", "shape": [1, 1, 192, 64], "dtype": "float32"}, {"name": "373/gamma", "shape": [64], "dtype": "float32"}, {"name": "373/beta", "shape": [64], "dtype": "float32"}, {"name": "373/moving_mean", "shape": [64], "dtype": "float32"}, {"name": "373/moving_variance", "shape": [64], "dtype": "float32"}, {"name": "374/kernel", "shape": [1, 1, 64, 384], "dtype": "float32"}, {"name": "375/gamma", "shape": [384], "dtype": "float32"}, {"name": "375/beta", "shape": [384], "dtype": "float32"}, {"name": "375/moving_mean", "shape": [384], "dtype": "float32"}, {"name": "375/moving_variance", "shape": [384], "dtype": "float32"}, {"name": "377/depthwise_kernel", "shape": [3, 3, 384, 1], "dtype": "float32"}, {"name": "378/gamma", "shape": [384], "dtype": "float32"}, {"name": "378/beta", "shape": [384], "dtype": "float32"}, {"name": "378/moving_mean", "shape": [384], "dtype": "float32"}, {"name": "378/moving_variance", "shape": [384], "dtype": "float32"}, {"name": "380/kernel", "shape": [1, 1, 384, 64], "dtype": "float32"}, {"name": "381/gamma", "shape": [64], "dtype": "float32"}, {"name": "381/beta", "shape": [64], "dtype": "float32"}, {"name": "381/moving_mean", "shape": [64], "dtype": "float32"}, {"name": "381/moving_variance", "shape": [64], "dtype": "float32"}, {"name": "383/kernel", "shape": [1, 1, 64, 384], "dtype": "float32"}, {"name": "384/gamma", "shape": [384], "dtype": "float32"}, {"name": "384/beta", "shape": [384], "dtype": "float32"}, {"name": "384/moving_mean", "shape": [384], "dtype": "float32"}, {"name": "384/moving_variance", "shape": [384], "dtype": "float32"}, {"name": "386/depthwise_kernel", "shape": [3, 3, 384, 1], "dtype": "float32"}, {"name": "387/gamma", "shape": [384], "dtype": "float32"}, {"name": "387/beta", "shape": [384], "dtype": "float32"}, {"name": "387/moving_mean", "shape": [384], "dtype": "float32"}, {"name": "387/moving_variance", "shape": [384], "dtype": "float32"}, {"name": "389/kernel", "shape": [1, 1, 384, 64], "dtype": "float32"}, {"name": "390/gamma", "shape": [64], "dtype": "float32"}, {"name": "390/beta", "shape": [64], "dtype": "float32"}, {"name": "390/moving_mean", "shape": [64], "dtype": "float32"}, {"name": "390/moving_variance", "shape": [64], "dtype": "float32"}, {"name": "392/kernel", "shape": [1, 1, 64, 384], "dtype": "float32"}, {"name": "393/gamma", "shape": [384], "dtype": "float32"}, {"name": "393/beta", "shape": [384], "dtype": "float32"}, {"name": "393/moving_mean", "shape": [384], "dtype": "float32"}, {"name": "393/moving_variance", "shape": [384], "dtype": "float32"}, {"name": "395/depthwise_kernel", "shape": [3, 3, 384, 1], "dtype": "float32"}, {"name": "396/gamma", "shape": [384], "dtype": "float32"}, {"name": "396/beta", "shape": [384], "dtype": "float32"}, {"name": "396/moving_mean", "shape": [384], "dtype": "float32"}, {"name": "396/moving_variance", "shape": [384], "dtype": "float32"}, {"name": "398/kernel", "shape": [1, 1, 384, 64], "dtype": "float32"}, {"name": "399/gamma", "shape": [64], "dtype": "float32"}, {"name": "399/beta", "shape": [64], "dtype": "float32"}, {"name": "399/moving_mean", "shape": [64], "dtype": "float32"}, {"name": "399/moving_variance", "shape": [64], "dtype": "float32"}, {"name": "401/kernel", "shape": [1, 1, 64, 384], "dtype": "float32"}, {"name": "402/gamma", "shape": [384], "dtype": "float32"}, {"name": "402/beta", "shape": [384], "dtype": "float32"}, {"name": "402/moving_mean", "shape": [384], "dtype": "float32"}, {"name": "402/moving_variance", "shape": [384], "dtype": "float32"}, {"name": "404/depthwise_kernel", "shape": [3, 3, 384, 1], "dtype": "float32"}, {"name": "405/gamma", "shape": [384], "dtype": "float32"}, {"name": "405/beta", "shape": [384], "dtype": "float32"}, {"name": "405/moving_mean", "shape": [384], "dtype": "float32"}, {"name": "405/moving_variance", "shape": [384], "dtype": "float32"}, {"name": "407/kernel", "shape": [1, 1, 384, 96], "dtype": "float32"}, {"name": "408/gamma", "shape": [96], "dtype": "float32"}, {"name": "408/beta", "shape": [96], "dtype": "float32"}, {"name": "408/moving_mean", "shape": [96], "dtype": "float32"}, {"name": "408/moving_variance", "shape": [96], "dtype": "float32"}, {"name": "409/kernel", "shape": [1, 1, 96, 576], "dtype": "float32"}, {"name": "410/gamma", "shape": [576], "dtype": "float32"}, {"name": "410/beta", "shape": [576], "dtype": "float32"}, {"name": "410/moving_mean", "shape": [576], "dtype": "float32"}, {"name": "410/moving_variance", "shape": [576], "dtype": "float32"}, {"name": "412/depthwise_kernel", "shape": [3, 3, 576, 1], "dtype": "float32"}, {"name": "413/gamma", "shape": [576], "dtype": "float32"}, {"name": "413/beta", "shape": [576], "dtype": "float32"}, {"name": "413/moving_mean", "shape": [576], "dtype": "float32"}, {"name": "413/moving_variance", "shape": [576], "dtype": "float32"}, {"name": "415/kernel", "shape": [1, 1, 576, 96], "dtype": "float32"}, {"name": "416/gamma", "shape": [96], "dtype": "float32"}, {"name": "416/beta", "shape": [96], "dtype": "float32"}, {"name": "416/moving_mean", "shape": [96], "dtype": "float32"}, {"name": "416/moving_variance", "shape": [96], "dtype": "float32"}, {"name": "418/kernel", "shape": [1, 1, 96, 576], "dtype": "float32"}, {"name": "419/gamma", "shape": [576], "dtype": "float32"}, {"name": "419/beta", "shape": [576], "dtype": "float32"}, {"name": "419/moving_mean", "shape": [576], "dtype": "float32"}, {"name": "419/moving_variance", "shape": [576], "dtype": "float32"}, {"name": "421/depthwise_kernel", "shape": [3, 3, 576, 1], "dtype": "float32"}, {"name": "422/gamma", "shape": [576], "dtype": "float32"}, {"name": "422/beta", "shape": [576], "dtype": "float32"}, {"name": "422/moving_mean", "shape": [576], "dtype": "float32"}, {"name": "422/moving_variance", "shape": [576], "dtype": "float32"}, {"name": "424/kernel", "shape": [1, 1, 576, 96], "dtype": "float32"}, {"name": "425/gamma", "shape": [96], "dtype": "float32"}, {"name": "425/beta", "shape": [96], "dtype": "float32"}, {"name": "425/moving_mean", "shape": [96], "dtype": "float32"}, {"name": "425/moving_variance", "shape": [96], "dtype": "float32"}, {"name": "427/kernel", "shape": [1, 1, 96, 576], "dtype": "float32"}, {"name": "428/gamma", "shape": [576], "dtype": "float32"}, {"name": "428/beta", "shape": [576], "dtype": "float32"}, {"name": "428/moving_mean", "shape": [576], "dtype": "float32"}, {"name": "428/moving_variance", "shape": [576], "dtype": "float32"}, {"name": "430/depthwise_kernel", "shape": [3, 3, 576, 1], "dtype": "float32"}, {"name": "431/gamma", "shape": [576], "dtype": "float32"}, {"name": "431/beta", "shape": [576], "dtype": "float32"}, {"name": "431/moving_mean", "shape": [576], "dtype": "float32"}, {"name": "431/moving_variance", "shape": [576], "dtype": "float32"}, {"name": "433/kernel", "shape": [1, 1, 576, 160], "dtype": "float32"}, {"name": "434/gamma", "shape": [160], "dtype": "float32"}, {"name": "434/beta", "shape": [160], "dtype": "float32"}, {"name": "434/moving_mean", "shape": [160], "dtype": "float32"}, {"name": "434/moving_variance", "shape": [160], "dtype": "float32"}, {"name": "435/kernel", "shape": [1, 1, 160, 960], "dtype": "float32"}, {"name": "436/gamma", "shape": [960], "dtype": "float32"}, {"name": "436/beta", "shape": [960], "dtype": "float32"}, {"name": "436/moving_mean", "shape": [960], "dtype": "float32"}, {"name": "436/moving_variance", "shape": [960], "dtype": "float32"}, {"name": "438/depthwise_kernel", "shape": [3, 3, 960, 1], "dtype": "float32"}, {"name": "439/gamma", "shape": [960], "dtype": "float32"}, {"name": "439/beta", "shape": [960], "dtype": "float32"}, {"name": "439/moving_mean", "shape": [960], "dtype": "float32"}, {"name": "439/moving_variance", "shape": [960], "dtype": "float32"}, {"name": "441/kernel", "shape": [1, 1, 960, 160], "dtype": "float32"}, {"name": "442/gamma", "shape": [160], "dtype": "float32"}, {"name": "442/beta", "shape": [160], "dtype": "float32"}, {"name": "442/moving_mean", "shape": [160], "dtype": "float32"}, {"name": "442/moving_variance", "shape": [160], "dtype": "float32"}, {"name": "444/kernel", "shape": [1, 1, 160, 960], "dtype": "float32"}, {"name": "445/gamma", "shape": [960], "dtype": "float32"}, {"name": "445/beta", "shape": [960], "dtype": "float32"}, {"name": "445/moving_mean", "shape": [960], "dtype": "float32"}, {"name": "445/moving_variance", "shape": [960], "dtype": "float32"}, {"name": "447/depthwise_kernel", "shape": [3, 3, 960, 1], "dtype": "float32"}, {"name": "448/gamma", "shape": [960], "dtype": "float32"}, {"name": "448/beta", "shape": [960], "dtype": "float32"}, {"name": "448/moving_mean", "shape": [960], "dtype": "float32"}, {"name": "448/moving_variance", "shape": [960], "dtype": "float32"}, {"name": "450/kernel", "shape": [1, 1, 960, 160], "dtype": "float32"}, {"name": "451/gamma", "shape": [160], "dtype": "float32"}, {"name": "451/beta", "shape": [160], "dtype": "float32"}, {"name": "451/moving_mean", "shape": [160], "dtype": "float32"}, {"name": "451/moving_variance", "shape": [160], "dtype": "float32"}, {"name": "453/kernel", "shape": [1, 1, 160, 960], "dtype": "float32"}, {"name": "454/gamma", "shape": [960], "dtype": "float32"}, {"name": "454/beta", "shape": [960], "dtype": "float32"}, {"name": "454/moving_mean", "shape": [960], "dtype": "float32"}, {"name": "454/moving_variance", "shape": [960], "dtype": "float32"}, {"name": "456/depthwise_kernel", "shape": [3, 3, 960, 1], "dtype": "float32"}, {"name": "457/gamma", "shape": [960], "dtype": "float32"}, {"name": "457/beta", "shape": [960], "dtype": "float32"}, {"name": "457/moving_mean", "shape": [960], "dtype": "float32"}, {"name": "457/moving_variance", "shape": [960], "dtype": "float32"}, {"name": "459/kernel", "shape": [1, 1, 960, 320], "dtype": "float32"}, {"name": "output_0/gamma", "shape": [16], "dtype": "float32"}, {"name": "output_0/beta", "shape": [16], "dtype": "float32"}, {"name": "output_0/moving_mean", "shape": [16], "dtype": "float32"}, {"name": "output_0/moving_variance", "shape": [16], "dtype": "float32"}, {"name": "output_4/gamma", "shape": [320], "dtype": "float32"}, {"name": "output_4/beta", "shape": [320], "dtype": "float32"}, {"name": "output_4/moving_mean", "shape": [320], "dtype": "float32"}, {"name": "output_4/moving_variance", "shape": [320], "dtype": "float32"}]}]}
