{"format": "layers-model", "generatedBy": "keras v2.2.4-tf", "convertedBy": "TensorFlow.js Converter v1.4.0", "modelTopology": {"keras_version": "2.2.4-tf", "backend": "tensorflow", "model_config": {"class_name": "Model", "config": {"name": "model", "layers": [{"name": "input_0", "class_name": "InputLayer", "config": {"batch_input_shape": [null, 3, 224, 384], "dtype": "float32", "sparse": false, "ragged": false, "name": "input_0"}, "inbound_nodes": []}, {"name": "339_pad", "class_name": "ZeroPadding2D", "config": {"name": "339_pad", "trainable": true, "dtype": "float32", "padding": [[3, 3], [3, 3]], "data_format": "channels_first"}, "inbound_nodes": [[["input_0", 0, 0, {}]]]}, {"name": "339", "class_name": "Conv2D", "config": {"name": "339", "trainable": true, "dtype": "float32", "filters": 64, "kernel_size": [7, 7], "strides": [2, 2], "padding": "valid", "data_format": "channels_first", "dilation_rate": [1, 1], "activation": "linear", "use_bias": false, "kernel_initializer": {"class_name": "Zeros", "config": {"dtype": "float32"}}, "bias_initializer": {"class_name": "Zeros", "config": {"dtype": "float32"}}, "kernel_regularizer": null, "bias_regularizer": null, "activity_regularizer": null, "kernel_constraint": null, "bias_constraint": null}, "inbound_nodes": [[["339_pad", 0, 0, {}]]]}, {"name": "340", "class_name": "BatchNormalization", "config": {"name": "340", "trainable": true, "dtype": "float32", "axis": [1], "momentum": 0.8999999761581421, "epsilon": 9.999999747378752e-06, "center": true, "scale": true, "beta_initializer": {"class_name": "Zeros", "config": {"dtype": "float32"}}, "gamma_initializer": {"class_name": "Ones", "config": {"dtype": "float32"}}, "moving_mean_initializer": {"class_name": "Zeros", "config": {"dtype": "float32"}}, "moving_variance_initializer": {"class_name": "Ones", "config": {"dtype": "float32"}}, "beta_regularizer": null, "gamma_regularizer": null, "beta_constraint": null, "gamma_constraint": null}, "inbound_nodes": [[["339", 0, 0, {}]]]}, {"name": "341", "class_name": "Activation", "config": {"name": "341", "trainable": true, "dtype": "float32", "activation": "relu"}, "inbound_nodes": [[["340", 0, 0, {}]]]}, {"name": "342_pad", "class_name": "ZeroPadding2D", "config": {"name": "342_pad", "trainable": true, "dtype": "float32", "padding": [[1, 1], [1, 1]], "data_format": "channels_first"}, "inbound_nodes": [[["341", 0, 0, {}]]]}, {"name": "342", "class_name": "MaxPooling2D", "config": {"name": "342", "trainable": true, "dtype": "float32", "pool_size": [3, 3], "padding": "valid", "strides": [2, 2], "data_format": "channels_first"}, "inbound_nodes": [[["342_pad", 0, 0, {}]]]}, {"name": "343", "class_name": "Conv2D", "config": {"name": "343", "trainable": true, "dtype": "float32", "filters": 64, "kernel_size": [1, 1], "strides": [1, 1], "padding": "valid", "data_format": "channels_first", "dilation_rate": [1, 1], "activation": "linear", "use_bias": false, "kernel_initializer": {"class_name": "Zeros", "config": {"dtype": "float32"}}, "bias_initializer": {"class_name": "Zeros", "config": {"dtype": "float32"}}, "kernel_regularizer": null, "bias_regularizer": null, "activity_regularizer": null, "kernel_constraint": null, "bias_constraint": null}, "inbound_nodes": [[["342", 0, 0, {}]]]}, {"name": "344", "class_name": "BatchNormalization", "config": {"name": "344", "trainable": true, "dtype": "float32", "axis": [1], "momentum": 0.8999999761581421, "epsilon": 9.999999747378752e-06, "center": true, "scale": true, "beta_initializer": {"class_name": "Zeros", "config": {"dtype": "float32"}}, "gamma_initializer": {"class_name": "Ones", "config": {"dtype": "float32"}}, "moving_mean_initializer": {"class_name": "Zeros", "config": {"dtype": "float32"}}, "moving_variance_initializer": {"class_name": "Ones", "config": {"dtype": "float32"}}, "beta_regularizer": null, "gamma_regularizer": null, "beta_constraint": null, "gamma_constraint": null}, "inbound_nodes": [[["343", 0, 0, {}]]]}, {"name": "345", "class_name": "Activation", "config": {"name": "345", "trainable": true, "dtype": "float32", "activation": "relu"}, "inbound_nodes": [[["344", 0, 0, {}]]]}, {"name": "346_pad", "class_name": "ZeroPadding2D", "config": {"name": "346_pad", "trainable": true, "dtype": "float32", "padding": [[1, 1], [1, 1]], "data_format": "channels_first"}, "inbound_nodes": [[["345", 0, 0, {}]]]}, {"name": "346", "class_name": "Conv2D", "config": {"name": "346", "trainable": true, "dtype": "float32", "filters": 64, "kernel_size": [3, 3], "strides": [1, 1], "padding": "valid", "data_format": "channels_first", "dilation_rate": [1, 1], "activation": "linear", "use_bias": false, "kernel_initializer": {"class_name": "Zeros", "config": {"dtype": "float32"}}, "bias_initializer": {"class_name": "Zeros", "config": {"dtype": "float32"}}, "kernel_regularizer": null, "bias_regularizer": null, "activity_regularizer": null, "kernel_constraint": null, "bias_constraint": null}, "inbound_nodes": [[["346_pad", 0, 0, {}]]]}, {"name": "347", "class_name": "BatchNormalization", "config": {"name": "347", "trainable": true, "dtype": "float32", "axis": [1], "momentum": 0.8999999761581421, "epsilon": 9.999999747378752e-06, "center": true, "scale": true, "beta_initializer": {"class_name": "Zeros", "config": {"dtype": "float32"}}, "gamma_initializer": {"class_name": "Ones", "config": {"dtype": "float32"}}, "moving_mean_initializer": {"class_name": "Zeros", "config": {"dtype": "float32"}}, "moving_variance_initializer": {"class_name": "Ones", "config": {"dtype": "float32"}}, "beta_regularizer": null, "gamma_regularizer": null, "beta_constraint": null, "gamma_constraint": null}, "inbound_nodes": [[["346", 0, 0, {}]]]}, {"name": "348", "class_name": "Activation", "config": {"name": "348", "trainable": true, "dtype": "float32", "activation": "relu"}, "inbound_nodes": [[["347", 0, 0, {}]]]}, {"name": "349", "class_name": "Conv2D", "config": {"name": "349", "trainable": true, "dtype": "float32", "filters": 256, "kernel_size": [1, 1], "strides": [1, 1], "padding": "valid", "data_format": "channels_first", "dilation_rate": [1, 1], "activation": "linear", "use_bias": false, "kernel_initializer": {"class_name": "Zeros", "config": {"dtype": "float32"}}, "bias_initializer": {"class_name": "Zeros", "config": {"dtype": "float32"}}, "kernel_regularizer": null, "bias_regularizer": null, "activity_regularizer": null, "kernel_constraint": null, "bias_constraint": null}, "inbound_nodes": [[["348", 0, 0, {}]]]}, {"name": "351", "class_name": "Conv2D", "config": {"name": "351", "trainable": true, "dtype": "float32", "filters": 256, "kernel_size": [1, 1], "strides": [1, 1], "padding": "valid", "data_format": "channels_first", "dilation_rate": [1, 1], "activation": "linear", "use_bias": false, "kernel_initializer": {"class_name": "Zeros", "config": {"dtype": "float32"}}, "bias_initializer": {"class_name": "Zeros", "config": {"dtype": "float32"}}, "kernel_regularizer": null, "bias_regularizer": null, "activity_regularizer": null, "kernel_constraint": null, "bias_constraint": null}, "inbound_nodes": [[["342", 0, 0, {}]]]}, {"name": "350", "class_name": "BatchNormalization", "config": {"name": "350", "trainable": true, "dtype": "float32", "axis": [1], "momentum": 0.8999999761581421, "epsilon": 9.999999747378752e-06, "center": true, "scale": true, "beta_initializer": {"class_name": "Zeros", "config": {"dtype": "float32"}}, "gamma_initializer": {"class_name": "Ones", "config": {"dtype": "float32"}}, "moving_mean_initializer": {"class_name": "Zeros", "config": {"dtype": "float32"}}, "moving_variance_initializer": {"class_name": "Ones", "config": {"dtype": "float32"}}, "beta_regularizer": null, "gamma_regularizer": null, "beta_constraint": null, "gamma_constraint": null}, "inbound_nodes": [[["349", 0, 0, {}]]]}, {"name": "352", "class_name": "BatchNormalization", "config": {"name": "352", "trainable": true, "dtype": "float32", "axis": [1], "momentum": 0.8999999761581421, "epsilon": 9.999999747378752e-06, "center": true, "scale": true, "beta_initializer": {"class_name": "Zeros", "config": {"dtype": "float32"}}, "gamma_initializer": {"class_name": "Ones", "config": {"dtype": "float32"}}, "moving_mean_initializer": {"class_name": "Zeros", "config": {"dtype": "float32"}}, "moving_variance_initializer": {"class_name": "Ones", "config": {"dtype": "float32"}}, "beta_regularizer": null, "gamma_regularizer": null, "beta_constraint": null, "gamma_constraint": null}, "inbound_nodes": [[["351", 0, 0, {}]]]}, {"name": "353", "class_name": "Add", "config": {"name": "353", "trainable": true, "dtype": "float32"}, "inbound_nodes": [[["350", 0, 0, {}], ["352", 0, 0, {}]]]}, {"name": "354", "class_name": "Activation", "config": {"name": "354", "trainable": true, "dtype": "float32", "activation": "relu"}, "inbound_nodes": [[["353", 0, 0, {}]]]}, {"name": "355", "class_name": "Conv2D", "config": {"name": "355", "trainable": true, "dtype": "float32", "filters": 64, "kernel_size": [1, 1], "strides": [1, 1], "padding": "valid", "data_format": "channels_first", "dilation_rate": [1, 1], "activation": "linear", "use_bias": false, "kernel_initializer": {"class_name": "Zeros", "config": {"dtype": "float32"}}, "bias_initializer": {"class_name": "Zeros", "config": {"dtype": "float32"}}, "kernel_regularizer": null, "bias_regularizer": null, "activity_regularizer": null, "kernel_constraint": null, "bias_constraint": null}, "inbound_nodes": [[["354", 0, 0, {}]]]}, {"name": "356", "class_name": "BatchNormalization", "config": {"name": "356", "trainable": true, "dtype": "float32", "axis": [1], "momentum": 0.8999999761581421, "epsilon": 9.999999747378752e-06, "center": true, "scale": true, "beta_initializer": {"class_name": "Zeros", "config": {"dtype": "float32"}}, "gamma_initializer": {"class_name": "Ones", "config": {"dtype": "float32"}}, "moving_mean_initializer": {"class_name": "Zeros", "config": {"dtype": "float32"}}, "moving_variance_initializer": {"class_name": "Ones", "config": {"dtype": "float32"}}, "beta_regularizer": null, "gamma_regularizer": null, "beta_constraint": null, "gamma_constraint": null}, "inbound_nodes": [[["355", 0, 0, {}]]]}, {"name": "357", "class_name": "Activation", "config": {"name": "357", "trainable": true, "dtype": "float32", "activation": "relu"}, "inbound_nodes": [[["356", 0, 0, {}]]]}, {"name": "358_pad", "class_name": "ZeroPadding2D", "config": {"name": "358_pad", "trainable": true, "dtype": "float32", "padding": [[1, 1], [1, 1]], "data_format": "channels_first"}, "inbound_nodes": [[["357", 0, 0, {}]]]}, {"name": "358", "class_name": "Conv2D", "config": {"name": "358", "trainable": true, "dtype": "float32", "filters": 64, "kernel_size": [3, 3], "strides": [1, 1], "padding": "valid", "data_format": "channels_first", "dilation_rate": [1, 1], "activation": "linear", "use_bias": false, "kernel_initializer": {"class_name": "Zeros", "config": {"dtype": "float32"}}, "bias_initializer": {"class_name": "Zeros", "config": {"dtype": "float32"}}, "kernel_regularizer": null, "bias_regularizer": null, "activity_regularizer": null, "kernel_constraint": null, "bias_constraint": null}, "inbound_nodes": [[["358_pad", 0, 0, {}]]]}, {"name": "359", "class_name": "BatchNormalization", "config": {"name": "359", "trainable": true, "dtype": "float32", "axis": [1], "momentum": 0.8999999761581421, "epsilon": 9.999999747378752e-06, "center": true, "scale": true, "beta_initializer": {"class_name": "Zeros", "config": {"dtype": "float32"}}, "gamma_initializer": {"class_name": "Ones", "config": {"dtype": "float32"}}, "moving_mean_initializer": {"class_name": "Zeros", "config": {"dtype": "float32"}}, "moving_variance_initializer": {"class_name": "Ones", "config": {"dtype": "float32"}}, "beta_regularizer": null, "gamma_regularizer": null, "beta_constraint": null, "gamma_constraint": null}, "inbound_nodes": [[["358", 0, 0, {}]]]}, {"name": "360", "class_name": "Activation", "config": {"name": "360", "trainable": true, "dtype": "float32", "activation": "relu"}, "inbound_nodes": [[["359", 0, 0, {}]]]}, {"name": "361", "class_name": "Conv2D", "config": {"name": "361", "trainable": true, "dtype": "float32", "filters": 256, "kernel_size": [1, 1], "strides": [1, 1], "padding": "valid", "data_format": "channels_first", "dilation_rate": [1, 1], "activation": "linear", "use_bias": false, "kernel_initializer": {"class_name": "Zeros", "config": {"dtype": "float32"}}, "bias_initializer": {"class_name": "Zeros", "config": {"dtype": "float32"}}, "kernel_regularizer": null, "bias_regularizer": null, "activity_regularizer": null, "kernel_constraint": null, "bias_constraint": null}, "inbound_nodes": [[["360", 0, 0, {}]]]}, {"name": "362", "class_name": "BatchNormalization", "config": {"name": "362", "trainable": true, "dtype": "float32", "axis": [1], "momentum": 0.8999999761581421, "epsilon": 9.999999747378752e-06, "center": true, "scale": true, "beta_initializer": {"class_name": "Zeros", "config": {"dtype": "float32"}}, "gamma_initializer": {"class_name": "Ones", "config": {"dtype": "float32"}}, "moving_mean_initializer": {"class_name": "Zeros", "config": {"dtype": "float32"}}, "moving_variance_initializer": {"class_name": "Ones", "config": {"dtype": "float32"}}, "beta_regularizer": null, "gamma_regularizer": null, "beta_constraint": null, "gamma_constraint": null}, "inbound_nodes": [[["361", 0, 0, {}]]]}, {"name": "363", "class_name": "Add", "config": {"name": "363", "trainable": true, "dtype": "float32"}, "inbound_nodes": [[["362", 0, 0, {}], ["354", 0, 0, {}]]]}, {"name": "364", "class_name": "Activation", "config": {"name": "364", "trainable": true, "dtype": "float32", "activation": "relu"}, "inbound_nodes": [[["363", 0, 0, {}]]]}, {"name": "365", "class_name": "Conv2D", "config": {"name": "365", "trainable": true, "dtype": "float32", "filters": 64, "kernel_size": [1, 1], "strides": [1, 1], "padding": "valid", "data_format": "channels_first", "dilation_rate": [1, 1], "activation": "linear", "use_bias": false, "kernel_initializer": {"class_name": "Zeros", "config": {"dtype": "float32"}}, "bias_initializer": {"class_name": "Zeros", "config": {"dtype": "float32"}}, "kernel_regularizer": null, "bias_regularizer": null, "activity_regularizer": null, "kernel_constraint": null, "bias_constraint": null}, "inbound_nodes": [[["364", 0, 0, {}]]]}, {"name": "366", "class_name": "BatchNormalization", "config": {"name": "366", "trainable": true, "dtype": "float32", "axis": [1], "momentum": 0.8999999761581421, "epsilon": 9.999999747378752e-06, "center": true, "scale": true, "beta_initializer": {"class_name": "Zeros", "config": {"dtype": "float32"}}, "gamma_initializer": {"class_name": "Ones", "config": {"dtype": "float32"}}, "moving_mean_initializer": {"class_name": "Zeros", "config": {"dtype": "float32"}}, "moving_variance_initializer": {"class_name": "Ones", "config": {"dtype": "float32"}}, "beta_regularizer": null, "gamma_regularizer": null, "beta_constraint": null, "gamma_constraint": null}, "inbound_nodes": [[["365", 0, 0, {}]]]}, {"name": "367", "class_name": "Activation", "config": {"name": "367", "trainable": true, "dtype": "float32", "activation": "relu"}, "inbound_nodes": [[["366", 0, 0, {}]]]}, {"name": "368_pad", "class_name": "ZeroPadding2D", "config": {"name": "368_pad", "trainable": true, "dtype": "float32", "padding": [[1, 1], [1, 1]], "data_format": "channels_first"}, "inbound_nodes": [[["367", 0, 0, {}]]]}, {"name": "368", "class_name": "Conv2D", "config": {"name": "368", "trainable": true, "dtype": "float32", "filters": 64, "kernel_size": [3, 3], "strides": [1, 1], "padding": "valid", "data_format": "channels_first", "dilation_rate": [1, 1], "activation": "linear", "use_bias": false, "kernel_initializer": {"class_name": "Zeros", "config": {"dtype": "float32"}}, "bias_initializer": {"class_name": "Zeros", "config": {"dtype": "float32"}}, "kernel_regularizer": null, "bias_regularizer": null, "activity_regularizer": null, "kernel_constraint": null, "bias_constraint": null}, "inbound_nodes": [[["368_pad", 0, 0, {}]]]}, {"name": "369", "class_name": "BatchNormalization", "config": {"name": "369", "trainable": true, "dtype": "float32", "axis": [1], "momentum": 0.8999999761581421, "epsilon": 9.999999747378752e-06, "center": true, "scale": true, "beta_initializer": {"class_name": "Zeros", "config": {"dtype": "float32"}}, "gamma_initializer": {"class_name": "Ones", "config": {"dtype": "float32"}}, "moving_mean_initializer": {"class_name": "Zeros", "config": {"dtype": "float32"}}, "moving_variance_initializer": {"class_name": "Ones", "config": {"dtype": "float32"}}, "beta_regularizer": null, "gamma_regularizer": null, "beta_constraint": null, "gamma_constraint": null}, "inbound_nodes": [[["368", 0, 0, {}]]]}, {"name": "370", "class_name": "Activation", "config": {"name": "370", "trainable": true, "dtype": "float32", "activation": "relu"}, "inbound_nodes": [[["369", 0, 0, {}]]]}, {"name": "371", "class_name": "Conv2D", "config": {"name": "371", "trainable": true, "dtype": "float32", "filters": 256, "kernel_size": [1, 1], "strides": [1, 1], "padding": "valid", "data_format": "channels_first", "dilation_rate": [1, 1], "activation": "linear", "use_bias": false, "kernel_initializer": {"class_name": "Zeros", "config": {"dtype": "float32"}}, "bias_initializer": {"class_name": "Zeros", "config": {"dtype": "float32"}}, "kernel_regularizer": null, "bias_regularizer": null, "activity_regularizer": null, "kernel_constraint": null, "bias_constraint": null}, "inbound_nodes": [[["370", 0, 0, {}]]]}, {"name": "372", "class_name": "BatchNormalization", "config": {"name": "372", "trainable": true, "dtype": "float32", "axis": [1], "momentum": 0.8999999761581421, "epsilon": 9.999999747378752e-06, "center": true, "scale": true, "beta_initializer": {"class_name": "Zeros", "config": {"dtype": "float32"}}, "gamma_initializer": {"class_name": "Ones", "config": {"dtype": "float32"}}, "moving_mean_initializer": {"class_name": "Zeros", "config": {"dtype": "float32"}}, "moving_variance_initializer": {"class_name": "Ones", "config": {"dtype": "float32"}}, "beta_regularizer": null, "gamma_regularizer": null, "beta_constraint": null, "gamma_constraint": null}, "inbound_nodes": [[["371", 0, 0, {}]]]}, {"name": "373", "class_name": "Add", "config": {"name": "373", "trainable": true, "dtype": "float32"}, "inbound_nodes": [[["372", 0, 0, {}], ["364", 0, 0, {}]]]}, {"name": "374", "class_name": "Activation", "config": {"name": "374", "trainable": true, "dtype": "float32", "activation": "relu"}, "inbound_nodes": [[["373", 0, 0, {}]]]}, {"name": "375", "class_name": "Conv2D", "config": {"name": "375", "trainable": true, "dtype": "float32", "filters": 128, "kernel_size": [1, 1], "strides": [1, 1], "padding": "valid", "data_format": "channels_first", "dilation_rate": [1, 1], "activation": "linear", "use_bias": false, "kernel_initializer": {"class_name": "Zeros", "config": {"dtype": "float32"}}, "bias_initializer": {"class_name": "Zeros", "config": {"dtype": "float32"}}, "kernel_regularizer": null, "bias_regularizer": null, "activity_regularizer": null, "kernel_constraint": null, "bias_constraint": null}, "inbound_nodes": [[["374", 0, 0, {}]]]}, {"name": "376", "class_name": "BatchNormalization", "config": {"name": "376", "trainable": true, "dtype": "float32", "axis": [1], "momentum": 0.8999999761581421, "epsilon": 9.999999747378752e-06, "center": true, "scale": true, "beta_initializer": {"class_name": "Zeros", "config": {"dtype": "float32"}}, "gamma_initializer": {"class_name": "Ones", "config": {"dtype": "float32"}}, "moving_mean_initializer": {"class_name": "Zeros", "config": {"dtype": "float32"}}, "moving_variance_initializer": {"class_name": "Ones", "config": {"dtype": "float32"}}, "beta_regularizer": null, "gamma_regularizer": null, "beta_constraint": null, "gamma_constraint": null}, "inbound_nodes": [[["375", 0, 0, {}]]]}, {"name": "377", "class_name": "Activation", "config": {"name": "377", "trainable": true, "dtype": "float32", "activation": "relu"}, "inbound_nodes": [[["376", 0, 0, {}]]]}, {"name": "378_pad", "class_name": "ZeroPadding2D", "config": {"name": "378_pad", "trainable": true, "dtype": "float32", "padding": [[1, 1], [1, 1]], "data_format": "channels_first"}, "inbound_nodes": [[["377", 0, 0, {}]]]}, {"name": "378", "class_name": "Conv2D", "config": {"name": "378", "trainable": true, "dtype": "float32", "filters": 128, "kernel_size": [3, 3], "strides": [2, 2], "padding": "valid", "data_format": "channels_first", "dilation_rate": [1, 1], "activation": "linear", "use_bias": false, "kernel_initializer": {"class_name": "Zeros", "config": {"dtype": "float32"}}, "bias_initializer": {"class_name": "Zeros", "config": {"dtype": "float32"}}, "kernel_regularizer": null, "bias_regularizer": null, "activity_regularizer": null, "kernel_constraint": null, "bias_constraint": null}, "inbound_nodes": [[["378_pad", 0, 0, {}]]]}, {"name": "379", "class_name": "BatchNormalization", "config": {"name": "379", "trainable": true, "dtype": "float32", "axis": [1], "momentum": 0.8999999761581421, "epsilon": 9.999999747378752e-06, "center": true, "scale": true, "beta_initializer": {"class_name": "Zeros", "config": {"dtype": "float32"}}, "gamma_initializer": {"class_name": "Ones", "config": {"dtype": "float32"}}, "moving_mean_initializer": {"class_name": "Zeros", "config": {"dtype": "float32"}}, "moving_variance_initializer": {"class_name": "Ones", "config": {"dtype": "float32"}}, "beta_regularizer": null, "gamma_regularizer": null, "beta_constraint": null, "gamma_constraint": null}, "inbound_nodes": [[["378", 0, 0, {}]]]}, {"name": "380", "class_name": "Activation", "config": {"name": "380", "trainable": true, "dtype": "float32", "activation": "relu"}, "inbound_nodes": [[["379", 0, 0, {}]]]}, {"name": "381", "class_name": "Conv2D", "config": {"name": "381", "trainable": true, "dtype": "float32", "filters": 512, "kernel_size": [1, 1], "strides": [1, 1], "padding": "valid", "data_format": "channels_first", "dilation_rate": [1, 1], "activation": "linear", "use_bias": false, "kernel_initializer": {"class_name": "Zeros", "config": {"dtype": "float32"}}, "bias_initializer": {"class_name": "Zeros", "config": {"dtype": "float32"}}, "kernel_regularizer": null, "bias_regularizer": null, "activity_regularizer": null, "kernel_constraint": null, "bias_constraint": null}, "inbound_nodes": [[["380", 0, 0, {}]]]}, {"name": "383", "class_name": "Conv2D", "config": {"name": "383", "trainable": true, "dtype": "float32", "filters": 512, "kernel_size": [1, 1], "strides": [2, 2], "padding": "valid", "data_format": "channels_first", "dilation_rate": [1, 1], "activation": "linear", "use_bias": false, "kernel_initializer": {"class_name": "Zeros", "config": {"dtype": "float32"}}, "bias_initializer": {"class_name": "Zeros", "config": {"dtype": "float32"}}, "kernel_regularizer": null, "bias_regularizer": null, "activity_regularizer": null, "kernel_constraint": null, "bias_constraint": null}, "inbound_nodes": [[["374", 0, 0, {}]]]}, {"name": "382", "class_name": "BatchNormalization", "config": {"name": "382", "trainable": true, "dtype": "float32", "axis": [1], "momentum": 0.8999999761581421, "epsilon": 9.999999747378752e-06, "center": true, "scale": true, "beta_initializer": {"class_name": "Zeros", "config": {"dtype": "float32"}}, "gamma_initializer": {"class_name": "Ones", "config": {"dtype": "float32"}}, "moving_mean_initializer": {"class_name": "Zeros", "config": {"dtype": "float32"}}, "moving_variance_initializer": {"class_name": "Ones", "config": {"dtype": "float32"}}, "beta_regularizer": null, "gamma_regularizer": null, "beta_constraint": null, "gamma_constraint": null}, "inbound_nodes": [[["381", 0, 0, {}]]]}, {"name": "384", "class_name": "BatchNormalization", "config": {"name": "384", "trainable": true, "dtype": "float32", "axis": [1], "momentum": 0.8999999761581421, "epsilon": 9.999999747378752e-06, "center": true, "scale": true, "beta_initializer": {"class_name": "Zeros", "config": {"dtype": "float32"}}, "gamma_initializer": {"class_name": "Ones", "config": {"dtype": "float32"}}, "moving_mean_initializer": {"class_name": "Zeros", "config": {"dtype": "float32"}}, "moving_variance_initializer": {"class_name": "Ones", "config": {"dtype": "float32"}}, "beta_regularizer": null, "gamma_regularizer": null, "beta_constraint": null, "gamma_constraint": null}, "inbound_nodes": [[["383", 0, 0, {}]]]}, {"name": "385", "class_name": "Add", "config": {"name": "385", "trainable": true, "dtype": "float32"}, "inbound_nodes": [[["382", 0, 0, {}], ["384", 0, 0, {}]]]}, {"name": "386", "class_name": "Activation", "config": {"name": "386", "trainable": true, "dtype": "float32", "activation": "relu"}, "inbound_nodes": [[["385", 0, 0, {}]]]}, {"name": "387", "class_name": "Conv2D", "config": {"name": "387", "trainable": true, "dtype": "float32", "filters": 128, "kernel_size": [1, 1], "strides": [1, 1], "padding": "valid", "data_format": "channels_first", "dilation_rate": [1, 1], "activation": "linear", "use_bias": false, "kernel_initializer": {"class_name": "Zeros", "config": {"dtype": "float32"}}, "bias_initializer": {"class_name": "Zeros", "config": {"dtype": "float32"}}, "kernel_regularizer": null, "bias_regularizer": null, "activity_regularizer": null, "kernel_constraint": null, "bias_constraint": null}, "inbound_nodes": [[["386", 0, 0, {}]]]}, {"name": "388", "class_name": "BatchNormalization", "config": {"name": "388", "trainable": true, "dtype": "float32", "axis": [1], "momentum": 0.8999999761581421, "epsilon": 9.999999747378752e-06, "center": true, "scale": true, "beta_initializer": {"class_name": "Zeros", "config": {"dtype": "float32"}}, "gamma_initializer": {"class_name": "Ones", "config": {"dtype": "float32"}}, "moving_mean_initializer": {"class_name": "Zeros", "config": {"dtype": "float32"}}, "moving_variance_initializer": {"class_name": "Ones", "config": {"dtype": "float32"}}, "beta_regularizer": null, "gamma_regularizer": null, "beta_constraint": null, "gamma_constraint": null}, "inbound_nodes": [[["387", 0, 0, {}]]]}, {"name": "389", "class_name": "Activation", "config": {"name": "389", "trainable": true, "dtype": "float32", "activation": "relu"}, "inbound_nodes": [[["388", 0, 0, {}]]]}, {"name": "390_pad", "class_name": "ZeroPadding2D", "config": {"name": "390_pad", "trainable": true, "dtype": "float32", "padding": [[1, 1], [1, 1]], "data_format": "channels_first"}, "inbound_nodes": [[["389", 0, 0, {}]]]}, {"name": "390", "class_name": "Conv2D", "config": {"name": "390", "trainable": true, "dtype": "float32", "filters": 128, "kernel_size": [3, 3], "strides": [1, 1], "padding": "valid", "data_format": "channels_first", "dilation_rate": [1, 1], "activation": "linear", "use_bias": false, "kernel_initializer": {"class_name": "Zeros", "config": {"dtype": "float32"}}, "bias_initializer": {"class_name": "Zeros", "config": {"dtype": "float32"}}, "kernel_regularizer": null, "bias_regularizer": null, "activity_regularizer": null, "kernel_constraint": null, "bias_constraint": null}, "inbound_nodes": [[["390_pad", 0, 0, {}]]]}, {"name": "391", "class_name": "BatchNormalization", "config": {"name": "391", "trainable": true, "dtype": "float32", "axis": [1], "momentum": 0.8999999761581421, "epsilon": 9.999999747378752e-06, "center": true, "scale": true, "beta_initializer": {"class_name": "Zeros", "config": {"dtype": "float32"}}, "gamma_initializer": {"class_name": "Ones", "config": {"dtype": "float32"}}, "moving_mean_initializer": {"class_name": "Zeros", "config": {"dtype": "float32"}}, "moving_variance_initializer": {"class_name": "Ones", "config": {"dtype": "float32"}}, "beta_regularizer": null, "gamma_regularizer": null, "beta_constraint": null, "gamma_constraint": null}, "inbound_nodes": [[["390", 0, 0, {}]]]}, {"name": "392", "class_name": "Activation", "config": {"name": "392", "trainable": true, "dtype": "float32", "activation": "relu"}, "inbound_nodes": [[["391", 0, 0, {}]]]}, {"name": "393", "class_name": "Conv2D", "config": {"name": "393", "trainable": true, "dtype": "float32", "filters": 512, "kernel_size": [1, 1], "strides": [1, 1], "padding": "valid", "data_format": "channels_first", "dilation_rate": [1, 1], "activation": "linear", "use_bias": false, "kernel_initializer": {"class_name": "Zeros", "config": {"dtype": "float32"}}, "bias_initializer": {"class_name": "Zeros", "config": {"dtype": "float32"}}, "kernel_regularizer": null, "bias_regularizer": null, "activity_regularizer": null, "kernel_constraint": null, "bias_constraint": null}, "inbound_nodes": [[["392", 0, 0, {}]]]}, {"name": "394", "class_name": "BatchNormalization", "config": {"name": "394", "trainable": true, "dtype": "float32", "axis": [1], "momentum": 0.8999999761581421, "epsilon": 9.999999747378752e-06, "center": true, "scale": true, "beta_initializer": {"class_name": "Zeros", "config": {"dtype": "float32"}}, "gamma_initializer": {"class_name": "Ones", "config": {"dtype": "float32"}}, "moving_mean_initializer": {"class_name": "Zeros", "config": {"dtype": "float32"}}, "moving_variance_initializer": {"class_name": "Ones", "config": {"dtype": "float32"}}, "beta_regularizer": null, "gamma_regularizer": null, "beta_constraint": null, "gamma_constraint": null}, "inbound_nodes": [[["393", 0, 0, {}]]]}, {"name": "395", "class_name": "Add", "config": {"name": "395", "trainable": true, "dtype": "float32"}, "inbound_nodes": [[["394", 0, 0, {}], ["386", 0, 0, {}]]]}, {"name": "396", "class_name": "Activation", "config": {"name": "396", "trainable": true, "dtype": "float32", "activation": "relu"}, "inbound_nodes": [[["395", 0, 0, {}]]]}, {"name": "397", "class_name": "Conv2D", "config": {"name": "397", "trainable": true, "dtype": "float32", "filters": 128, "kernel_size": [1, 1], "strides": [1, 1], "padding": "valid", "data_format": "channels_first", "dilation_rate": [1, 1], "activation": "linear", "use_bias": false, "kernel_initializer": {"class_name": "Zeros", "config": {"dtype": "float32"}}, "bias_initializer": {"class_name": "Zeros", "config": {"dtype": "float32"}}, "kernel_regularizer": null, "bias_regularizer": null, "activity_regularizer": null, "kernel_constraint": null, "bias_constraint": null}, "inbound_nodes": [[["396", 0, 0, {}]]]}, {"name": "398", "class_name": "BatchNormalization", "config": {"name": "398", "trainable": true, "dtype": "float32", "axis": [1], "momentum": 0.8999999761581421, "epsilon": 9.999999747378752e-06, "center": true, "scale": true, "beta_initializer": {"class_name": "Zeros", "config": {"dtype": "float32"}}, "gamma_initializer": {"class_name": "Ones", "config": {"dtype": "float32"}}, "moving_mean_initializer": {"class_name": "Zeros", "config": {"dtype": "float32"}}, "moving_variance_initializer": {"class_name": "Ones", "config": {"dtype": "float32"}}, "beta_regularizer": null, "gamma_regularizer": null, "beta_constraint": null, "gamma_constraint": null}, "inbound_nodes": [[["397", 0, 0, {}]]]}, {"name": "399", "class_name": "Activation", "config": {"name": "399", "trainable": true, "dtype": "float32", "activation": "relu"}, "inbound_nodes": [[["398", 0, 0, {}]]]}, {"name": "400_pad", "class_name": "ZeroPadding2D", "config": {"name": "400_pad", "trainable": true, "dtype": "float32", "padding": [[1, 1], [1, 1]], "data_format": "channels_first"}, "inbound_nodes": [[["399", 0, 0, {}]]]}, {"name": "400", "class_name": "Conv2D", "config": {"name": "400", "trainable": true, "dtype": "float32", "filters": 128, "kernel_size": [3, 3], "strides": [1, 1], "padding": "valid", "data_format": "channels_first", "dilation_rate": [1, 1], "activation": "linear", "use_bias": false, "kernel_initializer": {"class_name": "Zeros", "config": {"dtype": "float32"}}, "bias_initializer": {"class_name": "Zeros", "config": {"dtype": "float32"}}, "kernel_regularizer": null, "bias_regularizer": null, "activity_regularizer": null, "kernel_constraint": null, "bias_constraint": null}, "inbound_nodes": [[["400_pad", 0, 0, {}]]]}, {"name": "401", "class_name": "BatchNormalization", "config": {"name": "401", "trainable": true, "dtype": "float32", "axis": [1], "momentum": 0.8999999761581421, "epsilon": 9.999999747378752e-06, "center": true, "scale": true, "beta_initializer": {"class_name": "Zeros", "config": {"dtype": "float32"}}, "gamma_initializer": {"class_name": "Ones", "config": {"dtype": "float32"}}, "moving_mean_initializer": {"class_name": "Zeros", "config": {"dtype": "float32"}}, "moving_variance_initializer": {"class_name": "Ones", "config": {"dtype": "float32"}}, "beta_regularizer": null, "gamma_regularizer": null, "beta_constraint": null, "gamma_constraint": null}, "inbound_nodes": [[["400", 0, 0, {}]]]}, {"name": "402", "class_name": "Activation", "config": {"name": "402", "trainable": true, "dtype": "float32", "activation": "relu"}, "inbound_nodes": [[["401", 0, 0, {}]]]}, {"name": "403", "class_name": "Conv2D", "config": {"name": "403", "trainable": true, "dtype": "float32", "filters": 512, "kernel_size": [1, 1], "strides": [1, 1], "padding": "valid", "data_format": "channels_first", "dilation_rate": [1, 1], "activation": "linear", "use_bias": false, "kernel_initializer": {"class_name": "Zeros", "config": {"dtype": "float32"}}, "bias_initializer": {"class_name": "Zeros", "config": {"dtype": "float32"}}, "kernel_regularizer": null, "bias_regularizer": null, "activity_regularizer": null, "kernel_constraint": null, "bias_constraint": null}, "inbound_nodes": [[["402", 0, 0, {}]]]}, {"name": "404", "class_name": "BatchNormalization", "config": {"name": "404", "trainable": true, "dtype": "float32", "axis": [1], "momentum": 0.8999999761581421, "epsilon": 9.999999747378752e-06, "center": true, "scale": true, "beta_initializer": {"class_name": "Zeros", "config": {"dtype": "float32"}}, "gamma_initializer": {"class_name": "Ones", "config": {"dtype": "float32"}}, "moving_mean_initializer": {"class_name": "Zeros", "config": {"dtype": "float32"}}, "moving_variance_initializer": {"class_name": "Ones", "config": {"dtype": "float32"}}, "beta_regularizer": null, "gamma_regularizer": null, "beta_constraint": null, "gamma_constraint": null}, "inbound_nodes": [[["403", 0, 0, {}]]]}, {"name": "405", "class_name": "Add", "config": {"name": "405", "trainable": true, "dtype": "float32"}, "inbound_nodes": [[["404", 0, 0, {}], ["396", 0, 0, {}]]]}, {"name": "406", "class_name": "Activation", "config": {"name": "406", "trainable": true, "dtype": "float32", "activation": "relu"}, "inbound_nodes": [[["405", 0, 0, {}]]]}, {"name": "407", "class_name": "Conv2D", "config": {"name": "407", "trainable": true, "dtype": "float32", "filters": 128, "kernel_size": [1, 1], "strides": [1, 1], "padding": "valid", "data_format": "channels_first", "dilation_rate": [1, 1], "activation": "linear", "use_bias": false, "kernel_initializer": {"class_name": "Zeros", "config": {"dtype": "float32"}}, "bias_initializer": {"class_name": "Zeros", "config": {"dtype": "float32"}}, "kernel_regularizer": null, "bias_regularizer": null, "activity_regularizer": null, "kernel_constraint": null, "bias_constraint": null}, "inbound_nodes": [[["406", 0, 0, {}]]]}, {"name": "408", "class_name": "BatchNormalization", "config": {"name": "408", "trainable": true, "dtype": "float32", "axis": [1], "momentum": 0.8999999761581421, "epsilon": 9.999999747378752e-06, "center": true, "scale": true, "beta_initializer": {"class_name": "Zeros", "config": {"dtype": "float32"}}, "gamma_initializer": {"class_name": "Ones", "config": {"dtype": "float32"}}, "moving_mean_initializer": {"class_name": "Zeros", "config": {"dtype": "float32"}}, "moving_variance_initializer": {"class_name": "Ones", "config": {"dtype": "float32"}}, "beta_regularizer": null, "gamma_regularizer": null, "beta_constraint": null, "gamma_constraint": null}, "inbound_nodes": [[["407", 0, 0, {}]]]}, {"name": "409", "class_name": "Activation", "config": {"name": "409", "trainable": true, "dtype": "float32", "activation": "relu"}, "inbound_nodes": [[["408", 0, 0, {}]]]}, {"name": "410_pad", "class_name": "ZeroPadding2D", "config": {"name": "410_pad", "trainable": true, "dtype": "float32", "padding": [[1, 1], [1, 1]], "data_format": "channels_first"}, "inbound_nodes": [[["409", 0, 0, {}]]]}, {"name": "410", "class_name": "Conv2D", "config": {"name": "410", "trainable": true, "dtype": "float32", "filters": 128, "kernel_size": [3, 3], "strides": [1, 1], "padding": "valid", "data_format": "channels_first", "dilation_rate": [1, 1], "activation": "linear", "use_bias": false, "kernel_initializer": {"class_name": "Zeros", "config": {"dtype": "float32"}}, "bias_initializer": {"class_name": "Zeros", "config": {"dtype": "float32"}}, "kernel_regularizer": null, "bias_regularizer": null, "activity_regularizer": null, "kernel_constraint": null, "bias_constraint": null}, "inbound_nodes": [[["410_pad", 0, 0, {}]]]}, {"name": "411", "class_name": "BatchNormalization", "config": {"name": "411", "trainable": true, "dtype": "float32", "axis": [1], "momentum": 0.8999999761581421, "epsilon": 9.999999747378752e-06, "center": true, "scale": true, "beta_initializer": {"class_name": "Zeros", "config": {"dtype": "float32"}}, "gamma_initializer": {"class_name": "Ones", "config": {"dtype": "float32"}}, "moving_mean_initializer": {"class_name": "Zeros", "config": {"dtype": "float32"}}, "moving_variance_initializer": {"class_name": "Ones", "config": {"dtype": "float32"}}, "beta_regularizer": null, "gamma_regularizer": null, "beta_constraint": null, "gamma_constraint": null}, "inbound_nodes": [[["410", 0, 0, {}]]]}, {"name": "412", "class_name": "Activation", "config": {"name": "412", "trainable": true, "dtype": "float32", "activation": "relu"}, "inbound_nodes": [[["411", 0, 0, {}]]]}, {"name": "413", "class_name": "Conv2D", "config": {"name": "413", "trainable": true, "dtype": "float32", "filters": 512, "kernel_size": [1, 1], "strides": [1, 1], "padding": "valid", "data_format": "channels_first", "dilation_rate": [1, 1], "activation": "linear", "use_bias": false, "kernel_initializer": {"class_name": "Zeros", "config": {"dtype": "float32"}}, "bias_initializer": {"class_name": "Zeros", "config": {"dtype": "float32"}}, "kernel_regularizer": null, "bias_regularizer": null, "activity_regularizer": null, "kernel_constraint": null, "bias_constraint": null}, "inbound_nodes": [[["412", 0, 0, {}]]]}, {"name": "414", "class_name": "BatchNormalization", "config": {"name": "414", "trainable": true, "dtype": "float32", "axis": [1], "momentum": 0.8999999761581421, "epsilon": 9.999999747378752e-06, "center": true, "scale": true, "beta_initializer": {"class_name": "Zeros", "config": {"dtype": "float32"}}, "gamma_initializer": {"class_name": "Ones", "config": {"dtype": "float32"}}, "moving_mean_initializer": {"class_name": "Zeros", "config": {"dtype": "float32"}}, "moving_variance_initializer": {"class_name": "Ones", "config": {"dtype": "float32"}}, "beta_regularizer": null, "gamma_regularizer": null, "beta_constraint": null, "gamma_constraint": null}, "inbound_nodes": [[["413", 0, 0, {}]]]}, {"name": "415", "class_name": "Add", "config": {"name": "415", "trainable": true, "dtype": "float32"}, "inbound_nodes": [[["414", 0, 0, {}], ["406", 0, 0, {}]]]}, {"name": "416", "class_name": "Activation", "config": {"name": "416", "trainable": true, "dtype": "float32", "activation": "relu"}, "inbound_nodes": [[["415", 0, 0, {}]]]}, {"name": "417", "class_name": "Conv2D", "config": {"name": "417", "trainable": true, "dtype": "float32", "filters": 256, "kernel_size": [1, 1], "strides": [1, 1], "padding": "valid", "data_format": "channels_first", "dilation_rate": [1, 1], "activation": "linear", "use_bias": false, "kernel_initializer": {"class_name": "Zeros", "config": {"dtype": "float32"}}, "bias_initializer": {"class_name": "Zeros", "config": {"dtype": "float32"}}, "kernel_regularizer": null, "bias_regularizer": null, "activity_regularizer": null, "kernel_constraint": null, "bias_constraint": null}, "inbound_nodes": [[["416", 0, 0, {}]]]}, {"name": "418", "class_name": "BatchNormalization", "config": {"name": "418", "trainable": true, "dtype": "float32", "axis": [1], "momentum": 0.8999999761581421, "epsilon": 9.999999747378752e-06, "center": true, "scale": true, "beta_initializer": {"class_name": "Zeros", "config": {"dtype": "float32"}}, "gamma_initializer": {"class_name": "Ones", "config": {"dtype": "float32"}}, "moving_mean_initializer": {"class_name": "Zeros", "config": {"dtype": "float32"}}, "moving_variance_initializer": {"class_name": "Ones", "config": {"dtype": "float32"}}, "beta_regularizer": null, "gamma_regularizer": null, "beta_constraint": null, "gamma_constraint": null}, "inbound_nodes": [[["417", 0, 0, {}]]]}, {"name": "419", "class_name": "Activation", "config": {"name": "419", "trainable": true, "dtype": "float32", "activation": "relu"}, "inbound_nodes": [[["418", 0, 0, {}]]]}, {"name": "420_pad", "class_name": "ZeroPadding2D", "config": {"name": "420_pad", "trainable": true, "dtype": "float32", "padding": [[1, 1], [1, 1]], "data_format": "channels_first"}, "inbound_nodes": [[["419", 0, 0, {}]]]}, {"name": "420", "class_name": "Conv2D", "config": {"name": "420", "trainable": true, "dtype": "float32", "filters": 256, "kernel_size": [3, 3], "strides": [2, 2], "padding": "valid", "data_format": "channels_first", "dilation_rate": [1, 1], "activation": "linear", "use_bias": false, "kernel_initializer": {"class_name": "Zeros", "config": {"dtype": "float32"}}, "bias_initializer": {"class_name": "Zeros", "config": {"dtype": "float32"}}, "kernel_regularizer": null, "bias_regularizer": null, "activity_regularizer": null, "kernel_constraint": null, "bias_constraint": null}, "inbound_nodes": [[["420_pad", 0, 0, {}]]]}, {"name": "421", "class_name": "BatchNormalization", "config": {"name": "421", "trainable": true, "dtype": "float32", "axis": [1], "momentum": 0.8999999761581421, "epsilon": 9.999999747378752e-06, "center": true, "scale": true, "beta_initializer": {"class_name": "Zeros", "config": {"dtype": "float32"}}, "gamma_initializer": {"class_name": "Ones", "config": {"dtype": "float32"}}, "moving_mean_initializer": {"class_name": "Zeros", "config": {"dtype": "float32"}}, "moving_variance_initializer": {"class_name": "Ones", "config": {"dtype": "float32"}}, "beta_regularizer": null, "gamma_regularizer": null, "beta_constraint": null, "gamma_constraint": null}, "inbound_nodes": [[["420", 0, 0, {}]]]}, {"name": "422", "class_name": "Activation", "config": {"name": "422", "trainable": true, "dtype": "float32", "activation": "relu"}, "inbound_nodes": [[["421", 0, 0, {}]]]}, {"name": "423", "class_name": "Conv2D", "config": {"name": "423", "trainable": true, "dtype": "float32", "filters": 1024, "kernel_size": [1, 1], "strides": [1, 1], "padding": "valid", "data_format": "channels_first", "dilation_rate": [1, 1], "activation": "linear", "use_bias": false, "kernel_initializer": {"class_name": "Zeros", "config": {"dtype": "float32"}}, "bias_initializer": {"class_name": "Zeros", "config": {"dtype": "float32"}}, "kernel_regularizer": null, "bias_regularizer": null, "activity_regularizer": null, "kernel_constraint": null, "bias_constraint": null}, "inbound_nodes": [[["422", 0, 0, {}]]]}, {"name": "425", "class_name": "Conv2D", "config": {"name": "425", "trainable": true, "dtype": "float32", "filters": 1024, "kernel_size": [1, 1], "strides": [2, 2], "padding": "valid", "data_format": "channels_first", "dilation_rate": [1, 1], "activation": "linear", "use_bias": false, "kernel_initializer": {"class_name": "Zeros", "config": {"dtype": "float32"}}, "bias_initializer": {"class_name": "Zeros", "config": {"dtype": "float32"}}, "kernel_regularizer": null, "bias_regularizer": null, "activity_regularizer": null, "kernel_constraint": null, "bias_constraint": null}, "inbound_nodes": [[["416", 0, 0, {}]]]}, {"name": "424", "class_name": "BatchNormalization", "config": {"name": "424", "trainable": true, "dtype": "float32", "axis": [1], "momentum": 0.8999999761581421, "epsilon": 9.999999747378752e-06, "center": true, "scale": true, "beta_initializer": {"class_name": "Zeros", "config": {"dtype": "float32"}}, "gamma_initializer": {"class_name": "Ones", "config": {"dtype": "float32"}}, "moving_mean_initializer": {"class_name": "Zeros", "config": {"dtype": "float32"}}, "moving_variance_initializer": {"class_name": "Ones", "config": {"dtype": "float32"}}, "beta_regularizer": null, "gamma_regularizer": null, "beta_constraint": null, "gamma_constraint": null}, "inbound_nodes": [[["423", 0, 0, {}]]]}, {"name": "426", "class_name": "BatchNormalization", "config": {"name": "426", "trainable": true, "dtype": "float32", "axis": [1], "momentum": 0.8999999761581421, "epsilon": 9.999999747378752e-06, "center": true, "scale": true, "beta_initializer": {"class_name": "Zeros", "config": {"dtype": "float32"}}, "gamma_initializer": {"class_name": "Ones", "config": {"dtype": "float32"}}, "moving_mean_initializer": {"class_name": "Zeros", "config": {"dtype": "float32"}}, "moving_variance_initializer": {"class_name": "Ones", "config": {"dtype": "float32"}}, "beta_regularizer": null, "gamma_regularizer": null, "beta_constraint": null, "gamma_constraint": null}, "inbound_nodes": [[["425", 0, 0, {}]]]}, {"name": "427", "class_name": "Add", "config": {"name": "427", "trainable": true, "dtype": "float32"}, "inbound_nodes": [[["424", 0, 0, {}], ["426", 0, 0, {}]]]}, {"name": "428", "class_name": "Activation", "config": {"name": "428", "trainable": true, "dtype": "float32", "activation": "relu"}, "inbound_nodes": [[["427", 0, 0, {}]]]}, {"name": "429", "class_name": "Conv2D", "config": {"name": "429", "trainable": true, "dtype": "float32", "filters": 256, "kernel_size": [1, 1], "strides": [1, 1], "padding": "valid", "data_format": "channels_first", "dilation_rate": [1, 1], "activation": "linear", "use_bias": false, "kernel_initializer": {"class_name": "Zeros", "config": {"dtype": "float32"}}, "bias_initializer": {"class_name": "Zeros", "config": {"dtype": "float32"}}, "kernel_regularizer": null, "bias_regularizer": null, "activity_regularizer": null, "kernel_constraint": null, "bias_constraint": null}, "inbound_nodes": [[["428", 0, 0, {}]]]}, {"name": "430", "class_name": "BatchNormalization", "config": {"name": "430", "trainable": true, "dtype": "float32", "axis": [1], "momentum": 0.8999999761581421, "epsilon": 9.999999747378752e-06, "center": true, "scale": true, "beta_initializer": {"class_name": "Zeros", "config": {"dtype": "float32"}}, "gamma_initializer": {"class_name": "Ones", "config": {"dtype": "float32"}}, "moving_mean_initializer": {"class_name": "Zeros", "config": {"dtype": "float32"}}, "moving_variance_initializer": {"class_name": "Ones", "config": {"dtype": "float32"}}, "beta_regularizer": null, "gamma_regularizer": null, "beta_constraint": null, "gamma_constraint": null}, "inbound_nodes": [[["429", 0, 0, {}]]]}, {"name": "431", "class_name": "Activation", "config": {"name": "431", "trainable": true, "dtype": "float32", "activation": "relu"}, "inbound_nodes": [[["430", 0, 0, {}]]]}, {"name": "432_pad", "class_name": "ZeroPadding2D", "config": {"name": "432_pad", "trainable": true, "dtype": "float32", "padding": [[1, 1], [1, 1]], "data_format": "channels_first"}, "inbound_nodes": [[["431", 0, 0, {}]]]}, {"name": "432", "class_name": "Conv2D", "config": {"name": "432", "trainable": true, "dtype": "float32", "filters": 256, "kernel_size": [3, 3], "strides": [1, 1], "padding": "valid", "data_format": "channels_first", "dilation_rate": [1, 1], "activation": "linear", "use_bias": false, "kernel_initializer": {"class_name": "Zeros", "config": {"dtype": "float32"}}, "bias_initializer": {"class_name": "Zeros", "config": {"dtype": "float32"}}, "kernel_regularizer": null, "bias_regularizer": null, "activity_regularizer": null, "kernel_constraint": null, "bias_constraint": null}, "inbound_nodes": [[["432_pad", 0, 0, {}]]]}, {"name": "433", "class_name": "BatchNormalization", "config": {"name": "433", "trainable": true, "dtype": "float32", "axis": [1], "momentum": 0.8999999761581421, "epsilon": 9.999999747378752e-06, "center": true, "scale": true, "beta_initializer": {"class_name": "Zeros", "config": {"dtype": "float32"}}, "gamma_initializer": {"class_name": "Ones", "config": {"dtype": "float32"}}, "moving_mean_initializer": {"class_name": "Zeros", "config": {"dtype": "float32"}}, "moving_variance_initializer": {"class_name": "Ones", "config": {"dtype": "float32"}}, "beta_regularizer": null, "gamma_regularizer": null, "beta_constraint": null, "gamma_constraint": null}, "inbound_nodes": [[["432", 0, 0, {}]]]}, {"name": "434", "class_name": "Activation", "config": {"name": "434", "trainable": true, "dtype": "float32", "activation": "relu"}, "inbound_nodes": [[["433", 0, 0, {}]]]}, {"name": "435", "class_name": "Conv2D", "config": {"name": "435", "trainable": true, "dtype": "float32", "filters": 1024, "kernel_size": [1, 1], "strides": [1, 1], "padding": "valid", "data_format": "channels_first", "dilation_rate": [1, 1], "activation": "linear", "use_bias": false, "kernel_initializer": {"class_name": "Zeros", "config": {"dtype": "float32"}}, "bias_initializer": {"class_name": "Zeros", "config": {"dtype": "float32"}}, "kernel_regularizer": null, "bias_regularizer": null, "activity_regularizer": null, "kernel_constraint": null, "bias_constraint": null}, "inbound_nodes": [[["434", 0, 0, {}]]]}, {"name": "436", "class_name": "BatchNormalization", "config": {"name": "436", "trainable": true, "dtype": "float32", "axis": [1], "momentum": 0.8999999761581421, "epsilon": 9.999999747378752e-06, "center": true, "scale": true, "beta_initializer": {"class_name": "Zeros", "config": {"dtype": "float32"}}, "gamma_initializer": {"class_name": "Ones", "config": {"dtype": "float32"}}, "moving_mean_initializer": {"class_name": "Zeros", "config": {"dtype": "float32"}}, "moving_variance_initializer": {"class_name": "Ones", "config": {"dtype": "float32"}}, "beta_regularizer": null, "gamma_regularizer": null, "beta_constraint": null, "gamma_constraint": null}, "inbound_nodes": [[["435", 0, 0, {}]]]}, {"name": "437", "class_name": "Add", "config": {"name": "437", "trainable": true, "dtype": "float32"}, "inbound_nodes": [[["436", 0, 0, {}], ["428", 0, 0, {}]]]}, {"name": "438", "class_name": "Activation", "config": {"name": "438", "trainable": true, "dtype": "float32", "activation": "relu"}, "inbound_nodes": [[["437", 0, 0, {}]]]}, {"name": "439", "class_name": "Conv2D", "config": {"name": "439", "trainable": true, "dtype": "float32", "filters": 256, "kernel_size": [1, 1], "strides": [1, 1], "padding": "valid", "data_format": "channels_first", "dilation_rate": [1, 1], "activation": "linear", "use_bias": false, "kernel_initializer": {"class_name": "Zeros", "config": {"dtype": "float32"}}, "bias_initializer": {"class_name": "Zeros", "config": {"dtype": "float32"}}, "kernel_regularizer": null, "bias_regularizer": null, "activity_regularizer": null, "kernel_constraint": null, "bias_constraint": null}, "inbound_nodes": [[["438", 0, 0, {}]]]}, {"name": "440", "class_name": "BatchNormalization", "config": {"name": "440", "trainable": true, "dtype": "float32", "axis": [1], "momentum": 0.8999999761581421, "epsilon": 9.999999747378752e-06, "center": true, "scale": true, "beta_initializer": {"class_name": "Zeros", "config": {"dtype": "float32"}}, "gamma_initializer": {"class_name": "Ones", "config": {"dtype": "float32"}}, "moving_mean_initializer": {"class_name": "Zeros", "config": {"dtype": "float32"}}, "moving_variance_initializer": {"class_name": "Ones", "config": {"dtype": "float32"}}, "beta_regularizer": null, "gamma_regularizer": null, "beta_constraint": null, "gamma_constraint": null}, "inbound_nodes": [[["439", 0, 0, {}]]]}, {"name": "441", "class_name": "Activation", "config": {"name": "441", "trainable": true, "dtype": "float32", "activation": "relu"}, "inbound_nodes": [[["440", 0, 0, {}]]]}, {"name": "442_pad", "class_name": "ZeroPadding2D", "config": {"name": "442_pad", "trainable": true, "dtype": "float32", "padding": [[1, 1], [1, 1]], "data_format": "channels_first"}, "inbound_nodes": [[["441", 0, 0, {}]]]}, {"name": "442", "class_name": "Conv2D", "config": {"name": "442", "trainable": true, "dtype": "float32", "filters": 256, "kernel_size": [3, 3], "strides": [1, 1], "padding": "valid", "data_format": "channels_first", "dilation_rate": [1, 1], "activation": "linear", "use_bias": false, "kernel_initializer": {"class_name": "Zeros", "config": {"dtype": "float32"}}, "bias_initializer": {"class_name": "Zeros", "config": {"dtype": "float32"}}, "kernel_regularizer": null, "bias_regularizer": null, "activity_regularizer": null, "kernel_constraint": null, "bias_constraint": null}, "inbound_nodes": [[["442_pad", 0, 0, {}]]]}, {"name": "443", "class_name": "BatchNormalization", "config": {"name": "443", "trainable": true, "dtype": "float32", "axis": [1], "momentum": 0.8999999761581421, "epsilon": 9.999999747378752e-06, "center": true, "scale": true, "beta_initializer": {"class_name": "Zeros", "config": {"dtype": "float32"}}, "gamma_initializer": {"class_name": "Ones", "config": {"dtype": "float32"}}, "moving_mean_initializer": {"class_name": "Zeros", "config": {"dtype": "float32"}}, "moving_variance_initializer": {"class_name": "Ones", "config": {"dtype": "float32"}}, "beta_regularizer": null, "gamma_regularizer": null, "beta_constraint": null, "gamma_constraint": null}, "inbound_nodes": [[["442", 0, 0, {}]]]}, {"name": "444", "class_name": "Activation", "config": {"name": "444", "trainable": true, "dtype": "float32", "activation": "relu"}, "inbound_nodes": [[["443", 0, 0, {}]]]}, {"name": "445", "class_name": "Conv2D", "config": {"name": "445", "trainable": true, "dtype": "float32", "filters": 1024, "kernel_size": [1, 1], "strides": [1, 1], "padding": "valid", "data_format": "channels_first", "dilation_rate": [1, 1], "activation": "linear", "use_bias": false, "kernel_initializer": {"class_name": "Zeros", "config": {"dtype": "float32"}}, "bias_initializer": {"class_name": "Zeros", "config": {"dtype": "float32"}}, "kernel_regularizer": null, "bias_regularizer": null, "activity_regularizer": null, "kernel_constraint": null, "bias_constraint": null}, "inbound_nodes": [[["444", 0, 0, {}]]]}, {"name": "446", "class_name": "BatchNormalization", "config": {"name": "446", "trainable": true, "dtype": "float32", "axis": [1], "momentum": 0.8999999761581421, "epsilon": 9.999999747378752e-06, "center": true, "scale": true, "beta_initializer": {"class_name": "Zeros", "config": {"dtype": "float32"}}, "gamma_initializer": {"class_name": "Ones", "config": {"dtype": "float32"}}, "moving_mean_initializer": {"class_name": "Zeros", "config": {"dtype": "float32"}}, "moving_variance_initializer": {"class_name": "Ones", "config": {"dtype": "float32"}}, "beta_regularizer": null, "gamma_regularizer": null, "beta_constraint": null, "gamma_constraint": null}, "inbound_nodes": [[["445", 0, 0, {}]]]}, {"name": "447", "class_name": "Add", "config": {"name": "447", "trainable": true, "dtype": "float32"}, "inbound_nodes": [[["446", 0, 0, {}], ["438", 0, 0, {}]]]}, {"name": "448", "class_name": "Activation", "config": {"name": "448", "trainable": true, "dtype": "float32", "activation": "relu"}, "inbound_nodes": [[["447", 0, 0, {}]]]}, {"name": "449", "class_name": "Conv2D", "config": {"name": "449", "trainable": true, "dtype": "float32", "filters": 256, "kernel_size": [1, 1], "strides": [1, 1], "padding": "valid", "data_format": "channels_first", "dilation_rate": [1, 1], "activation": "linear", "use_bias": false, "kernel_initializer": {"class_name": "Zeros", "config": {"dtype": "float32"}}, "bias_initializer": {"class_name": "Zeros", "config": {"dtype": "float32"}}, "kernel_regularizer": null, "bias_regularizer": null, "activity_regularizer": null, "kernel_constraint": null, "bias_constraint": null}, "inbound_nodes": [[["448", 0, 0, {}]]]}, {"name": "450", "class_name": "BatchNormalization", "config": {"name": "450", "trainable": true, "dtype": "float32", "axis": [1], "momentum": 0.8999999761581421, "epsilon": 9.999999747378752e-06, "center": true, "scale": true, "beta_initializer": {"class_name": "Zeros", "config": {"dtype": "float32"}}, "gamma_initializer": {"class_name": "Ones", "config": {"dtype": "float32"}}, "moving_mean_initializer": {"class_name": "Zeros", "config": {"dtype": "float32"}}, "moving_variance_initializer": {"class_name": "Ones", "config": {"dtype": "float32"}}, "beta_regularizer": null, "gamma_regularizer": null, "beta_constraint": null, "gamma_constraint": null}, "inbound_nodes": [[["449", 0, 0, {}]]]}, {"name": "451", "class_name": "Activation", "config": {"name": "451", "trainable": true, "dtype": "float32", "activation": "relu"}, "inbound_nodes": [[["450", 0, 0, {}]]]}, {"name": "452_pad", "class_name": "ZeroPadding2D", "config": {"name": "452_pad", "trainable": true, "dtype": "float32", "padding": [[1, 1], [1, 1]], "data_format": "channels_first"}, "inbound_nodes": [[["451", 0, 0, {}]]]}, {"name": "452", "class_name": "Conv2D", "config": {"name": "452", "trainable": true, "dtype": "float32", "filters": 256, "kernel_size": [3, 3], "strides": [1, 1], "padding": "valid", "data_format": "channels_first", "dilation_rate": [1, 1], "activation": "linear", "use_bias": false, "kernel_initializer": {"class_name": "Zeros", "config": {"dtype": "float32"}}, "bias_initializer": {"class_name": "Zeros", "config": {"dtype": "float32"}}, "kernel_regularizer": null, "bias_regularizer": null, "activity_regularizer": null, "kernel_constraint": null, "bias_constraint": null}, "inbound_nodes": [[["452_pad", 0, 0, {}]]]}, {"name": "453", "class_name": "BatchNormalization", "config": {"name": "453", "trainable": true, "dtype": "float32", "axis": [1], "momentum": 0.8999999761581421, "epsilon": 9.999999747378752e-06, "center": true, "scale": true, "beta_initializer": {"class_name": "Zeros", "config": {"dtype": "float32"}}, "gamma_initializer": {"class_name": "Ones", "config": {"dtype": "float32"}}, "moving_mean_initializer": {"class_name": "Zeros", "config": {"dtype": "float32"}}, "moving_variance_initializer": {"class_name": "Ones", "config": {"dtype": "float32"}}, "beta_regularizer": null, "gamma_regularizer": null, "beta_constraint": null, "gamma_constraint": null}, "inbound_nodes": [[["452", 0, 0, {}]]]}, {"name": "454", "class_name": "Activation", "config": {"name": "454", "trainable": true, "dtype": "float32", "activation": "relu"}, "inbound_nodes": [[["453", 0, 0, {}]]]}, {"name": "455", "class_name": "Conv2D", "config": {"name": "455", "trainable": true, "dtype": "float32", "filters": 1024, "kernel_size": [1, 1], "strides": [1, 1], "padding": "valid", "data_format": "channels_first", "dilation_rate": [1, 1], "activation": "linear", "use_bias": false, "kernel_initializer": {"class_name": "Zeros", "config": {"dtype": "float32"}}, "bias_initializer": {"class_name": "Zeros", "config": {"dtype": "float32"}}, "kernel_regularizer": null, "bias_regularizer": null, "activity_regularizer": null, "kernel_constraint": null, "bias_constraint": null}, "inbound_nodes": [[["454", 0, 0, {}]]]}, {"name": "456", "class_name": "BatchNormalization", "config": {"name": "456", "trainable": true, "dtype": "float32", "axis": [1], "momentum": 0.8999999761581421, "epsilon": 9.999999747378752e-06, "center": true, "scale": true, "beta_initializer": {"class_name": "Zeros", "config": {"dtype": "float32"}}, "gamma_initializer": {"class_name": "Ones", "config": {"dtype": "float32"}}, "moving_mean_initializer": {"class_name": "Zeros", "config": {"dtype": "float32"}}, "moving_variance_initializer": {"class_name": "Ones", "config": {"dtype": "float32"}}, "beta_regularizer": null, "gamma_regularizer": null, "beta_constraint": null, "gamma_constraint": null}, "inbound_nodes": [[["455", 0, 0, {}]]]}, {"name": "457", "class_name": "Add", "config": {"name": "457", "trainable": true, "dtype": "float32"}, "inbound_nodes": [[["456", 0, 0, {}], ["448", 0, 0, {}]]]}, {"name": "458", "class_name": "Activation", "config": {"name": "458", "trainable": true, "dtype": "float32", "activation": "relu"}, "inbound_nodes": [[["457", 0, 0, {}]]]}, {"name": "459", "class_name": "Conv2D", "config": {"name": "459", "trainable": true, "dtype": "float32", "filters": 256, "kernel_size": [1, 1], "strides": [1, 1], "padding": "valid", "data_format": "channels_first", "dilation_rate": [1, 1], "activation": "linear", "use_bias": false, "kernel_initializer": {"class_name": "Zeros", "config": {"dtype": "float32"}}, "bias_initializer": {"class_name": "Zeros", "config": {"dtype": "float32"}}, "kernel_regularizer": null, "bias_regularizer": null, "activity_regularizer": null, "kernel_constraint": null, "bias_constraint": null}, "inbound_nodes": [[["458", 0, 0, {}]]]}, {"name": "460", "class_name": "BatchNormalization", "config": {"name": "460", "trainable": true, "dtype": "float32", "axis": [1], "momentum": 0.8999999761581421, "epsilon": 9.999999747378752e-06, "center": true, "scale": true, "beta_initializer": {"class_name": "Zeros", "config": {"dtype": "float32"}}, "gamma_initializer": {"class_name": "Ones", "config": {"dtype": "float32"}}, "moving_mean_initializer": {"class_name": "Zeros", "config": {"dtype": "float32"}}, "moving_variance_initializer": {"class_name": "Ones", "config": {"dtype": "float32"}}, "beta_regularizer": null, "gamma_regularizer": null, "beta_constraint": null, "gamma_constraint": null}, "inbound_nodes": [[["459", 0, 0, {}]]]}, {"name": "461", "class_name": "Activation", "config": {"name": "461", "trainable": true, "dtype": "float32", "activation": "relu"}, "inbound_nodes": [[["460", 0, 0, {}]]]}, {"name": "462_pad", "class_name": "ZeroPadding2D", "config": {"name": "462_pad", "trainable": true, "dtype": "float32", "padding": [[1, 1], [1, 1]], "data_format": "channels_first"}, "inbound_nodes": [[["461", 0, 0, {}]]]}, {"name": "462", "class_name": "Conv2D", "config": {"name": "462", "trainable": true, "dtype": "float32", "filters": 256, "kernel_size": [3, 3], "strides": [1, 1], "padding": "valid", "data_format": "channels_first", "dilation_rate": [1, 1], "activation": "linear", "use_bias": false, "kernel_initializer": {"class_name": "Zeros", "config": {"dtype": "float32"}}, "bias_initializer": {"class_name": "Zeros", "config": {"dtype": "float32"}}, "kernel_regularizer": null, "bias_regularizer": null, "activity_regularizer": null, "kernel_constraint": null, "bias_constraint": null}, "inbound_nodes": [[["462_pad", 0, 0, {}]]]}, {"name": "463", "class_name": "BatchNormalization", "config": {"name": "463", "trainable": true, "dtype": "float32", "axis": [1], "momentum": 0.8999999761581421, "epsilon": 9.999999747378752e-06, "center": true, "scale": true, "beta_initializer": {"class_name": "Zeros", "config": {"dtype": "float32"}}, "gamma_initializer": {"class_name": "Ones", "config": {"dtype": "float32"}}, "moving_mean_initializer": {"class_name": "Zeros", "config": {"dtype": "float32"}}, "moving_variance_initializer": {"class_name": "Ones", "config": {"dtype": "float32"}}, "beta_regularizer": null, "gamma_regularizer": null, "beta_constraint": null, "gamma_constraint": null}, "inbound_nodes": [[["462", 0, 0, {}]]]}, {"name": "464", "class_name": "Activation", "config": {"name": "464", "trainable": true, "dtype": "float32", "activation": "relu"}, "inbound_nodes": [[["463", 0, 0, {}]]]}, {"name": "465", "class_name": "Conv2D", "config": {"name": "465", "trainable": true, "dtype": "float32", "filters": 1024, "kernel_size": [1, 1], "strides": [1, 1], "padding": "valid", "data_format": "channels_first", "dilation_rate": [1, 1], "activation": "linear", "use_bias": false, "kernel_initializer": {"class_name": "Zeros", "config": {"dtype": "float32"}}, "bias_initializer": {"class_name": "Zeros", "config": {"dtype": "float32"}}, "kernel_regularizer": null, "bias_regularizer": null, "activity_regularizer": null, "kernel_constraint": null, "bias_constraint": null}, "inbound_nodes": [[["464", 0, 0, {}]]]}, {"name": "466", "class_name": "BatchNormalization", "config": {"name": "466", "trainable": true, "dtype": "float32", "axis": [1], "momentum": 0.8999999761581421, "epsilon": 9.999999747378752e-06, "center": true, "scale": true, "beta_initializer": {"class_name": "Zeros", "config": {"dtype": "float32"}}, "gamma_initializer": {"class_name": "Ones", "config": {"dtype": "float32"}}, "moving_mean_initializer": {"class_name": "Zeros", "config": {"dtype": "float32"}}, "moving_variance_initializer": {"class_name": "Ones", "config": {"dtype": "float32"}}, "beta_regularizer": null, "gamma_regularizer": null, "beta_constraint": null, "gamma_constraint": null}, "inbound_nodes": [[["465", 0, 0, {}]]]}, {"name": "467", "class_name": "Add", "config": {"name": "467", "trainable": true, "dtype": "float32"}, "inbound_nodes": [[["466", 0, 0, {}], ["458", 0, 0, {}]]]}, {"name": "468", "class_name": "Activation", "config": {"name": "468", "trainable": true, "dtype": "float32", "activation": "relu"}, "inbound_nodes": [[["467", 0, 0, {}]]]}, {"name": "469", "class_name": "Conv2D", "config": {"name": "469", "trainable": true, "dtype": "float32", "filters": 256, "kernel_size": [1, 1], "strides": [1, 1], "padding": "valid", "data_format": "channels_first", "dilation_rate": [1, 1], "activation": "linear", "use_bias": false, "kernel_initializer": {"class_name": "Zeros", "config": {"dtype": "float32"}}, "bias_initializer": {"class_name": "Zeros", "config": {"dtype": "float32"}}, "kernel_regularizer": null, "bias_regularizer": null, "activity_regularizer": null, "kernel_constraint": null, "bias_constraint": null}, "inbound_nodes": [[["468", 0, 0, {}]]]}, {"name": "470", "class_name": "BatchNormalization", "config": {"name": "470", "trainable": true, "dtype": "float32", "axis": [1], "momentum": 0.8999999761581421, "epsilon": 9.999999747378752e-06, "center": true, "scale": true, "beta_initializer": {"class_name": "Zeros", "config": {"dtype": "float32"}}, "gamma_initializer": {"class_name": "Ones", "config": {"dtype": "float32"}}, "moving_mean_initializer": {"class_name": "Zeros", "config": {"dtype": "float32"}}, "moving_variance_initializer": {"class_name": "Ones", "config": {"dtype": "float32"}}, "beta_regularizer": null, "gamma_regularizer": null, "beta_constraint": null, "gamma_constraint": null}, "inbound_nodes": [[["469", 0, 0, {}]]]}, {"name": "471", "class_name": "Activation", "config": {"name": "471", "trainable": true, "dtype": "float32", "activation": "relu"}, "inbound_nodes": [[["470", 0, 0, {}]]]}, {"name": "472_pad", "class_name": "ZeroPadding2D", "config": {"name": "472_pad", "trainable": true, "dtype": "float32", "padding": [[1, 1], [1, 1]], "data_format": "channels_first"}, "inbound_nodes": [[["471", 0, 0, {}]]]}, {"name": "472", "class_name": "Conv2D", "config": {"name": "472", "trainable": true, "dtype": "float32", "filters": 256, "kernel_size": [3, 3], "strides": [1, 1], "padding": "valid", "data_format": "channels_first", "dilation_rate": [1, 1], "activation": "linear", "use_bias": false, "kernel_initializer": {"class_name": "Zeros", "config": {"dtype": "float32"}}, "bias_initializer": {"class_name": "Zeros", "config": {"dtype": "float32"}}, "kernel_regularizer": null, "bias_regularizer": null, "activity_regularizer": null, "kernel_constraint": null, "bias_constraint": null}, "inbound_nodes": [[["472_pad", 0, 0, {}]]]}, {"name": "473", "class_name": "BatchNormalization", "config": {"name": "473", "trainable": true, "dtype": "float32", "axis": [1], "momentum": 0.8999999761581421, "epsilon": 9.999999747378752e-06, "center": true, "scale": true, "beta_initializer": {"class_name": "Zeros", "config": {"dtype": "float32"}}, "gamma_initializer": {"class_name": "Ones", "config": {"dtype": "float32"}}, "moving_mean_initializer": {"class_name": "Zeros", "config": {"dtype": "float32"}}, "moving_variance_initializer": {"class_name": "Ones", "config": {"dtype": "float32"}}, "beta_regularizer": null, "gamma_regularizer": null, "beta_constraint": null, "gamma_constraint": null}, "inbound_nodes": [[["472", 0, 0, {}]]]}, {"name": "474", "class_name": "Activation", "config": {"name": "474", "trainable": true, "dtype": "float32", "activation": "relu"}, "inbound_nodes": [[["473", 0, 0, {}]]]}, {"name": "475", "class_name": "Conv2D", "config": {"name": "475", "trainable": true, "dtype": "float32", "filters": 1024, "kernel_size": [1, 1], "strides": [1, 1], "padding": "valid", "data_format": "channels_first", "dilation_rate": [1, 1], "activation": "linear", "use_bias": false, "kernel_initializer": {"class_name": "Zeros", "config": {"dtype": "float32"}}, "bias_initializer": {"class_name": "Zeros", "config": {"dtype": "float32"}}, "kernel_regularizer": null, "bias_regularizer": null, "activity_regularizer": null, "kernel_constraint": null, "bias_constraint": null}, "inbound_nodes": [[["474", 0, 0, {}]]]}, {"name": "476", "class_name": "BatchNormalization", "config": {"name": "476", "trainable": true, "dtype": "float32", "axis": [1], "momentum": 0.8999999761581421, "epsilon": 9.999999747378752e-06, "center": true, "scale": true, "beta_initializer": {"class_name": "Zeros", "config": {"dtype": "float32"}}, "gamma_initializer": {"class_name": "Ones", "config": {"dtype": "float32"}}, "moving_mean_initializer": {"class_name": "Zeros", "config": {"dtype": "float32"}}, "moving_variance_initializer": {"class_name": "Ones", "config": {"dtype": "float32"}}, "beta_regularizer": null, "gamma_regularizer": null, "beta_constraint": null, "gamma_constraint": null}, "inbound_nodes": [[["475", 0, 0, {}]]]}, {"name": "477", "class_name": "Add", "config": {"name": "477", "trainable": true, "dtype": "float32"}, "inbound_nodes": [[["476", 0, 0, {}], ["468", 0, 0, {}]]]}, {"name": "478", "class_name": "Activation", "config": {"name": "478", "trainable": true, "dtype": "float32", "activation": "relu"}, "inbound_nodes": [[["477", 0, 0, {}]]]}, {"name": "479", "class_name": "Conv2D", "config": {"name": "479", "trainable": true, "dtype": "float32", "filters": 512, "kernel_size": [1, 1], "strides": [1, 1], "padding": "valid", "data_format": "channels_first", "dilation_rate": [1, 1], "activation": "linear", "use_bias": false, "kernel_initializer": {"class_name": "Zeros", "config": {"dtype": "float32"}}, "bias_initializer": {"class_name": "Zeros", "config": {"dtype": "float32"}}, "kernel_regularizer": null, "bias_regularizer": null, "activity_regularizer": null, "kernel_constraint": null, "bias_constraint": null}, "inbound_nodes": [[["478", 0, 0, {}]]]}, {"name": "480", "class_name": "BatchNormalization", "config": {"name": "480", "trainable": true, "dtype": "float32", "axis": [1], "momentum": 0.8999999761581421, "epsilon": 9.999999747378752e-06, "center": true, "scale": true, "beta_initializer": {"class_name": "Zeros", "config": {"dtype": "float32"}}, "gamma_initializer": {"class_name": "Ones", "config": {"dtype": "float32"}}, "moving_mean_initializer": {"class_name": "Zeros", "config": {"dtype": "float32"}}, "moving_variance_initializer": {"class_name": "Ones", "config": {"dtype": "float32"}}, "beta_regularizer": null, "gamma_regularizer": null, "beta_constraint": null, "gamma_constraint": null}, "inbound_nodes": [[["479", 0, 0, {}]]]}, {"name": "481", "class_name": "Activation", "config": {"name": "481", "trainable": true, "dtype": "float32", "activation": "relu"}, "inbound_nodes": [[["480", 0, 0, {}]]]}, {"name": "482_pad", "class_name": "ZeroPadding2D", "config": {"name": "482_pad", "trainable": true, "dtype": "float32", "padding": [[1, 1], [1, 1]], "data_format": "channels_first"}, "inbound_nodes": [[["481", 0, 0, {}]]]}, {"name": "482", "class_name": "Conv2D", "config": {"name": "482", "trainable": true, "dtype": "float32", "filters": 512, "kernel_size": [3, 3], "strides": [2, 2], "padding": "valid", "data_format": "channels_first", "dilation_rate": [1, 1], "activation": "linear", "use_bias": false, "kernel_initializer": {"class_name": "Zeros", "config": {"dtype": "float32"}}, "bias_initializer": {"class_name": "Zeros", "config": {"dtype": "float32"}}, "kernel_regularizer": null, "bias_regularizer": null, "activity_regularizer": null, "kernel_constraint": null, "bias_constraint": null}, "inbound_nodes": [[["482_pad", 0, 0, {}]]]}, {"name": "483", "class_name": "BatchNormalization", "config": {"name": "483", "trainable": true, "dtype": "float32", "axis": [1], "momentum": 0.8999999761581421, "epsilon": 9.999999747378752e-06, "center": true, "scale": true, "beta_initializer": {"class_name": "Zeros", "config": {"dtype": "float32"}}, "gamma_initializer": {"class_name": "Ones", "config": {"dtype": "float32"}}, "moving_mean_initializer": {"class_name": "Zeros", "config": {"dtype": "float32"}}, "moving_variance_initializer": {"class_name": "Ones", "config": {"dtype": "float32"}}, "beta_regularizer": null, "gamma_regularizer": null, "beta_constraint": null, "gamma_constraint": null}, "inbound_nodes": [[["482", 0, 0, {}]]]}, {"name": "484", "class_name": "Activation", "config": {"name": "484", "trainable": true, "dtype": "float32", "activation": "relu"}, "inbound_nodes": [[["483", 0, 0, {}]]]}, {"name": "485", "class_name": "Conv2D", "config": {"name": "485", "trainable": true, "dtype": "float32", "filters": 2048, "kernel_size": [1, 1], "strides": [1, 1], "padding": "valid", "data_format": "channels_first", "dilation_rate": [1, 1], "activation": "linear", "use_bias": false, "kernel_initializer": {"class_name": "Zeros", "config": {"dtype": "float32"}}, "bias_initializer": {"class_name": "Zeros", "config": {"dtype": "float32"}}, "kernel_regularizer": null, "bias_regularizer": null, "activity_regularizer": null, "kernel_constraint": null, "bias_constraint": null}, "inbound_nodes": [[["484", 0, 0, {}]]]}, {"name": "487", "class_name": "Conv2D", "config": {"name": "487", "trainable": true, "dtype": "float32", "filters": 2048, "kernel_size": [1, 1], "strides": [2, 2], "padding": "valid", "data_format": "channels_first", "dilation_rate": [1, 1], "activation": "linear", "use_bias": false, "kernel_initializer": {"class_name": "Zeros", "config": {"dtype": "float32"}}, "bias_initializer": {"class_name": "Zeros", "config": {"dtype": "float32"}}, "kernel_regularizer": null, "bias_regularizer": null, "activity_regularizer": null, "kernel_constraint": null, "bias_constraint": null}, "inbound_nodes": [[["478", 0, 0, {}]]]}, {"name": "486", "class_name": "BatchNormalization", "config": {"name": "486", "trainable": true, "dtype": "float32", "axis": [1], "momentum": 0.8999999761581421, "epsilon": 9.999999747378752e-06, "center": true, "scale": true, "beta_initializer": {"class_name": "Zeros", "config": {"dtype": "float32"}}, "gamma_initializer": {"class_name": "Ones", "config": {"dtype": "float32"}}, "moving_mean_initializer": {"class_name": "Zeros", "config": {"dtype": "float32"}}, "moving_variance_initializer": {"class_name": "Ones", "config": {"dtype": "float32"}}, "beta_regularizer": null, "gamma_regularizer": null, "beta_constraint": null, "gamma_constraint": null}, "inbound_nodes": [[["485", 0, 0, {}]]]}, {"name": "488", "class_name": "BatchNormalization", "config": {"name": "488", "trainable": true, "dtype": "float32", "axis": [1], "momentum": 0.8999999761581421, "epsilon": 9.999999747378752e-06, "center": true, "scale": true, "beta_initializer": {"class_name": "Zeros", "config": {"dtype": "float32"}}, "gamma_initializer": {"class_name": "Ones", "config": {"dtype": "float32"}}, "moving_mean_initializer": {"class_name": "Zeros", "config": {"dtype": "float32"}}, "moving_variance_initializer": {"class_name": "Ones", "config": {"dtype": "float32"}}, "beta_regularizer": null, "gamma_regularizer": null, "beta_constraint": null, "gamma_constraint": null}, "inbound_nodes": [[["487", 0, 0, {}]]]}, {"name": "489", "class_name": "Add", "config": {"name": "489", "trainable": true, "dtype": "float32"}, "inbound_nodes": [[["486", 0, 0, {}], ["488", 0, 0, {}]]]}, {"name": "490", "class_name": "Activation", "config": {"name": "490", "trainable": true, "dtype": "float32", "activation": "relu"}, "inbound_nodes": [[["489", 0, 0, {}]]]}, {"name": "491", "class_name": "Conv2D", "config": {"name": "491", "trainable": true, "dtype": "float32", "filters": 512, "kernel_size": [1, 1], "strides": [1, 1], "padding": "valid", "data_format": "channels_first", "dilation_rate": [1, 1], "activation": "linear", "use_bias": false, "kernel_initializer": {"class_name": "Zeros", "config": {"dtype": "float32"}}, "bias_initializer": {"class_name": "Zeros", "config": {"dtype": "float32"}}, "kernel_regularizer": null, "bias_regularizer": null, "activity_regularizer": null, "kernel_constraint": null, "bias_constraint": null}, "inbound_nodes": [[["490", 0, 0, {}]]]}, {"name": "492", "class_name": "BatchNormalization", "config": {"name": "492", "trainable": true, "dtype": "float32", "axis": [1], "momentum": 0.8999999761581421, "epsilon": 9.999999747378752e-06, "center": true, "scale": true, "beta_initializer": {"class_name": "Zeros", "config": {"dtype": "float32"}}, "gamma_initializer": {"class_name": "Ones", "config": {"dtype": "float32"}}, "moving_mean_initializer": {"class_name": "Zeros", "config": {"dtype": "float32"}}, "moving_variance_initializer": {"class_name": "Ones", "config": {"dtype": "float32"}}, "beta_regularizer": null, "gamma_regularizer": null, "beta_constraint": null, "gamma_constraint": null}, "inbound_nodes": [[["491", 0, 0, {}]]]}, {"name": "493", "class_name": "Activation", "config": {"name": "493", "trainable": true, "dtype": "float32", "activation": "relu"}, "inbound_nodes": [[["492", 0, 0, {}]]]}, {"name": "494_pad", "class_name": "ZeroPadding2D", "config": {"name": "494_pad", "trainable": true, "dtype": "float32", "padding": [[1, 1], [1, 1]], "data_format": "channels_first"}, "inbound_nodes": [[["493", 0, 0, {}]]]}, {"name": "494", "class_name": "Conv2D", "config": {"name": "494", "trainable": true, "dtype": "float32", "filters": 512, "kernel_size": [3, 3], "strides": [1, 1], "padding": "valid", "data_format": "channels_first", "dilation_rate": [1, 1], "activation": "linear", "use_bias": false, "kernel_initializer": {"class_name": "Zeros", "config": {"dtype": "float32"}}, "bias_initializer": {"class_name": "Zeros", "config": {"dtype": "float32"}}, "kernel_regularizer": null, "bias_regularizer": null, "activity_regularizer": null, "kernel_constraint": null, "bias_constraint": null}, "inbound_nodes": [[["494_pad", 0, 0, {}]]]}, {"name": "495", "class_name": "BatchNormalization", "config": {"name": "495", "trainable": true, "dtype": "float32", "axis": [1], "momentum": 0.8999999761581421, "epsilon": 9.999999747378752e-06, "center": true, "scale": true, "beta_initializer": {"class_name": "Zeros", "config": {"dtype": "float32"}}, "gamma_initializer": {"class_name": "Ones", "config": {"dtype": "float32"}}, "moving_mean_initializer": {"class_name": "Zeros", "config": {"dtype": "float32"}}, "moving_variance_initializer": {"class_name": "Ones", "config": {"dtype": "float32"}}, "beta_regularizer": null, "gamma_regularizer": null, "beta_constraint": null, "gamma_constraint": null}, "inbound_nodes": [[["494", 0, 0, {}]]]}, {"name": "496", "class_name": "Activation", "config": {"name": "496", "trainable": true, "dtype": "float32", "activation": "relu"}, "inbound_nodes": [[["495", 0, 0, {}]]]}, {"name": "497", "class_name": "Conv2D", "config": {"name": "497", "trainable": true, "dtype": "float32", "filters": 2048, "kernel_size": [1, 1], "strides": [1, 1], "padding": "valid", "data_format": "channels_first", "dilation_rate": [1, 1], "activation": "linear", "use_bias": false, "kernel_initializer": {"class_name": "Zeros", "config": {"dtype": "float32"}}, "bias_initializer": {"class_name": "Zeros", "config": {"dtype": "float32"}}, "kernel_regularizer": null, "bias_regularizer": null, "activity_regularizer": null, "kernel_constraint": null, "bias_constraint": null}, "inbound_nodes": [[["496", 0, 0, {}]]]}, {"name": "498", "class_name": "BatchNormalization", "config": {"name": "498", "trainable": true, "dtype": "float32", "axis": [1], "momentum": 0.8999999761581421, "epsilon": 9.999999747378752e-06, "center": true, "scale": true, "beta_initializer": {"class_name": "Zeros", "config": {"dtype": "float32"}}, "gamma_initializer": {"class_name": "Ones", "config": {"dtype": "float32"}}, "moving_mean_initializer": {"class_name": "Zeros", "config": {"dtype": "float32"}}, "moving_variance_initializer": {"class_name": "Ones", "config": {"dtype": "float32"}}, "beta_regularizer": null, "gamma_regularizer": null, "beta_constraint": null, "gamma_constraint": null}, "inbound_nodes": [[["497", 0, 0, {}]]]}, {"name": "499", "class_name": "Add", "config": {"name": "499", "trainable": true, "dtype": "float32"}, "inbound_nodes": [[["498", 0, 0, {}], ["490", 0, 0, {}]]]}, {"name": "500", "class_name": "Activation", "config": {"name": "500", "trainable": true, "dtype": "float32", "activation": "relu"}, "inbound_nodes": [[["499", 0, 0, {}]]]}, {"name": "501", "class_name": "Conv2D", "config": {"name": "501", "trainable": true, "dtype": "float32", "filters": 512, "kernel_size": [1, 1], "strides": [1, 1], "padding": "valid", "data_format": "channels_first", "dilation_rate": [1, 1], "activation": "linear", "use_bias": false, "kernel_initializer": {"class_name": "Zeros", "config": {"dtype": "float32"}}, "bias_initializer": {"class_name": "Zeros", "config": {"dtype": "float32"}}, "kernel_regularizer": null, "bias_regularizer": null, "activity_regularizer": null, "kernel_constraint": null, "bias_constraint": null}, "inbound_nodes": [[["500", 0, 0, {}]]]}, {"name": "502", "class_name": "BatchNormalization", "config": {"name": "502", "trainable": true, "dtype": "float32", "axis": [1], "momentum": 0.8999999761581421, "epsilon": 9.999999747378752e-06, "center": true, "scale": true, "beta_initializer": {"class_name": "Zeros", "config": {"dtype": "float32"}}, "gamma_initializer": {"class_name": "Ones", "config": {"dtype": "float32"}}, "moving_mean_initializer": {"class_name": "Zeros", "config": {"dtype": "float32"}}, "moving_variance_initializer": {"class_name": "Ones", "config": {"dtype": "float32"}}, "beta_regularizer": null, "gamma_regularizer": null, "beta_constraint": null, "gamma_constraint": null}, "inbound_nodes": [[["501", 0, 0, {}]]]}, {"name": "503", "class_name": "Activation", "config": {"name": "503", "trainable": true, "dtype": "float32", "activation": "relu"}, "inbound_nodes": [[["502", 0, 0, {}]]]}, {"name": "504_pad", "class_name": "ZeroPadding2D", "config": {"name": "504_pad", "trainable": true, "dtype": "float32", "padding": [[1, 1], [1, 1]], "data_format": "channels_first"}, "inbound_nodes": [[["503", 0, 0, {}]]]}, {"name": "504", "class_name": "Conv2D", "config": {"name": "504", "trainable": true, "dtype": "float32", "filters": 512, "kernel_size": [3, 3], "strides": [1, 1], "padding": "valid", "data_format": "channels_first", "dilation_rate": [1, 1], "activation": "linear", "use_bias": false, "kernel_initializer": {"class_name": "Zeros", "config": {"dtype": "float32"}}, "bias_initializer": {"class_name": "Zeros", "config": {"dtype": "float32"}}, "kernel_regularizer": null, "bias_regularizer": null, "activity_regularizer": null, "kernel_constraint": null, "bias_constraint": null}, "inbound_nodes": [[["504_pad", 0, 0, {}]]]}, {"name": "505", "class_name": "BatchNormalization", "config": {"name": "505", "trainable": true, "dtype": "float32", "axis": [1], "momentum": 0.8999999761581421, "epsilon": 9.999999747378752e-06, "center": true, "scale": true, "beta_initializer": {"class_name": "Zeros", "config": {"dtype": "float32"}}, "gamma_initializer": {"class_name": "Ones", "config": {"dtype": "float32"}}, "moving_mean_initializer": {"class_name": "Zeros", "config": {"dtype": "float32"}}, "moving_variance_initializer": {"class_name": "Ones", "config": {"dtype": "float32"}}, "beta_regularizer": null, "gamma_regularizer": null, "beta_constraint": null, "gamma_constraint": null}, "inbound_nodes": [[["504", 0, 0, {}]]]}, {"name": "506", "class_name": "Activation", "config": {"name": "506", "trainable": true, "dtype": "float32", "activation": "relu"}, "inbound_nodes": [[["505", 0, 0, {}]]]}, {"name": "507", "class_name": "Conv2D", "config": {"name": "507", "trainable": true, "dtype": "float32", "filters": 2048, "kernel_size": [1, 1], "strides": [1, 1], "padding": "valid", "data_format": "channels_first", "dilation_rate": [1, 1], "activation": "linear", "use_bias": false, "kernel_initializer": {"class_name": "Zeros", "config": {"dtype": "float32"}}, "bias_initializer": {"class_name": "Zeros", "config": {"dtype": "float32"}}, "kernel_regularizer": null, "bias_regularizer": null, "activity_regularizer": null, "kernel_constraint": null, "bias_constraint": null}, "inbound_nodes": [[["506", 0, 0, {}]]]}, {"name": "508", "class_name": "BatchNormalization", "config": {"name": "508", "trainable": true, "dtype": "float32", "axis": [1], "momentum": 0.8999999761581421, "epsilon": 9.999999747378752e-06, "center": true, "scale": true, "beta_initializer": {"class_name": "Zeros", "config": {"dtype": "float32"}}, "gamma_initializer": {"class_name": "Ones", "config": {"dtype": "float32"}}, "moving_mean_initializer": {"class_name": "Zeros", "config": {"dtype": "float32"}}, "moving_variance_initializer": {"class_name": "Ones", "config": {"dtype": "float32"}}, "beta_regularizer": null, "gamma_regularizer": null, "beta_constraint": null, "gamma_constraint": null}, "inbound_nodes": [[["507", 0, 0, {}]]]}, {"name": "509", "class_name": "Add", "config": {"name": "509", "trainable": true, "dtype": "float32"}, "inbound_nodes": [[["508", 0, 0, {}], ["500", 0, 0, {}]]]}, {"name": "510", "class_name": "Activation", "config": {"name": "510", "trainable": true, "dtype": "float32", "activation": "relu"}, "inbound_nodes": [[["509", 0, 0, {}]]]}, {"name": "514_pad", "class_name": "ZeroPadding2D", "config": {"name": "514_pad", "trainable": true, "dtype": "float32", "padding": [[1, 1], [1, 1]], "data_format": "channels_first"}, "inbound_nodes": [[["510", 0, 0, {}]]]}, {"name": "514", "class_name": "Conv2D", "config": {"name": "514", "trainable": true, "dtype": "float32", "filters": 256, "kernel_size": [3, 3], "strides": [1, 1], "padding": "valid", "data_format": "channels_first", "dilation_rate": [1, 1], "activation": "linear", "use_bias": false, "kernel_initializer": {"class_name": "Zeros", "config": {"dtype": "float32"}}, "bias_initializer": {"class_name": "Zeros", "config": {"dtype": "float32"}}, "kernel_regularizer": null, "bias_regularizer": null, "activity_regularizer": null, "kernel_constraint": null, "bias_constraint": null}, "inbound_nodes": [[["514_pad", 0, 0, {}]]]}, {"name": "513_pad", "class_name": "ZeroPadding2D", "config": {"name": "513_pad", "trainable": true, "dtype": "float32", "padding": [[1, 1], [1, 1]], "data_format": "channels_first"}, "inbound_nodes": [[["478", 0, 0, {}]]]}, {"name": "515", "class_name": "Activation", "config": {"name": "515", "trainable": true, "dtype": "float32", "activation": "relu"}, "inbound_nodes": [[["514", 0, 0, {}]]]}, {"name": "513", "class_name": "Conv2D", "config": {"name": "513", "trainable": true, "dtype": "float32", "filters": 256, "kernel_size": [3, 3], "strides": [1, 1], "padding": "valid", "data_format": "channels_first", "dilation_rate": [1, 1], "activation": "linear", "use_bias": false, "kernel_initializer": {"class_name": "Zeros", "config": {"dtype": "float32"}}, "bias_initializer": {"class_name": "Zeros", "config": {"dtype": "float32"}}, "kernel_regularizer": null, "bias_regularizer": null, "activity_regularizer": null, "kernel_constraint": null, "bias_constraint": null}, "inbound_nodes": [[["513_pad", 0, 0, {}]]]}, {"name": "516_pad", "class_name": "ZeroPadding2D", "config": {"name": "516_pad", "trainable": true, "dtype": "float32", "padding": [[1, 1], [1, 1]], "data_format": "channels_first"}, "inbound_nodes": [[["515", 0, 0, {}]]]}, {"name": "547", "class_name": "Activation", "config": {"name": "547", "trainable": true, "dtype": "float32", "activation": "relu"}, "inbound_nodes": [[["513", 0, 0, {}]]]}, {"name": "516", "class_name": "Conv2D", "config": {"name": "516", "trainable": true, "dtype": "float32", "filters": 256, "kernel_size": [3, 3], "strides": [1, 1], "padding": "valid", "data_format": "channels_first", "dilation_rate": [1, 1], "activation": "linear", "use_bias": true, "kernel_initializer": {"class_name": "Zeros", "config": {"dtype": "float32"}}, "bias_initializer": {"class_name": "Zeros", "config": {"dtype": "float32"}}, "kernel_regularizer": null, "bias_regularizer": null, "activity_regularizer": null, "kernel_constraint": null, "bias_constraint": null}, "inbound_nodes": [[["516_pad", 0, 0, {}]]]}, {"name": "548_pad", "class_name": "ZeroPadding2D", "config": {"name": "548_pad", "trainable": true, "dtype": "float32", "padding": [[1, 1], [1, 1]], "data_format": "channels_first"}, "inbound_nodes": [[["547", 0, 0, {}]]]}, {"name": "517", "class_name": "Activation", "config": {"name": "517", "trainable": true, "dtype": "float32", "activation": "relu"}, "inbound_nodes": [[["516", 0, 0, {}]]]}, {"name": "548", "class_name": "Conv2D", "config": {"name": "548", "trainable": true, "dtype": "float32", "filters": 256, "kernel_size": [3, 3], "strides": [1, 1], "padding": "valid", "data_format": "channels_first", "dilation_rate": [1, 1], "activation": "linear", "use_bias": true, "kernel_initializer": {"class_name": "Zeros", "config": {"dtype": "float32"}}, "bias_initializer": {"class_name": "Zeros", "config": {"dtype": "float32"}}, "kernel_regularizer": null, "bias_regularizer": null, "activity_regularizer": null, "kernel_constraint": null, "bias_constraint": null}, "inbound_nodes": [[["548_pad", 0, 0, {}]]]}, {"name": "518_pad", "class_name": "ZeroPadding2D", "config": {"name": "518_pad", "trainable": true, "dtype": "float32", "padding": [[1, 1], [1, 1]], "data_format": "channels_first"}, "inbound_nodes": [[["517", 0, 0, {}]]]}, {"name": "549", "class_name": "Activation", "config": {"name": "549", "trainable": true, "dtype": "float32", "activation": "relu"}, "inbound_nodes": [[["548", 0, 0, {}]]]}, {"name": "518", "class_name": "Conv2D", "config": {"name": "518", "trainable": true, "dtype": "float32", "filters": 256, "kernel_size": [3, 3], "strides": [1, 1], "padding": "valid", "data_format": "channels_first", "dilation_rate": [1, 1], "activation": "linear", "use_bias": false, "kernel_initializer": {"class_name": "Zeros", "config": {"dtype": "float32"}}, "bias_initializer": {"class_name": "Zeros", "config": {"dtype": "float32"}}, "kernel_regularizer": null, "bias_regularizer": null, "activity_regularizer": null, "kernel_constraint": null, "bias_constraint": null}, "inbound_nodes": [[["518_pad", 0, 0, {}]]]}, {"name": "550_pad", "class_name": "ZeroPadding2D", "config": {"name": "550_pad", "trainable": true, "dtype": "float32", "padding": [[1, 1], [1, 1]], "data_format": "channels_first"}, "inbound_nodes": [[["549", 0, 0, {}]]]}, {"name": "519", "class_name": "Add", "config": {"name": "519", "trainable": true, "dtype": "float32"}, "inbound_nodes": [[["518", 0, 0, {}], ["515", 0, 0, {}]]]}, {"name": "550", "class_name": "Conv2D", "config": {"name": "550", "trainable": true, "dtype": "float32", "filters": 256, "kernel_size": [3, 3], "strides": [1, 1], "padding": "valid", "data_format": "channels_first", "dilation_rate": [1, 1], "activation": "linear", "use_bias": false, "kernel_initializer": {"class_name": "Zeros", "config": {"dtype": "float32"}}, "bias_initializer": {"class_name": "Zeros", "config": {"dtype": "float32"}}, "kernel_regularizer": null, "bias_regularizer": null, "activity_regularizer": null, "kernel_constraint": null, "bias_constraint": null}, "inbound_nodes": [[["550_pad", 0, 0, {}]]]}, {"name": "546", "class_name": "UpSampling2D", "config": {"name": "546", "trainable": true, "dtype": "float32", "size": [2, 2], "data_format": "channels_first", "interpolation": "nearest"}, "inbound_nodes": [[["519", 0, 0, {}]]]}, {"name": "551", "class_name": "Add", "config": {"name": "551", "trainable": true, "dtype": "float32"}, "inbound_nodes": [[["550", 0, 0, {}], ["547", 0, 0, {}]]]}, {"name": "552", "class_name": "Add", "config": {"name": "552", "trainable": true, "dtype": "float32"}, "inbound_nodes": [[["546", 0, 0, {}], ["551", 0, 0, {}]]]}, {"name": "512_pad", "class_name": "ZeroPadding2D", "config": {"name": "512_pad", "trainable": true, "dtype": "float32", "padding": [[1, 1], [1, 1]], "data_format": "channels_first"}, "inbound_nodes": [[["416", 0, 0, {}]]]}, {"name": "553", "class_name": "Activation", "config": {"name": "553", "trainable": true, "dtype": "float32", "activation": "relu"}, "inbound_nodes": [[["552", 0, 0, {}]]]}, {"name": "512", "class_name": "Conv2D", "config": {"name": "512", "trainable": true, "dtype": "float32", "filters": 256, "kernel_size": [3, 3], "strides": [1, 1], "padding": "valid", "data_format": "channels_first", "dilation_rate": [1, 1], "activation": "linear", "use_bias": false, "kernel_initializer": {"class_name": "Zeros", "config": {"dtype": "float32"}}, "bias_initializer": {"class_name": "Zeros", "config": {"dtype": "float32"}}, "kernel_regularizer": null, "bias_regularizer": null, "activity_regularizer": null, "kernel_constraint": null, "bias_constraint": null}, "inbound_nodes": [[["512_pad", 0, 0, {}]]]}, {"name": "554_pad", "class_name": "ZeroPadding2D", "config": {"name": "554_pad", "trainable": true, "dtype": "float32", "padding": [[1, 1], [1, 1]], "data_format": "channels_first"}, "inbound_nodes": [[["553", 0, 0, {}]]]}, {"name": "585", "class_name": "Activation", "config": {"name": "585", "trainable": true, "dtype": "float32", "activation": "relu"}, "inbound_nodes": [[["512", 0, 0, {}]]]}, {"name": "554", "class_name": "Conv2D", "config": {"name": "554", "trainable": true, "dtype": "float32", "filters": 256, "kernel_size": [3, 3], "strides": [1, 1], "padding": "valid", "data_format": "channels_first", "dilation_rate": [1, 1], "activation": "linear", "use_bias": true, "kernel_initializer": {"class_name": "Zeros", "config": {"dtype": "float32"}}, "bias_initializer": {"class_name": "Zeros", "config": {"dtype": "float32"}}, "kernel_regularizer": null, "bias_regularizer": null, "activity_regularizer": null, "kernel_constraint": null, "bias_constraint": null}, "inbound_nodes": [[["554_pad", 0, 0, {}]]]}, {"name": "586_pad", "class_name": "ZeroPadding2D", "config": {"name": "586_pad", "trainable": true, "dtype": "float32", "padding": [[1, 1], [1, 1]], "data_format": "channels_first"}, "inbound_nodes": [[["585", 0, 0, {}]]]}, {"name": "555", "class_name": "Activation", "config": {"name": "555", "trainable": true, "dtype": "float32", "activation": "relu"}, "inbound_nodes": [[["554", 0, 0, {}]]]}, {"name": "586", "class_name": "Conv2D", "config": {"name": "586", "trainable": true, "dtype": "float32", "filters": 256, "kernel_size": [3, 3], "strides": [1, 1], "padding": "valid", "data_format": "channels_first", "dilation_rate": [1, 1], "activation": "linear", "use_bias": true, "kernel_initializer": {"class_name": "Zeros", "config": {"dtype": "float32"}}, "bias_initializer": {"class_name": "Zeros", "config": {"dtype": "float32"}}, "kernel_regularizer": null, "bias_regularizer": null, "activity_regularizer": null, "kernel_constraint": null, "bias_constraint": null}, "inbound_nodes": [[["586_pad", 0, 0, {}]]]}, {"name": "556_pad", "class_name": "ZeroPadding2D", "config": {"name": "556_pad", "trainable": true, "dtype": "float32", "padding": [[1, 1], [1, 1]], "data_format": "channels_first"}, "inbound_nodes": [[["555", 0, 0, {}]]]}, {"name": "587", "class_name": "Activation", "config": {"name": "587", "trainable": true, "dtype": "float32", "activation": "relu"}, "inbound_nodes": [[["586", 0, 0, {}]]]}, {"name": "556", "class_name": "Conv2D", "config": {"name": "556", "trainable": true, "dtype": "float32", "filters": 256, "kernel_size": [3, 3], "strides": [1, 1], "padding": "valid", "data_format": "channels_first", "dilation_rate": [1, 1], "activation": "linear", "use_bias": false, "kernel_initializer": {"class_name": "Zeros", "config": {"dtype": "float32"}}, "bias_initializer": {"class_name": "Zeros", "config": {"dtype": "float32"}}, "kernel_regularizer": null, "bias_regularizer": null, "activity_regularizer": null, "kernel_constraint": null, "bias_constraint": null}, "inbound_nodes": [[["556_pad", 0, 0, {}]]]}, {"name": "588_pad", "class_name": "ZeroPadding2D", "config": {"name": "588_pad", "trainable": true, "dtype": "float32", "padding": [[1, 1], [1, 1]], "data_format": "channels_first"}, "inbound_nodes": [[["587", 0, 0, {}]]]}, {"name": "557", "class_name": "Add", "config": {"name": "557", "trainable": true, "dtype": "float32"}, "inbound_nodes": [[["556", 0, 0, {}], ["553", 0, 0, {}]]]}, {"name": "588", "class_name": "Conv2D", "config": {"name": "588", "trainable": true, "dtype": "float32", "filters": 256, "kernel_size": [3, 3], "strides": [1, 1], "padding": "valid", "data_format": "channels_first", "dilation_rate": [1, 1], "activation": "linear", "use_bias": false, "kernel_initializer": {"class_name": "Zeros", "config": {"dtype": "float32"}}, "bias_initializer": {"class_name": "Zeros", "config": {"dtype": "float32"}}, "kernel_regularizer": null, "bias_regularizer": null, "activity_regularizer": null, "kernel_constraint": null, "bias_constraint": null}, "inbound_nodes": [[["588_pad", 0, 0, {}]]]}, {"name": "584", "class_name": "UpSampling2D", "config": {"name": "584", "trainable": true, "dtype": "float32", "size": [2, 2], "data_format": "channels_first", "interpolation": "nearest"}, "inbound_nodes": [[["557", 0, 0, {}]]]}, {"name": "589", "class_name": "Add", "config": {"name": "589", "trainable": true, "dtype": "float32"}, "inbound_nodes": [[["588", 0, 0, {}], ["585", 0, 0, {}]]]}, {"name": "590", "class_name": "Add", "config": {"name": "590", "trainable": true, "dtype": "float32"}, "inbound_nodes": [[["584", 0, 0, {}], ["589", 0, 0, {}]]]}, {"name": "511_pad", "class_name": "ZeroPadding2D", "config": {"name": "511_pad", "trainable": true, "dtype": "float32", "padding": [[1, 1], [1, 1]], "data_format": "channels_first"}, "inbound_nodes": [[["374", 0, 0, {}]]]}, {"name": "591", "class_name": "Activation", "config": {"name": "591", "trainable": true, "dtype": "float32", "activation": "relu"}, "inbound_nodes": [[["590", 0, 0, {}]]]}, {"name": "511", "class_name": "Conv2D", "config": {"name": "511", "trainable": true, "dtype": "float32", "filters": 256, "kernel_size": [3, 3], "strides": [1, 1], "padding": "valid", "data_format": "channels_first", "dilation_rate": [1, 1], "activation": "linear", "use_bias": false, "kernel_initializer": {"class_name": "Zeros", "config": {"dtype": "float32"}}, "bias_initializer": {"class_name": "Zeros", "config": {"dtype": "float32"}}, "kernel_regularizer": null, "bias_regularizer": null, "activity_regularizer": null, "kernel_constraint": null, "bias_constraint": null}, "inbound_nodes": [[["511_pad", 0, 0, {}]]]}, {"name": "592_pad", "class_name": "ZeroPadding2D", "config": {"name": "592_pad", "trainable": true, "dtype": "float32", "padding": [[1, 1], [1, 1]], "data_format": "channels_first"}, "inbound_nodes": [[["591", 0, 0, {}]]]}, {"name": "623", "class_name": "Activation", "config": {"name": "623", "trainable": true, "dtype": "float32", "activation": "relu"}, "inbound_nodes": [[["511", 0, 0, {}]]]}, {"name": "592", "class_name": "Conv2D", "config": {"name": "592", "trainable": true, "dtype": "float32", "filters": 256, "kernel_size": [3, 3], "strides": [1, 1], "padding": "valid", "data_format": "channels_first", "dilation_rate": [1, 1], "activation": "linear", "use_bias": true, "kernel_initializer": {"class_name": "Zeros", "config": {"dtype": "float32"}}, "bias_initializer": {"class_name": "Zeros", "config": {"dtype": "float32"}}, "kernel_regularizer": null, "bias_regularizer": null, "activity_regularizer": null, "kernel_constraint": null, "bias_constraint": null}, "inbound_nodes": [[["592_pad", 0, 0, {}]]]}, {"name": "624_pad", "class_name": "ZeroPadding2D", "config": {"name": "624_pad", "trainable": true, "dtype": "float32", "padding": [[1, 1], [1, 1]], "data_format": "channels_first"}, "inbound_nodes": [[["623", 0, 0, {}]]]}, {"name": "593", "class_name": "Activation", "config": {"name": "593", "trainable": true, "dtype": "float32", "activation": "relu"}, "inbound_nodes": [[["592", 0, 0, {}]]]}, {"name": "624", "class_name": "Conv2D", "config": {"name": "624", "trainable": true, "dtype": "float32", "filters": 256, "kernel_size": [3, 3], "strides": [1, 1], "padding": "valid", "data_format": "channels_first", "dilation_rate": [1, 1], "activation": "linear", "use_bias": true, "kernel_initializer": {"class_name": "Zeros", "config": {"dtype": "float32"}}, "bias_initializer": {"class_name": "Zeros", "config": {"dtype": "float32"}}, "kernel_regularizer": null, "bias_regularizer": null, "activity_regularizer": null, "kernel_constraint": null, "bias_constraint": null}, "inbound_nodes": [[["624_pad", 0, 0, {}]]]}, {"name": "594_pad", "class_name": "ZeroPadding2D", "config": {"name": "594_pad", "trainable": true, "dtype": "float32", "padding": [[1, 1], [1, 1]], "data_format": "channels_first"}, "inbound_nodes": [[["593", 0, 0, {}]]]}, {"name": "625", "class_name": "Activation", "config": {"name": "625", "trainable": true, "dtype": "float32", "activation": "relu"}, "inbound_nodes": [[["624", 0, 0, {}]]]}, {"name": "594", "class_name": "Conv2D", "config": {"name": "594", "trainable": true, "dtype": "float32", "filters": 256, "kernel_size": [3, 3], "strides": [1, 1], "padding": "valid", "data_format": "channels_first", "dilation_rate": [1, 1], "activation": "linear", "use_bias": false, "kernel_initializer": {"class_name": "Zeros", "config": {"dtype": "float32"}}, "bias_initializer": {"class_name": "Zeros", "config": {"dtype": "float32"}}, "kernel_regularizer": null, "bias_regularizer": null, "activity_regularizer": null, "kernel_constraint": null, "bias_constraint": null}, "inbound_nodes": [[["594_pad", 0, 0, {}]]]}, {"name": "626_pad", "class_name": "ZeroPadding2D", "config": {"name": "626_pad", "trainable": true, "dtype": "float32", "padding": [[1, 1], [1, 1]], "data_format": "channels_first"}, "inbound_nodes": [[["625", 0, 0, {}]]]}, {"name": "595", "class_name": "Add", "config": {"name": "595", "trainable": true, "dtype": "float32"}, "inbound_nodes": [[["594", 0, 0, {}], ["591", 0, 0, {}]]]}, {"name": "626", "class_name": "Conv2D", "config": {"name": "626", "trainable": true, "dtype": "float32", "filters": 256, "kernel_size": [3, 3], "strides": [1, 1], "padding": "valid", "data_format": "channels_first", "dilation_rate": [1, 1], "activation": "linear", "use_bias": false, "kernel_initializer": {"class_name": "Zeros", "config": {"dtype": "float32"}}, "bias_initializer": {"class_name": "Zeros", "config": {"dtype": "float32"}}, "kernel_regularizer": null, "bias_regularizer": null, "activity_regularizer": null, "kernel_constraint": null, "bias_constraint": null}, "inbound_nodes": [[["626_pad", 0, 0, {}]]]}, {"name": "622", "class_name": "UpSampling2D", "config": {"name": "622", "trainable": true, "dtype": "float32", "size": [2, 2], "data_format": "channels_first", "interpolation": "nearest"}, "inbound_nodes": [[["595", 0, 0, {}]]]}, {"name": "627", "class_name": "Add", "config": {"name": "627", "trainable": true, "dtype": "float32"}, "inbound_nodes": [[["626", 0, 0, {}], ["623", 0, 0, {}]]]}, {"name": "628", "class_name": "Add", "config": {"name": "628", "trainable": true, "dtype": "float32"}, "inbound_nodes": [[["622", 0, 0, {}], ["627", 0, 0, {}]]]}, {"name": "629", "class_name": "Activation", "config": {"name": "629", "trainable": true, "dtype": "float32", "activation": "relu"}, "inbound_nodes": [[["628", 0, 0, {}]]]}, {"name": "630_pad", "class_name": "ZeroPadding2D", "config": {"name": "630_pad", "trainable": true, "dtype": "float32", "padding": [[1, 1], [1, 1]], "data_format": "channels_first"}, "inbound_nodes": [[["629", 0, 0, {}]]]}, {"name": "630", "class_name": "Conv2D", "config": {"name": "630", "trainable": true, "dtype": "float32", "filters": 256, "kernel_size": [3, 3], "strides": [1, 1], "padding": "valid", "data_format": "channels_first", "dilation_rate": [1, 1], "activation": "linear", "use_bias": true, "kernel_initializer": {"class_name": "Zeros", "config": {"dtype": "float32"}}, "bias_initializer": {"class_name": "Zeros", "config": {"dtype": "float32"}}, "kernel_regularizer": null, "bias_regularizer": null, "activity_regularizer": null, "kernel_constraint": null, "bias_constraint": null}, "inbound_nodes": [[["630_pad", 0, 0, {}]]]}, {"name": "631", "class_name": "Activation", "config": {"name": "631", "trainable": true, "dtype": "float32", "activation": "relu"}, "inbound_nodes": [[["630", 0, 0, {}]]]}, {"name": "632_pad", "class_name": "ZeroPadding2D", "config": {"name": "632_pad", "trainable": true, "dtype": "float32", "padding": [[1, 1], [1, 1]], "data_format": "channels_first"}, "inbound_nodes": [[["631", 0, 0, {}]]]}, {"name": "632", "class_name": "Conv2D", "config": {"name": "632", "trainable": true, "dtype": "float32", "filters": 256, "kernel_size": [3, 3], "strides": [1, 1], "padding": "valid", "data_format": "channels_first", "dilation_rate": [1, 1], "activation": "linear", "use_bias": false, "kernel_initializer": {"class_name": "Zeros", "config": {"dtype": "float32"}}, "bias_initializer": {"class_name": "Zeros", "config": {"dtype": "float32"}}, "kernel_regularizer": null, "bias_regularizer": null, "activity_regularizer": null, "kernel_constraint": null, "bias_constraint": null}, "inbound_nodes": [[["632_pad", 0, 0, {}]]]}, {"name": "633", "class_name": "Add", "config": {"name": "633", "trainable": true, "dtype": "float32"}, "inbound_nodes": [[["632", 0, 0, {}], ["629", 0, 0, {}]]]}, {"name": "660", "class_name": "UpSampling2D", "config": {"name": "660", "trainable": true, "dtype": "float32", "size": [2, 2], "data_format": "channels_first", "interpolation": "nearest"}, "inbound_nodes": [[["633", 0, 0, {}]]]}, {"name": "661_pad", "class_name": "ZeroPadding2D", "config": {"name": "661_pad", "trainable": true, "dtype": "float32", "padding": [[1, 1], [1, 1]], "data_format": "channels_first"}, "inbound_nodes": [[["660", 0, 0, {}]]]}, {"name": "661", "class_name": "Conv2D", "config": {"name": "661", "trainable": true, "dtype": "float32", "filters": 128, "kernel_size": [3, 3], "strides": [1, 1], "padding": "valid", "data_format": "channels_first", "dilation_rate": [1, 1], "activation": "linear", "use_bias": true, "kernel_initializer": {"class_name": "Zeros", "config": {"dtype": "float32"}}, "bias_initializer": {"class_name": "Zeros", "config": {"dtype": "float32"}}, "kernel_regularizer": null, "bias_regularizer": null, "activity_regularizer": null, "kernel_constraint": null, "bias_constraint": null}, "inbound_nodes": [[["661_pad", 0, 0, {}]]]}, {"name": "662_pad", "class_name": "ZeroPadding2D", "config": {"name": "662_pad", "trainable": true, "dtype": "float32", "padding": [[1, 1], [1, 1]], "data_format": "channels_first"}, "inbound_nodes": [[["661", 0, 0, {}]]]}, {"name": "662", "class_name": "Conv2D", "config": {"name": "662", "trainable": true, "dtype": "float32", "filters": 1, "kernel_size": [3, 3], "strides": [1, 1], "padding": "valid", "data_format": "channels_first", "dilation_rate": [1, 1], "activation": "linear", "use_bias": true, "kernel_initializer": {"class_name": "Zeros", "config": {"dtype": "float32"}}, "bias_initializer": {"class_name": "Zeros", "config": {"dtype": "float32"}}, "kernel_regularizer": null, "bias_regularizer": null, "activity_regularizer": null, "kernel_constraint": null, "bias_constraint": null}, "inbound_nodes": [[["662_pad", 0, 0, {}]]]}, {"name": "output_0", "class_name": "UpSampling2D", "config": {"name": "output_0", "trainable": true, "dtype": "float32", "size": [2, 2], "data_format": "channels_first", "interpolation": "nearest"}, "inbound_nodes": [[["662", 0, 0, {}]]]}], "input_layers": [["input_0", 0, 0]], "output_layers": [["output_0", 0, 0]]}}}, "weightsManifest": [{"paths": ["group1-shard1of40.bin", "group1-shard2of40.bin", "group1-shard3of40.bin", "group1-shard4of40.bin", "group1-shard5of40.bin", "group1-shard6of40.bin", "group1-shard7of40.bin", "group1-shard8of40.bin", "group1-shard9of40.bin", "group1-shard10of40.bin", "group1-shard11of40.bin", "group1-shard12of40.bin", "group1-shard13of40.bin", "group1-shard14of40.bin", "group1-shard15of40.bin", "group1-shard16of40.bin", "group1-shard17of40.bin", "group1-shard18of40.bin", "group1-shard19of40.bin", "group1-shard20of40.bin", "group1-shard21of40.bin", "group1-shard22of40.bin", "group1-shard23of40.bin", "group1-shard24of40.bin", "group1-shard25of40.bin", "group1-shard26of40.bin", "group1-shard27of40.bin", "group1-shard28of40.bin", "group1-shard29of40.bin", "group1-shard30of40.bin", "group1-shard31of40.bin", "group1-shard32of40.bin", "group1-shard33of40.bin", "group1-shard34of40.bin", "group1-shard35of40.bin", "group1-shard36of40.bin", "group1-shard37of40.bin", "group1-shard38of40.bin", "group1-shard39of40.bin", "group1-shard40of40.bin"], "weights": [{"name": "339/kernel", "shape": [7, 7, 3, 64], "dtype": "float32"}, {"name": "340/gamma", "shape": [64], "dtype": "float32"}, {"name": "340/beta", "shape": [64], "dtype": "float32"}, {"name": "340/moving_mean", "shape": [64], "dtype": "float32"}, {"name": "340/moving_variance", "shape": [64], "dtype": "float32"}, {"name": "343/kernel", "shape": [1, 1, 64, 64], "dtype": "float32"}, {"name": "344/gamma", "shape": [64], "dtype": "float32"}, {"name": "344/beta", "shape": [64], "dtype": "float32"}, {"name": "344/moving_mean", "shape": [64], "dtype": "float32"}, {"name": "344/moving_variance", "shape": [64], "dtype": "float32"}, {"name": "346/kernel", "shape": [3, 3, 64, 64], "dtype": "float32"}, {"name": "347/gamma", "shape": [64], "dtype": "float32"}, {"name": "347/beta", "shape": [64], "dtype": "float32"}, {"name": "347/moving_mean", "shape": [64], "dtype": "float32"}, {"name": "347/moving_variance", "shape": [64], "dtype": "float32"}, {"name": "349/kernel", "shape": [1, 1, 64, 256], "dtype": "float32"}, {"name": "350/gamma", "shape": [256], "dtype": "float32"}, {"name": "350/beta", "shape": [256], "dtype": "float32"}, {"name": "350/moving_mean", "shape": [256], "dtype": "float32"}, {"name": "350/moving_variance", "shape": [256], "dtype": "float32"}, {"name": "351/kernel", "shape": [1, 1, 64, 256], "dtype": "float32"}, {"name": "352/gamma", "shape": [256], "dtype": "float32"}, {"name": "352/beta", "shape": [256], "dtype": "float32"}, {"name": "352/moving_mean", "shape": [256], "dtype": "float32"}, {"name": "352/moving_variance", "shape": [256], "dtype": "float32"}, {"name": "355/kernel", "shape": [1, 1, 256, 64], "dtype": "float32"}, {"name": "356/gamma", "shape": [64], "dtype": "float32"}, {"name": "356/beta", "shape": [64], "dtype": "float32"}, {"name": "356/moving_mean", "shape": [64], "dtype": "float32"}, {"name": "356/moving_variance", "shape": [64], "dtype": "float32"}, {"name": "358/kernel", "shape": [3, 3, 64, 64], "dtype": "float32"}, {"name": "359/gamma", "shape": [64], "dtype": "float32"}, {"name": "359/beta", "shape": [64], "dtype": "float32"}, {"name": "359/moving_mean", "shape": [64], "dtype": "float32"}, {"name": "359/moving_variance", "shape": [64], "dtype": "float32"}, {"name": "361/kernel", "shape": [1, 1, 64, 256], "dtype": "float32"}, {"name": "362/gamma", "shape": [256], "dtype": "float32"}, {"name": "362/beta", "shape": [256], "dtype": "float32"}, {"name": "362/moving_mean", "shape": [256], "dtype": "float32"}, {"name": "362/moving_variance", "shape": [256], "dtype": "float32"}, {"name": "365/kernel", "shape": [1, 1, 256, 64], "dtype": "float32"}, {"name": "366/gamma", "shape": [64], "dtype": "float32"}, {"name": "366/beta", "shape": [64], "dtype": "float32"}, {"name": "366/moving_mean", "shape": [64], "dtype": "float32"}, {"name": "366/moving_variance", "shape": [64], "dtype": "float32"}, {"name": "368/kernel", "shape": [3, 3, 64, 64], "dtype": "float32"}, {"name": "369/gamma", "shape": [64], "dtype": "float32"}, {"name": "369/beta", "shape": [64], "dtype": "float32"}, {"name": "369/moving_mean", "shape": [64], "dtype": "float32"}, {"name": "369/moving_variance", "shape": [64], "dtype": "float32"}, {"name": "371/kernel", "shape": [1, 1, 64, 256], "dtype": "float32"}, {"name": "372/gamma", "shape": [256], "dtype": "float32"}, {"name": "372/beta", "shape": [256], "dtype": "float32"}, {"name": "372/moving_mean", "shape": [256], "dtype": "float32"}, {"name": "372/moving_variance", "shape": [256], "dtype": "float32"}, {"name": "375/kernel", "shape": [1, 1, 256, 128], "dtype": "float32"}, {"name": "376/gamma", "shape": [128], "dtype": "float32"}, {"name": "376/beta", "shape": [128], "dtype": "float32"}, {"name": "376/moving_mean", "shape": [128], "dtype": "float32"}, {"name": "376/moving_variance", "shape": [128], "dtype": "float32"}, {"name": "378/kernel", "shape": [3, 3, 128, 128], "dtype": "float32"}, {"name": "379/gamma", "shape": [128], "dtype": "float32"}, {"name": "379/beta", "shape": [128], "dtype": "float32"}, {"name": "379/moving_mean", "shape": [128], "dtype": "float32"}, {"name": "379/moving_variance", "shape": [128], "dtype": "float32"}, {"name": "381/kernel", "shape": [1, 1, 128, 512], "dtype": "float32"}, {"name": "382/gamma", "shape": [512], "dtype": "float32"}, {"name": "382/beta", "shape": [512], "dtype": "float32"}, {"name": "382/moving_mean", "shape": [512], "dtype": "float32"}, {"name": "382/moving_variance", "shape": [512], "dtype": "float32"}, {"name": "383/kernel", "shape": [1, 1, 256, 512], "dtype": "float32"}, {"name": "384/gamma", "shape": [512], "dtype": "float32"}, {"name": "384/beta", "shape": [512], "dtype": "float32"}, {"name": "384/moving_mean", "shape": [512], "dtype": "float32"}, {"name": "384/moving_variance", "shape": [512], "dtype": "float32"}, {"name": "387/kernel", "shape": [1, 1, 512, 128], "dtype": "float32"}, {"name": "388/gamma", "shape": [128], "dtype": "float32"}, {"name": "388/beta", "shape": [128], "dtype": "float32"}, {"name": "388/moving_mean", "shape": [128], "dtype": "float32"}, {"name": "388/moving_variance", "shape": [128], "dtype": "float32"}, {"name": "390/kernel", "shape": [3, 3, 128, 128], "dtype": "float32"}, {"name": "391/gamma", "shape": [128], "dtype": "float32"}, {"name": "391/beta", "shape": [128], "dtype": "float32"}, {"name": "391/moving_mean", "shape": [128], "dtype": "float32"}, {"name": "391/moving_variance", "shape": [128], "dtype": "float32"}, {"name": "393/kernel", "shape": [1, 1, 128, 512], "dtype": "float32"}, {"name": "394/gamma", "shape": [512], "dtype": "float32"}, {"name": "394/beta", "shape": [512], "dtype": "float32"}, {"name": "394/moving_mean", "shape": [512], "dtype": "float32"}, {"name": "394/moving_variance", "shape": [512], "dtype": "float32"}, {"name": "397/kernel", "shape": [1, 1, 512, 128], "dtype": "float32"}, {"name": "398/gamma", "shape": [128], "dtype": "float32"}, {"name": "398/beta", "shape": [128], "dtype": "float32"}, {"name": "398/moving_mean", "shape": [128], "dtype": "float32"}, {"name": "398/moving_variance", "shape": [128], "dtype": "float32"}, {"name": "400/kernel", "shape": [3, 3, 128, 128], "dtype": "float32"}, {"name": "401/gamma", "shape": [128], "dtype": "float32"}, {"name": "401/beta", "shape": [128], "dtype": "float32"}, {"name": "401/moving_mean", "shape": [128], "dtype": "float32"}, {"name": "401/moving_variance", "shape": [128], "dtype": "float32"}, {"name": "403/kernel", "shape": [1, 1, 128, 512], "dtype": "float32"}, {"name": "404/gamma", "shape": [512], "dtype": "float32"}, {"name": "404/beta", "shape": [512], "dtype": "float32"}, {"name": "404/moving_mean", "shape": [512], "dtype": "float32"}, {"name": "404/moving_variance", "shape": [512], "dtype": "float32"}, {"name": "407/kernel", "shape": [1, 1, 512, 128], "dtype": "float32"}, {"name": "408/gamma", "shape": [128], "dtype": "float32"}, {"name": "408/beta", "shape": [128], "dtype": "float32"}, {"name": "408/moving_mean", "shape": [128], "dtype": "float32"}, {"name": "408/moving_variance", "shape": [128], "dtype": "float32"}, {"name": "410/kernel", "shape": [3, 3, 128, 128], "dtype": "float32"}, {"name": "411/gamma", "shape": [128], "dtype": "float32"}, {"name": "411/beta", "shape": [128], "dtype": "float32"}, {"name": "411/moving_mean", "shape": [128], "dtype": "float32"}, {"name": "411/moving_variance", "shape": [128], "dtype": "float32"}, {"name": "413/kernel", "shape": [1, 1, 128, 512], "dtype": "float32"}, {"name": "414/gamma", "shape": [512], "dtype": "float32"}, {"name": "414/beta", "shape": [512], "dtype": "float32"}, {"name": "414/moving_mean", "shape": [512], "dtype": "float32"}, {"name": "414/moving_variance", "shape": [512], "dtype": "float32"}, {"name": "417/kernel", "shape": [1, 1, 512, 256], "dtype": "float32"}, {"name": "418/gamma", "shape": [256], "dtype": "float32"}, {"name": "418/beta", "shape": [256], "dtype": "float32"}, {"name": "418/moving_mean", "shape": [256], "dtype": "float32"}, {"name": "418/moving_variance", "shape": [256], "dtype": "float32"}, {"name": "420/kernel", "shape": [3, 3, 256, 256], "dtype": "float32"}, {"name": "421/gamma", "shape": [256], "dtype": "float32"}, {"name": "421/beta", "shape": [256], "dtype": "float32"}, {"name": "421/moving_mean", "shape": [256], "dtype": "float32"}, {"name": "421/moving_variance", "shape": [256], "dtype": "float32"}, {"name": "423/kernel", "shape": [1, 1, 256, 1024], "dtype": "float32"}, {"name": "424/gamma", "shape": [1024], "dtype": "float32"}, {"name": "424/beta", "shape": [1024], "dtype": "float32"}, {"name": "424/moving_mean", "shape": [1024], "dtype": "float32"}, {"name": "424/moving_variance", "shape": [1024], "dtype": "float32"}, {"name": "425/kernel", "shape": [1, 1, 512, 1024], "dtype": "float32"}, {"name": "426/gamma", "shape": [1024], "dtype": "float32"}, {"name": "426/beta", "shape": [1024], "dtype": "float32"}, {"name": "426/moving_mean", "shape": [1024], "dtype": "float32"}, {"name": "426/moving_variance", "shape": [1024], "dtype": "float32"}, {"name": "429/kernel", "shape": [1, 1, 1024, 256], "dtype": "float32"}, {"name": "430/gamma", "shape": [256], "dtype": "float32"}, {"name": "430/beta", "shape": [256], "dtype": "float32"}, {"name": "430/moving_mean", "shape": [256], "dtype": "float32"}, {"name": "430/moving_variance", "shape": [256], "dtype": "float32"}, {"name": "432/kernel", "shape": [3, 3, 256, 256], "dtype": "float32"}, {"name": "433/gamma", "shape": [256], "dtype": "float32"}, {"name": "433/beta", "shape": [256], "dtype": "float32"}, {"name": "433/moving_mean", "shape": [256], "dtype": "float32"}, {"name": "433/moving_variance", "shape": [256], "dtype": "float32"}, {"name": "435/kernel", "shape": [1, 1, 256, 1024], "dtype": "float32"}, {"name": "436/gamma", "shape": [1024], "dtype": "float32"}, {"name": "436/beta", "shape": [1024], "dtype": "float32"}, {"name": "436/moving_mean", "shape": [1024], "dtype": "float32"}, {"name": "436/moving_variance", "shape": [1024], "dtype": "float32"}, {"name": "439/kernel", "shape": [1, 1, 1024, 256], "dtype": "float32"}, {"name": "440/gamma", "shape": [256], "dtype": "float32"}, {"name": "440/beta", "shape": [256], "dtype": "float32"}, {"name": "440/moving_mean", "shape": [256], "dtype": "float32"}, {"name": "440/moving_variance", "shape": [256], "dtype": "float32"}, {"name": "442/kernel", "shape": [3, 3, 256, 256], "dtype": "float32"}, {"name": "443/gamma", "shape": [256], "dtype": "float32"}, {"name": "443/beta", "shape": [256], "dtype": "float32"}, {"name": "443/moving_mean", "shape": [256], "dtype": "float32"}, {"name": "443/moving_variance", "shape": [256], "dtype": "float32"}, {"name": "445/kernel", "shape": [1, 1, 256, 1024], "dtype": "float32"}, {"name": "446/gamma", "shape": [1024], "dtype": "float32"}, {"name": "446/beta", "shape": [1024], "dtype": "float32"}, {"name": "446/moving_mean", "shape": [1024], "dtype": "float32"}, {"name": "446/moving_variance", "shape": [1024], "dtype": "float32"}, {"name": "449/kernel", "shape": [1, 1, 1024, 256], "dtype": "float32"}, {"name": "450/gamma", "shape": [256], "dtype": "float32"}, {"name": "450/beta", "shape": [256], "dtype": "float32"}, {"name": "450/moving_mean", "shape": [256], "dtype": "float32"}, {"name": "450/moving_variance", "shape": [256], "dtype": "float32"}, {"name": "452/kernel", "shape": [3, 3, 256, 256], "dtype": "float32"}, {"name": "453/gamma", "shape": [256], "dtype": "float32"}, {"name": "453/beta", "shape": [256], "dtype": "float32"}, {"name": "453/moving_mean", "shape": [256], "dtype": "float32"}, {"name": "453/moving_variance", "shape": [256], "dtype": "float32"}, {"name": "455/kernel", "shape": [1, 1, 256, 1024], "dtype": "float32"}, {"name": "456/gamma", "shape": [1024], "dtype": "float32"}, {"name": "456/beta", "shape": [1024], "dtype": "float32"}, {"name": "456/moving_mean", "shape": [1024], "dtype": "float32"}, {"name": "456/moving_variance", "shape": [1024], "dtype": "float32"}, {"name": "459/kernel", "shape": [1, 1, 1024, 256], "dtype": "float32"}, {"name": "460/gamma", "shape": [256], "dtype": "float32"}, {"name": "460/beta", "shape": [256], "dtype": "float32"}, {"name": "460/moving_mean", "shape": [256], "dtype": "float32"}, {"name": "460/moving_variance", "shape": [256], "dtype": "float32"}, {"name": "462/kernel", "shape": [3, 3, 256, 256], "dtype": "float32"}, {"name": "463/gamma", "shape": [256], "dtype": "float32"}, {"name": "463/beta", "shape": [256], "dtype": "float32"}, {"name": "463/moving_mean", "shape": [256], "dtype": "float32"}, {"name": "463/moving_variance", "shape": [256], "dtype": "float32"}, {"name": "465/kernel", "shape": [1, 1, 256, 1024], "dtype": "float32"}, {"name": "466/gamma", "shape": [1024], "dtype": "float32"}, {"name": "466/beta", "shape": [1024], "dtype": "float32"}, {"name": "466/moving_mean", "shape": [1024], "dtype": "float32"}, {"name": "466/moving_variance", "shape": [1024], "dtype": "float32"}, {"name": "469/kernel", "shape": [1, 1, 1024, 256], "dtype": "float32"}, {"name": "470/gamma", "shape": [256], "dtype": "float32"}, {"name": "470/beta", "shape": [256], "dtype": "float32"}, {"name": "470/moving_mean", "shape": [256], "dtype": "float32"}, {"name": "470/moving_variance", "shape": [256], "dtype": "float32"}, {"name": "472/kernel", "shape": [3, 3, 256, 256], "dtype": "float32"}, {"name": "473/gamma", "shape": [256], "dtype": "float32"}, {"name": "473/beta", "shape": [256], "dtype": "float32"}, {"name": "473/moving_mean", "shape": [256], "dtype": "float32"}, {"name": "473/moving_variance", "shape": [256], "dtype": "float32"}, {"name": "475/kernel", "shape": [1, 1, 256, 1024], "dtype": "float32"}, {"name": "476/gamma", "shape": [1024], "dtype": "float32"}, {"name": "476/beta", "shape": [1024], "dtype": "float32"}, {"name": "476/moving_mean", "shape": [1024], "dtype": "float32"}, {"name": "476/moving_variance", "shape": [1024], "dtype": "float32"}, {"name": "479/kernel", "shape": [1, 1, 1024, 512], "dtype": "float32"}, {"name": "480/gamma", "shape": [512], "dtype": "float32"}, {"name": "480/beta", "shape": [512], "dtype": "float32"}, {"name": "480/moving_mean", "shape": [512], "dtype": "float32"}, {"name": "480/moving_variance", "shape": [512], "dtype": "float32"}, {"name": "482/kernel", "shape": [3, 3, 512, 512], "dtype": "float32"}, {"name": "483/gamma", "shape": [512], "dtype": "float32"}, {"name": "483/beta", "shape": [512], "dtype": "float32"}, {"name": "483/moving_mean", "shape": [512], "dtype": "float32"}, {"name": "483/moving_variance", "shape": [512], "dtype": "float32"}, {"name": "485/kernel", "shape": [1, 1, 512, 2048], "dtype": "float32"}, {"name": "486/gamma", "shape": [2048], "dtype": "float32"}, {"name": "486/beta", "shape": [2048], "dtype": "float32"}, {"name": "486/moving_mean", "shape": [2048], "dtype": "float32"}, {"name": "486/moving_variance", "shape": [2048], "dtype": "float32"}, {"name": "487/kernel", "shape": [1, 1, 1024, 2048], "dtype": "float32"}, {"name": "488/gamma", "shape": [2048], "dtype": "float32"}, {"name": "488/beta", "shape": [2048], "dtype": "float32"}, {"name": "488/moving_mean", "shape": [2048], "dtype": "float32"}, {"name": "488/moving_variance", "shape": [2048], "dtype": "float32"}, {"name": "491/kernel", "shape": [1, 1, 2048, 512], "dtype": "float32"}, {"name": "492/gamma", "shape": [512], "dtype": "float32"}, {"name": "492/beta", "shape": [512], "dtype": "float32"}, {"name": "492/moving_mean", "shape": [512], "dtype": "float32"}, {"name": "492/moving_variance", "shape": [512], "dtype": "float32"}, {"name": "494/kernel", "shape": [3, 3, 512, 512], "dtype": "float32"}, {"name": "495/gamma", "shape": [512], "dtype": "float32"}, {"name": "495/beta", "shape": [512], "dtype": "float32"}, {"name": "495/moving_mean", "shape": [512], "dtype": "float32"}, {"name": "495/moving_variance", "shape": [512], "dtype": "float32"}, {"name": "497/kernel", "shape": [1, 1, 512, 2048], "dtype": "float32"}, {"name": "498/gamma", "shape": [2048], "dtype": "float32"}, {"name": "498/beta", "shape": [2048], "dtype": "float32"}, {"name": "498/moving_mean", "shape": [2048], "dtype": "float32"}, {"name": "498/moving_variance", "shape": [2048], "dtype": "float32"}, {"name": "501/kernel", "shape": [1, 1, 2048, 512], "dtype": "float32"}, {"name": "502/gamma", "shape": [512], "dtype": "float32"}, {"name": "502/beta", "shape": [512], "dtype": "float32"}, {"name": "502/moving_mean", "shape": [512], "dtype": "float32"}, {"name": "502/moving_variance", "shape": [512], "dtype": "float32"}, {"name": "504/kernel", "shape": [3, 3, 512, 512], "dtype": "float32"}, {"name": "505/gamma", "shape": [512], "dtype": "float32"}, {"name": "505/beta", "shape": [512], "dtype": "float32"}, {"name": "505/moving_mean", "shape": [512], "dtype": "float32"}, {"name": "505/moving_variance", "shape": [512], "dtype": "float32"}, {"name": "507/kernel", "shape": [1, 1, 512, 2048], "dtype": "float32"}, {"name": "508/gamma", "shape": [2048], "dtype": "float32"}, {"name": "508/beta", "shape": [2048], "dtype": "float32"}, {"name": "508/moving_mean", "shape": [2048], "dtype": "float32"}, {"name": "508/moving_variance", "shape": [2048], "dtype": "float32"}, {"name": "511/kernel", "shape": [3, 3, 256, 256], "dtype": "float32"}, {"name": "512/kernel", "shape": [3, 3, 512, 256], "dtype": "float32"}, {"name": "513/kernel", "shape": [3, 3, 1024, 256], "dtype": "float32"}, {"name": "514/kernel", "shape": [3, 3, 2048, 256], "dtype": "float32"}, {"name": "516/kernel", "shape": [3, 3, 256, 256], "dtype": "float32"}, {"name": "516/bias", "shape": [256], "dtype": "float32"}, {"name": "518/kernel", "shape": [3, 3, 256, 256], "dtype": "float32"}, {"name": "548/kernel", "shape": [3, 3, 256, 256], "dtype": "float32"}, {"name": "548/bias", "shape": [256], "dtype": "float32"}, {"name": "550/kernel", "shape": [3, 3, 256, 256], "dtype": "float32"}, {"name": "554/kernel", "shape": [3, 3, 256, 256], "dtype": "float32"}, {"name": "554/bias", "shape": [256], "dtype": "float32"}, {"name": "556/kernel", "shape": [3, 3, 256, 256], "dtype": "float32"}, {"name": "586/kernel", "shape": [3, 3, 256, 256], "dtype": "float32"}, {"name": "586/bias", "shape": [256], "dtype": "float32"}, {"name": "588/kernel", "shape": [3, 3, 256, 256], "dtype": "float32"}, {"name": "592/kernel", "shape": [3, 3, 256, 256], "dtype": "float32"}, {"name": "592/bias", "shape": [256], "dtype": "float32"}, {"name": "594/kernel", "shape": [3, 3, 256, 256], "dtype": "float32"}, {"name": "624/kernel", "shape": [3, 3, 256, 256], "dtype": "float32"}, {"name": "624/bias", "shape": [256], "dtype": "float32"}, {"name": "626/kernel", "shape": [3, 3, 256, 256], "dtype": "float32"}, {"name": "630/kernel", "shape": [3, 3, 256, 256], "dtype": "float32"}, {"name": "630/bias", "shape": [256], "dtype": "float32"}, {"name": "632/kernel", "shape": [3, 3, 256, 256], "dtype": "float32"}, {"name": "661/kernel", "shape": [3, 3, 256, 128], "dtype": "float32"}, {"name": "661/bias", "shape": [128], "dtype": "float32"}, {"name": "662/kernel", "shape": [3, 3, 128, 1], "dtype": "float32"}, {"name": "662/bias", "shape": [1], "dtype": "float32"}]}]}