{"format": "layers-model", "generatedBy": "keras v2.3.0-tf", "convertedBy": "TensorFlow.js Converter v2.7.0", "modelTopology": {"keras_version": "2.3.0-tf", "backend": "tensorflow", "model_config": {"class_name": "Model", "config": {"name": "model", "layers": [{"class_name": "InputLayer", "config": {"batch_input_shape": [null, 3, null, null], "dtype": "float32", "sparse": false, "ragged": false, "name": "input_0"}, "name": "input_0", "inbound_nodes": []}, {"class_name": "ZeroPadding2D", "config": {"name": "303_pad", "trainable": true, "dtype": "float32", "padding": [[1, 1], [1, 1]], "data_format": "channels_first"}, "name": "303_pad", "inbound_nodes": [[["input_0", 0, 0, {}]]]}, {"class_name": "Conv2D", "config": {"name": "303", "trainable": true, "dtype": "float32", "filters": 16, "kernel_size": [3, 3], "strides": [2, 2], "padding": "valid", "data_format": "channels_first", "dilation_rate": [1, 1], "activation": "linear", "use_bias": false, "kernel_initializer": {"class_name": "Zeros", "config": {}}, "bias_initializer": {"class_name": "Zeros", "config": {}}, "kernel_regularizer": null, "bias_regularizer": null, "activity_regularizer": null, "kernel_constraint": null, "bias_constraint": null}, "name": "303", "inbound_nodes": [[["303_pad", 0, 0, {}]]]}, {"class_name": "BatchNormalization", "config": {"name": "304", "trainable": true, "dtype": "float32", "axis": [1], "momentum": 0.8999999761581421, "epsilon": 9.999999747378752e-06, "center": true, "scale": true, "beta_initializer": {"class_name": "Zeros", "config": {}}, "gamma_initializer": {"class_name": "Ones", "config": {}}, "moving_mean_initializer": {"class_name": "Zeros", "config": {}}, "moving_variance_initializer": {"class_name": "Ones", "config": {}}, "beta_regularizer": null, "gamma_regularizer": null, "beta_constraint": null, "gamma_constraint": null}, "name": "304", "inbound_nodes": [[["303", 0, 0, {}]]]}, {"class_name": "Activation", "config": {"name": "output_0", "trainable": true, "dtype": "float32", "activation": "relu"}, "name": "output_0", "inbound_nodes": [[["304", 0, 0, {}]]]}, {"class_name": "ZeroPadding2D", "config": {"name": "306_pad", "trainable": true, "dtype": "float32", "padding": [[1, 1], [1, 1]], "data_format": "channels_first"}, "name": "306_pad", "inbound_nodes": [[["output_0", 0, 0, {}]]]}, {"class_name": "DepthwiseConv2D", "config": {"name": "306", "trainable": true, "dtype": "float32", "kernel_size": [3, 3], "strides": [1, 1], "padding": "valid", "data_format": "channels_first", "dilation_rate": [1, 1], "activation": "linear", "use_bias": false, "bias_initializer": {"class_name": "Zeros", "config": {}}, "bias_regularizer": null, "activity_regularizer": null, "bias_constraint": null, "depth_multiplier": 1, "depthwise_initializer": {"class_name": "GlorotUniform", "config": {"seed": null}}, "depthwise_regularizer": null, "depthwise_constraint": null}, "name": "306", "inbound_nodes": [[["306_pad", 0, 0, {}]]]}, {"class_name": "BatchNormalization", "config": {"name": "307", "trainable": true, "dtype": "float32", "axis": [1], "momentum": 0.8999999761581421, "epsilon": 9.999999747378752e-06, "center": true, "scale": true, "beta_initializer": {"class_name": "Zeros", "config": {}}, "gamma_initializer": {"class_name": "Ones", "config": {}}, "moving_mean_initializer": {"class_name": "Zeros", "config": {}}, "moving_variance_initializer": {"class_name": "Ones", "config": {}}, "beta_regularizer": null, "gamma_regularizer": null, "beta_constraint": null, "gamma_constraint": null}, "name": "307", "inbound_nodes": [[["306", 0, 0, {}]]]}, {"class_name": "Activation", "config": {"name": "308", "trainable": true, "dtype": "float32", "activation": "relu"}, "name": "308", "inbound_nodes": [[["307", 0, 0, {}]]]}, {"class_name": "Conv2D", "config": {"name": "309", "trainable": true, "dtype": "float32", "filters": 16, "kernel_size": [1, 1], "strides": [1, 1], "padding": "valid", "data_format": "channels_first", "dilation_rate": [1, 1], "activation": "linear", "use_bias": false, "kernel_initializer": {"class_name": "Zeros", "config": {}}, "bias_initializer": {"class_name": "Zeros", "config": {}}, "kernel_regularizer": null, "bias_regularizer": null, "activity_regularizer": null, "kernel_constraint": null, "bias_constraint": null}, "name": "309", "inbound_nodes": [[["308", 0, 0, {}]]]}, {"class_name": "BatchNormalization", "config": {"name": "310", "trainable": true, "dtype": "float32", "axis": [1], "momentum": 0.8999999761581421, "epsilon": 9.999999747378752e-06, "center": true, "scale": true, "beta_initializer": {"class_name": "Zeros", "config": {}}, "gamma_initializer": {"class_name": "Ones", "config": {}}, "moving_mean_initializer": {"class_name": "Zeros", "config": {}}, "moving_variance_initializer": {"class_name": "Ones", "config": {}}, "beta_regularizer": null, "gamma_regularizer": null, "beta_constraint": null, "gamma_constraint": null}, "name": "310", "inbound_nodes": [[["309", 0, 0, {}]]]}, {"class_name": "Add", "config": {"name": "311", "trainable": true, "dtype": "float32"}, "name": "311", "inbound_nodes": [[["output_0", 0, 0, {}], ["310", 0, 0, {}]]]}, {"class_name": "Conv2D", "config": {"name": "312", "trainable": true, "dtype": "float32", "filters": 64, "kernel_size": [1, 1], "strides": [1, 1], "padding": "valid", "data_format": "channels_first", "dilation_rate": [1, 1], "activation": "linear", "use_bias": false, "kernel_initializer": {"class_name": "Zeros", "config": {}}, "bias_initializer": {"class_name": "Zeros", "config": {}}, "kernel_regularizer": null, "bias_regularizer": null, "activity_regularizer": null, "kernel_constraint": null, "bias_constraint": null}, "name": "312", "inbound_nodes": [[["311", 0, 0, {}]]]}, {"class_name": "BatchNormalization", "config": {"name": "313", "trainable": true, "dtype": "float32", "axis": [1], "momentum": 0.8999999761581421, "epsilon": 9.999999747378752e-06, "center": true, "scale": true, "beta_initializer": {"class_name": "Zeros", "config": {}}, "gamma_initializer": {"class_name": "Ones", "config": {}}, "moving_mean_initializer": {"class_name": "Zeros", "config": {}}, "moving_variance_initializer": {"class_name": "Ones", "config": {}}, "beta_regularizer": null, "gamma_regularizer": null, "beta_constraint": null, "gamma_constraint": null}, "name": "313", "inbound_nodes": [[["312", 0, 0, {}]]]}, {"class_name": "Activation", "config": {"name": "314", "trainable": true, "dtype": "float32", "activation": "relu"}, "name": "314", "inbound_nodes": [[["313", 0, 0, {}]]]}, {"class_name": "ZeroPadding2D", "config": {"name": "315_pad", "trainable": true, "dtype": "float32", "padding": [[1, 1], [1, 1]], "data_format": "channels_first"}, "name": "315_pad", "inbound_nodes": [[["314", 0, 0, {}]]]}, {"class_name": "DepthwiseConv2D", "config": {"name": "315", "trainable": true, "dtype": "float32", "kernel_size": [3, 3], "strides": [2, 2], "padding": "valid", "data_format": "channels_first", "dilation_rate": [1, 1], "activation": "linear", "use_bias": false, "bias_initializer": {"class_name": "Zeros", "config": {}}, "bias_regularizer": null, "activity_regularizer": null, "bias_constraint": null, "depth_multiplier": 1, "depthwise_initializer": {"class_name": "GlorotUniform", "config": {"seed": null}}, "depthwise_regularizer": null, "depthwise_constraint": null}, "name": "315", "inbound_nodes": [[["315_pad", 0, 0, {}]]]}, {"class_name": "BatchNormalization", "config": {"name": "316", "trainable": true, "dtype": "float32", "axis": [1], "momentum": 0.8999999761581421, "epsilon": 9.999999747378752e-06, "center": true, "scale": true, "beta_initializer": {"class_name": "Zeros", "config": {}}, "gamma_initializer": {"class_name": "Ones", "config": {}}, "moving_mean_initializer": {"class_name": "Zeros", "config": {}}, "moving_variance_initializer": {"class_name": "Ones", "config": {}}, "beta_regularizer": null, "gamma_regularizer": null, "beta_constraint": null, "gamma_constraint": null}, "name": "316", "inbound_nodes": [[["315", 0, 0, {}]]]}, {"class_name": "Activation", "config": {"name": "317", "trainable": true, "dtype": "float32", "activation": "relu"}, "name": "317", "inbound_nodes": [[["316", 0, 0, {}]]]}, {"class_name": "Conv2D", "config": {"name": "318", "trainable": true, "dtype": "float32", "filters": 24, "kernel_size": [1, 1], "strides": [1, 1], "padding": "valid", "data_format": "channels_first", "dilation_rate": [1, 1], "activation": "linear", "use_bias": false, "kernel_initializer": {"class_name": "Zeros", "config": {}}, "bias_initializer": {"class_name": "Zeros", "config": {}}, "kernel_regularizer": null, "bias_regularizer": null, "activity_regularizer": null, "kernel_constraint": null, "bias_constraint": null}, "name": "318", "inbound_nodes": [[["317", 0, 0, {}]]]}, {"class_name": "BatchNormalization", "config": {"name": "output_1", "trainable": true, "dtype": "float32", "axis": [1], "momentum": 0.8999999761581421, "epsilon": 9.999999747378752e-06, "center": true, "scale": true, "beta_initializer": {"class_name": "Zeros", "config": {}}, "gamma_initializer": {"class_name": "Ones", "config": {}}, "moving_mean_initializer": {"class_name": "Zeros", "config": {}}, "moving_variance_initializer": {"class_name": "Ones", "config": {}}, "beta_regularizer": null, "gamma_regularizer": null, "beta_constraint": null, "gamma_constraint": null}, "name": "output_1", "inbound_nodes": [[["318", 0, 0, {}]]]}, {"class_name": "Conv2D", "config": {"name": "320", "trainable": true, "dtype": "float32", "filters": 72, "kernel_size": [1, 1], "strides": [1, 1], "padding": "valid", "data_format": "channels_first", "dilation_rate": [1, 1], "activation": "linear", "use_bias": false, "kernel_initializer": {"class_name": "Zeros", "config": {}}, "bias_initializer": {"class_name": "Zeros", "config": {}}, "kernel_regularizer": null, "bias_regularizer": null, "activity_regularizer": null, "kernel_constraint": null, "bias_constraint": null}, "name": "320", "inbound_nodes": [[["output_1", 0, 0, {}]]]}, {"class_name": "BatchNormalization", "config": {"name": "321", "trainable": true, "dtype": "float32", "axis": [1], "momentum": 0.8999999761581421, "epsilon": 9.999999747378752e-06, "center": true, "scale": true, "beta_initializer": {"class_name": "Zeros", "config": {}}, "gamma_initializer": {"class_name": "Ones", "config": {}}, "moving_mean_initializer": {"class_name": "Zeros", "config": {}}, "moving_variance_initializer": {"class_name": "Ones", "config": {}}, "beta_regularizer": null, "gamma_regularizer": null, "beta_constraint": null, "gamma_constraint": null}, "name": "321", "inbound_nodes": [[["320", 0, 0, {}]]]}, {"class_name": "Activation", "config": {"name": "322", "trainable": true, "dtype": "float32", "activation": "relu"}, "name": "322", "inbound_nodes": [[["321", 0, 0, {}]]]}, {"class_name": "ZeroPadding2D", "config": {"name": "323_pad", "trainable": true, "dtype": "float32", "padding": [[1, 1], [1, 1]], "data_format": "channels_first"}, "name": "323_pad", "inbound_nodes": [[["322", 0, 0, {}]]]}, {"class_name": "DepthwiseConv2D", "config": {"name": "323", "trainable": true, "dtype": "float32", "kernel_size": [3, 3], "strides": [1, 1], "padding": "valid", "data_format": "channels_first", "dilation_rate": [1, 1], "activation": "linear", "use_bias": false, "bias_initializer": {"class_name": "Zeros", "config": {}}, "bias_regularizer": null, "activity_regularizer": null, "bias_constraint": null, "depth_multiplier": 1, "depthwise_initializer": {"class_name": "GlorotUniform", "config": {"seed": null}}, "depthwise_regularizer": null, "depthwise_constraint": null}, "name": "323", "inbound_nodes": [[["323_pad", 0, 0, {}]]]}, {"class_name": "BatchNormalization", "config": {"name": "324", "trainable": true, "dtype": "float32", "axis": [1], "momentum": 0.8999999761581421, "epsilon": 9.999999747378752e-06, "center": true, "scale": true, "beta_initializer": {"class_name": "Zeros", "config": {}}, "gamma_initializer": {"class_name": "Ones", "config": {}}, "moving_mean_initializer": {"class_name": "Zeros", "config": {}}, "moving_variance_initializer": {"class_name": "Ones", "config": {}}, "beta_regularizer": null, "gamma_regularizer": null, "beta_constraint": null, "gamma_constraint": null}, "name": "324", "inbound_nodes": [[["323", 0, 0, {}]]]}, {"class_name": "Activation", "config": {"name": "325", "trainable": true, "dtype": "float32", "activation": "relu"}, "name": "325", "inbound_nodes": [[["324", 0, 0, {}]]]}, {"class_name": "Conv2D", "config": {"name": "326", "trainable": true, "dtype": "float32", "filters": 24, "kernel_size": [1, 1], "strides": [1, 1], "padding": "valid", "data_format": "channels_first", "dilation_rate": [1, 1], "activation": "linear", "use_bias": false, "kernel_initializer": {"class_name": "Zeros", "config": {}}, "bias_initializer": {"class_name": "Zeros", "config": {}}, "kernel_regularizer": null, "bias_regularizer": null, "activity_regularizer": null, "kernel_constraint": null, "bias_constraint": null}, "name": "326", "inbound_nodes": [[["325", 0, 0, {}]]]}, {"class_name": "BatchNormalization", "config": {"name": "327", "trainable": true, "dtype": "float32", "axis": [1], "momentum": 0.8999999761581421, "epsilon": 9.999999747378752e-06, "center": true, "scale": true, "beta_initializer": {"class_name": "Zeros", "config": {}}, "gamma_initializer": {"class_name": "Ones", "config": {}}, "moving_mean_initializer": {"class_name": "Zeros", "config": {}}, "moving_variance_initializer": {"class_name": "Ones", "config": {}}, "beta_regularizer": null, "gamma_regularizer": null, "beta_constraint": null, "gamma_constraint": null}, "name": "327", "inbound_nodes": [[["326", 0, 0, {}]]]}, {"class_name": "Add", "config": {"name": "328", "trainable": true, "dtype": "float32"}, "name": "328", "inbound_nodes": [[["output_1", 0, 0, {}], ["327", 0, 0, {}]]]}, {"class_name": "Conv2D", "config": {"name": "329", "trainable": true, "dtype": "float32", "filters": 72, "kernel_size": [1, 1], "strides": [1, 1], "padding": "valid", "data_format": "channels_first", "dilation_rate": [1, 1], "activation": "linear", "use_bias": false, "kernel_initializer": {"class_name": "Zeros", "config": {}}, "bias_initializer": {"class_name": "Zeros", "config": {}}, "kernel_regularizer": null, "bias_regularizer": null, "activity_regularizer": null, "kernel_constraint": null, "bias_constraint": null}, "name": "329", "inbound_nodes": [[["328", 0, 0, {}]]]}, {"class_name": "BatchNormalization", "config": {"name": "330", "trainable": true, "dtype": "float32", "axis": [1], "momentum": 0.8999999761581421, "epsilon": 9.999999747378752e-06, "center": true, "scale": true, "beta_initializer": {"class_name": "Zeros", "config": {}}, "gamma_initializer": {"class_name": "Ones", "config": {}}, "moving_mean_initializer": {"class_name": "Zeros", "config": {}}, "moving_variance_initializer": {"class_name": "Ones", "config": {}}, "beta_regularizer": null, "gamma_regularizer": null, "beta_constraint": null, "gamma_constraint": null}, "name": "330", "inbound_nodes": [[["329", 0, 0, {}]]]}, {"class_name": "Activation", "config": {"name": "331", "trainable": true, "dtype": "float32", "activation": "relu"}, "name": "331", "inbound_nodes": [[["330", 0, 0, {}]]]}, {"class_name": "ZeroPadding2D", "config": {"name": "332_pad", "trainable": true, "dtype": "float32", "padding": [[2, 2], [2, 2]], "data_format": "channels_first"}, "name": "332_pad", "inbound_nodes": [[["331", 0, 0, {}]]]}, {"class_name": "DepthwiseConv2D", "config": {"name": "332", "trainable": true, "dtype": "float32", "kernel_size": [5, 5], "strides": [2, 2], "padding": "valid", "data_format": "channels_first", "dilation_rate": [1, 1], "activation": "linear", "use_bias": false, "bias_initializer": {"class_name": "Zeros", "config": {}}, "bias_regularizer": null, "activity_regularizer": null, "bias_constraint": null, "depth_multiplier": 1, "depthwise_initializer": {"class_name": "GlorotUniform", "config": {"seed": null}}, "depthwise_regularizer": null, "depthwise_constraint": null}, "name": "332", "inbound_nodes": [[["332_pad", 0, 0, {}]]]}, {"class_name": "BatchNormalization", "config": {"name": "333", "trainable": true, "dtype": "float32", "axis": [1], "momentum": 0.8999999761581421, "epsilon": 9.999999747378752e-06, "center": true, "scale": true, "beta_initializer": {"class_name": "Zeros", "config": {}}, "gamma_initializer": {"class_name": "Ones", "config": {}}, "moving_mean_initializer": {"class_name": "Zeros", "config": {}}, "moving_variance_initializer": {"class_name": "Ones", "config": {}}, "beta_regularizer": null, "gamma_regularizer": null, "beta_constraint": null, "gamma_constraint": null}, "name": "333", "inbound_nodes": [[["332", 0, 0, {}]]]}, {"class_name": "ZeroPadding2D", "config": {"name": "340", "trainable": true, "dtype": "float32", "padding": [[0, 0], [0, 0]], "data_format": "channels_first"}, "name": "340", "inbound_nodes": [[["333", 0, 0, {}]]]}, {"class_name": "ZeroPadding2D", "config": {"name": "341_pad", "trainable": true, "dtype": "float32", "padding": [[0, 0], [0, 0]], "data_format": "channels_first"}, "name": "341_pad", "inbound_nodes": [[["340", 0, 0, {}]]]}, {"class_name": "AveragePooling2D", "config": {"name": "341", "trainable": true, "dtype": "float32", "pool_size": [56, 56], "padding": "valid", "strides": [56, 56], "data_format": "channels_first"}, "name": "341", "inbound_nodes": [[["341_pad", 0, 0, {}]]]}, {"class_name": "Reshape", "config": {"name": "345", "trainable": true, "dtype": "float32", "target_shape": [72]}, "name": "345", "inbound_nodes": [[["341", 0, 0, {}]]]}, {"class_name": "Dense", "config": {"name": "346", "trainable": true, "dtype": "float32", "units": 24, "activation": "linear", "use_bias": true, "kernel_initializer": {"class_name": "Zeros", "config": {}}, "bias_initializer": {"class_name": "Zeros", "config": {}}, "kernel_regularizer": null, "bias_regularizer": null, "activity_regularizer": null, "kernel_constraint": null, "bias_constraint": null}, "name": "346", "inbound_nodes": [[["345", 0, 0, {}]]]}, {"class_name": "Activation", "config": {"name": "347", "trainable": true, "dtype": "float32", "activation": "relu"}, "name": "347", "inbound_nodes": [[["346", 0, 0, {}]]]}, {"class_name": "Dense", "config": {"name": "348", "trainable": true, "dtype": "float32", "units": 72, "activation": "linear", "use_bias": true, "kernel_initializer": {"class_name": "Zeros", "config": {}}, "bias_initializer": {"class_name": "Zeros", "config": {}}, "kernel_regularizer": null, "bias_regularizer": null, "activity_regularizer": null, "kernel_constraint": null, "bias_constraint": null}, "name": "348", "inbound_nodes": [[["347", 0, 0, {}]]]}, {"class_name": "Activation", "config": {"name": "349", "trainable": true, "dtype": "float32", "activation": "sigmoid"}, "name": "349", "inbound_nodes": [[["348", 0, 0, {}]]]}, {"class_name": "Reshape", "config": {"name": "357", "trainable": true, "dtype": "float32", "target_shape": [72, 1, 1]}, "name": "357", "inbound_nodes": [[["349", 0, 0, {}]]]}, {"class_name": "Multiply", "config": {"name": "358", "trainable": true, "dtype": "float32"}, "name": "358", "inbound_nodes": [[["333", 0, 0, {}], ["357", 0, 0, {}]]]}, {"class_name": "Activation", "config": {"name": "359", "trainable": true, "dtype": "float32", "activation": "relu"}, "name": "359", "inbound_nodes": [[["358", 0, 0, {}]]]}, {"class_name": "Conv2D", "config": {"name": "360", "trainable": true, "dtype": "float32", "filters": 40, "kernel_size": [1, 1], "strides": [1, 1], "padding": "valid", "data_format": "channels_first", "dilation_rate": [1, 1], "activation": "linear", "use_bias": false, "kernel_initializer": {"class_name": "Zeros", "config": {}}, "bias_initializer": {"class_name": "Zeros", "config": {}}, "kernel_regularizer": null, "bias_regularizer": null, "activity_regularizer": null, "kernel_constraint": null, "bias_constraint": null}, "name": "360", "inbound_nodes": [[["359", 0, 0, {}]]]}, {"class_name": "BatchNormalization", "config": {"name": "361", "trainable": true, "dtype": "float32", "axis": [1], "momentum": 0.8999999761581421, "epsilon": 9.999999747378752e-06, "center": true, "scale": true, "beta_initializer": {"class_name": "Zeros", "config": {}}, "gamma_initializer": {"class_name": "Ones", "config": {}}, "moving_mean_initializer": {"class_name": "Zeros", "config": {}}, "moving_variance_initializer": {"class_name": "Ones", "config": {}}, "beta_regularizer": null, "gamma_regularizer": null, "beta_constraint": null, "gamma_constraint": null}, "name": "361", "inbound_nodes": [[["360", 0, 0, {}]]]}, {"class_name": "Conv2D", "config": {"name": "362", "trainable": true, "dtype": "float32", "filters": 120, "kernel_size": [1, 1], "strides": [1, 1], "padding": "valid", "data_format": "channels_first", "dilation_rate": [1, 1], "activation": "linear", "use_bias": false, "kernel_initializer": {"class_name": "Zeros", "config": {}}, "bias_initializer": {"class_name": "Zeros", "config": {}}, "kernel_regularizer": null, "bias_regularizer": null, "activity_regularizer": null, "kernel_constraint": null, "bias_constraint": null}, "name": "362", "inbound_nodes": [[["361", 0, 0, {}]]]}, {"class_name": "BatchNormalization", "config": {"name": "363", "trainable": true, "dtype": "float32", "axis": [1], "momentum": 0.8999999761581421, "epsilon": 9.999999747378752e-06, "center": true, "scale": true, "beta_initializer": {"class_name": "Zeros", "config": {}}, "gamma_initializer": {"class_name": "Ones", "config": {}}, "moving_mean_initializer": {"class_name": "Zeros", "config": {}}, "moving_variance_initializer": {"class_name": "Ones", "config": {}}, "beta_regularizer": null, "gamma_regularizer": null, "beta_constraint": null, "gamma_constraint": null}, "name": "363", "inbound_nodes": [[["362", 0, 0, {}]]]}, {"class_name": "Activation", "config": {"name": "364", "trainable": true, "dtype": "float32", "activation": "relu"}, "name": "364", "inbound_nodes": [[["363", 0, 0, {}]]]}, {"class_name": "ZeroPadding2D", "config": {"name": "365_pad", "trainable": true, "dtype": "float32", "padding": [[2, 2], [2, 2]], "data_format": "channels_first"}, "name": "365_pad", "inbound_nodes": [[["364", 0, 0, {}]]]}, {"class_name": "DepthwiseConv2D", "config": {"name": "365", "trainable": true, "dtype": "float32", "kernel_size": [5, 5], "strides": [1, 1], "padding": "valid", "data_format": "channels_first", "dilation_rate": [1, 1], "activation": "linear", "use_bias": false, "bias_initializer": {"class_name": "Zeros", "config": {}}, "bias_regularizer": null, "activity_regularizer": null, "bias_constraint": null, "depth_multiplier": 1, "depthwise_initializer": {"class_name": "GlorotUniform", "config": {"seed": null}}, "depthwise_regularizer": null, "depthwise_constraint": null}, "name": "365", "inbound_nodes": [[["365_pad", 0, 0, {}]]]}, {"class_name": "BatchNormalization", "config": {"name": "366", "trainable": true, "dtype": "float32", "axis": [1], "momentum": 0.8999999761581421, "epsilon": 9.999999747378752e-06, "center": true, "scale": true, "beta_initializer": {"class_name": "Zeros", "config": {}}, "gamma_initializer": {"class_name": "Ones", "config": {}}, "moving_mean_initializer": {"class_name": "Zeros", "config": {}}, "moving_variance_initializer": {"class_name": "Ones", "config": {}}, "beta_regularizer": null, "gamma_regularizer": null, "beta_constraint": null, "gamma_constraint": null}, "name": "366", "inbound_nodes": [[["365", 0, 0, {}]]]}, {"class_name": "ZeroPadding2D", "config": {"name": "373", "trainable": true, "dtype": "float32", "padding": [[0, 0], [0, 0]], "data_format": "channels_first"}, "name": "373", "inbound_nodes": [[["366", 0, 0, {}]]]}, {"class_name": "ZeroPadding2D", "config": {"name": "374_pad", "trainable": true, "dtype": "float32", "padding": [[0, 0], [0, 0]], "data_format": "channels_first"}, "name": "374_pad", "inbound_nodes": [[["373", 0, 0, {}]]]}, {"class_name": "AveragePooling2D", "config": {"name": "374", "trainable": true, "dtype": "float32", "pool_size": [56, 56], "padding": "valid", "strides": [56, 56], "data_format": "channels_first"}, "name": "374", "inbound_nodes": [[["374_pad", 0, 0, {}]]]}, {"class_name": "Reshape", "config": {"name": "378", "trainable": true, "dtype": "float32", "target_shape": [120]}, "name": "378", "inbound_nodes": [[["374", 0, 0, {}]]]}, {"class_name": "Dense", "config": {"name": "379", "trainable": true, "dtype": "float32", "units": 32, "activation": "linear", "use_bias": true, "kernel_initializer": {"class_name": "Zeros", "config": {}}, "bias_initializer": {"class_name": "Zeros", "config": {}}, "kernel_regularizer": null, "bias_regularizer": null, "activity_regularizer": null, "kernel_constraint": null, "bias_constraint": null}, "name": "379", "inbound_nodes": [[["378", 0, 0, {}]]]}, {"class_name": "Activation", "config": {"name": "380", "trainable": true, "dtype": "float32", "activation": "relu"}, "name": "380", "inbound_nodes": [[["379", 0, 0, {}]]]}, {"class_name": "Dense", "config": {"name": "381", "trainable": true, "dtype": "float32", "units": 120, "activation": "linear", "use_bias": true, "kernel_initializer": {"class_name": "Zeros", "config": {}}, "bias_initializer": {"class_name": "Zeros", "config": {}}, "kernel_regularizer": null, "bias_regularizer": null, "activity_regularizer": null, "kernel_constraint": null, "bias_constraint": null}, "name": "381", "inbound_nodes": [[["380", 0, 0, {}]]]}, {"class_name": "Activation", "config": {"name": "382", "trainable": true, "dtype": "float32", "activation": "sigmoid"}, "name": "382", "inbound_nodes": [[["381", 0, 0, {}]]]}, {"class_name": "Reshape", "config": {"name": "390", "trainable": true, "dtype": "float32", "target_shape": [120, 1, 1]}, "name": "390", "inbound_nodes": [[["382", 0, 0, {}]]]}, {"class_name": "Multiply", "config": {"name": "391", "trainable": true, "dtype": "float32"}, "name": "391", "inbound_nodes": [[["366", 0, 0, {}], ["390", 0, 0, {}]]]}, {"class_name": "Activation", "config": {"name": "392", "trainable": true, "dtype": "float32", "activation": "relu"}, "name": "392", "inbound_nodes": [[["391", 0, 0, {}]]]}, {"class_name": "Conv2D", "config": {"name": "393", "trainable": true, "dtype": "float32", "filters": 40, "kernel_size": [1, 1], "strides": [1, 1], "padding": "valid", "data_format": "channels_first", "dilation_rate": [1, 1], "activation": "linear", "use_bias": false, "kernel_initializer": {"class_name": "Zeros", "config": {}}, "bias_initializer": {"class_name": "Zeros", "config": {}}, "kernel_regularizer": null, "bias_regularizer": null, "activity_regularizer": null, "kernel_constraint": null, "bias_constraint": null}, "name": "393", "inbound_nodes": [[["392", 0, 0, {}]]]}, {"class_name": "BatchNormalization", "config": {"name": "394", "trainable": true, "dtype": "float32", "axis": [1], "momentum": 0.8999999761581421, "epsilon": 9.999999747378752e-06, "center": true, "scale": true, "beta_initializer": {"class_name": "Zeros", "config": {}}, "gamma_initializer": {"class_name": "Ones", "config": {}}, "moving_mean_initializer": {"class_name": "Zeros", "config": {}}, "moving_variance_initializer": {"class_name": "Ones", "config": {}}, "beta_regularizer": null, "gamma_regularizer": null, "beta_constraint": null, "gamma_constraint": null}, "name": "394", "inbound_nodes": [[["393", 0, 0, {}]]]}, {"class_name": "Add", "config": {"name": "output_2", "trainable": true, "dtype": "float32"}, "name": "output_2", "inbound_nodes": [[["361", 0, 0, {}], ["394", 0, 0, {}]]]}, {"class_name": "Conv2D", "config": {"name": "396", "trainable": true, "dtype": "float32", "filters": 120, "kernel_size": [1, 1], "strides": [1, 1], "padding": "valid", "data_format": "channels_first", "dilation_rate": [1, 1], "activation": "linear", "use_bias": false, "kernel_initializer": {"class_name": "Zeros", "config": {}}, "bias_initializer": {"class_name": "Zeros", "config": {}}, "kernel_regularizer": null, "bias_regularizer": null, "activity_regularizer": null, "kernel_constraint": null, "bias_constraint": null}, "name": "396", "inbound_nodes": [[["output_2", 0, 0, {}]]]}, {"class_name": "BatchNormalization", "config": {"name": "397", "trainable": true, "dtype": "float32", "axis": [1], "momentum": 0.8999999761581421, "epsilon": 9.999999747378752e-06, "center": true, "scale": true, "beta_initializer": {"class_name": "Zeros", "config": {}}, "gamma_initializer": {"class_name": "Ones", "config": {}}, "moving_mean_initializer": {"class_name": "Zeros", "config": {}}, "moving_variance_initializer": {"class_name": "Ones", "config": {}}, "beta_regularizer": null, "gamma_regularizer": null, "beta_constraint": null, "gamma_constraint": null}, "name": "397", "inbound_nodes": [[["396", 0, 0, {}]]]}, {"class_name": "Activation", "config": {"name": "398", "trainable": true, "dtype": "float32", "activation": "relu"}, "name": "398", "inbound_nodes": [[["397", 0, 0, {}]]]}, {"class_name": "ZeroPadding2D", "config": {"name": "399_pad", "trainable": true, "dtype": "float32", "padding": [[2, 2], [2, 2]], "data_format": "channels_first"}, "name": "399_pad", "inbound_nodes": [[["398", 0, 0, {}]]]}, {"class_name": "DepthwiseConv2D", "config": {"name": "399", "trainable": true, "dtype": "float32", "kernel_size": [5, 5], "strides": [1, 1], "padding": "valid", "data_format": "channels_first", "dilation_rate": [1, 1], "activation": "linear", "use_bias": false, "bias_initializer": {"class_name": "Zeros", "config": {}}, "bias_regularizer": null, "activity_regularizer": null, "bias_constraint": null, "depth_multiplier": 1, "depthwise_initializer": {"class_name": "GlorotUniform", "config": {"seed": null}}, "depthwise_regularizer": null, "depthwise_constraint": null}, "name": "399", "inbound_nodes": [[["399_pad", 0, 0, {}]]]}, {"class_name": "BatchNormalization", "config": {"name": "400", "trainable": true, "dtype": "float32", "axis": [1], "momentum": 0.8999999761581421, "epsilon": 9.999999747378752e-06, "center": true, "scale": true, "beta_initializer": {"class_name": "Zeros", "config": {}}, "gamma_initializer": {"class_name": "Ones", "config": {}}, "moving_mean_initializer": {"class_name": "Zeros", "config": {}}, "moving_variance_initializer": {"class_name": "Ones", "config": {}}, "beta_regularizer": null, "gamma_regularizer": null, "beta_constraint": null, "gamma_constraint": null}, "name": "400", "inbound_nodes": [[["399", 0, 0, {}]]]}, {"class_name": "ZeroPadding2D", "config": {"name": "407", "trainable": true, "dtype": "float32", "padding": [[0, 0], [0, 0]], "data_format": "channels_first"}, "name": "407", "inbound_nodes": [[["400", 0, 0, {}]]]}, {"class_name": "ZeroPadding2D", "config": {"name": "408_pad", "trainable": true, "dtype": "float32", "padding": [[0, 0], [0, 0]], "data_format": "channels_first"}, "name": "408_pad", "inbound_nodes": [[["407", 0, 0, {}]]]}, {"class_name": "AveragePooling2D", "config": {"name": "408", "trainable": true, "dtype": "float32", "pool_size": [56, 56], "padding": "valid", "strides": [56, 56], "data_format": "channels_first"}, "name": "408", "inbound_nodes": [[["408_pad", 0, 0, {}]]]}, {"class_name": "Reshape", "config": {"name": "412", "trainable": true, "dtype": "float32", "target_shape": [120]}, "name": "412", "inbound_nodes": [[["408", 0, 0, {}]]]}, {"class_name": "Dense", "config": {"name": "413", "trainable": true, "dtype": "float32", "units": 32, "activation": "linear", "use_bias": true, "kernel_initializer": {"class_name": "Zeros", "config": {}}, "bias_initializer": {"class_name": "Zeros", "config": {}}, "kernel_regularizer": null, "bias_regularizer": null, "activity_regularizer": null, "kernel_constraint": null, "bias_constraint": null}, "name": "413", "inbound_nodes": [[["412", 0, 0, {}]]]}, {"class_name": "Activation", "config": {"name": "414", "trainable": true, "dtype": "float32", "activation": "relu"}, "name": "414", "inbound_nodes": [[["413", 0, 0, {}]]]}, {"class_name": "Dense", "config": {"name": "415", "trainable": true, "dtype": "float32", "units": 120, "activation": "linear", "use_bias": true, "kernel_initializer": {"class_name": "Zeros", "config": {}}, "bias_initializer": {"class_name": "Zeros", "config": {}}, "kernel_regularizer": null, "bias_regularizer": null, "activity_regularizer": null, "kernel_constraint": null, "bias_constraint": null}, "name": "415", "inbound_nodes": [[["414", 0, 0, {}]]]}, {"class_name": "Activation", "config": {"name": "416", "trainable": true, "dtype": "float32", "activation": "sigmoid"}, "name": "416", "inbound_nodes": [[["415", 0, 0, {}]]]}, {"class_name": "Reshape", "config": {"name": "424", "trainable": true, "dtype": "float32", "target_shape": [120, 1, 1]}, "name": "424", "inbound_nodes": [[["416", 0, 0, {}]]]}, {"class_name": "Multiply", "config": {"name": "425", "trainable": true, "dtype": "float32"}, "name": "425", "inbound_nodes": [[["400", 0, 0, {}], ["424", 0, 0, {}]]]}, {"class_name": "Activation", "config": {"name": "426", "trainable": true, "dtype": "float32", "activation": "relu"}, "name": "426", "inbound_nodes": [[["425", 0, 0, {}]]]}, {"class_name": "Conv2D", "config": {"name": "427", "trainable": true, "dtype": "float32", "filters": 40, "kernel_size": [1, 1], "strides": [1, 1], "padding": "valid", "data_format": "channels_first", "dilation_rate": [1, 1], "activation": "linear", "use_bias": false, "kernel_initializer": {"class_name": "Zeros", "config": {}}, "bias_initializer": {"class_name": "Zeros", "config": {}}, "kernel_regularizer": null, "bias_regularizer": null, "activity_regularizer": null, "kernel_constraint": null, "bias_constraint": null}, "name": "427", "inbound_nodes": [[["426", 0, 0, {}]]]}, {"class_name": "BatchNormalization", "config": {"name": "428", "trainable": true, "dtype": "float32", "axis": [1], "momentum": 0.8999999761581421, "epsilon": 9.999999747378752e-06, "center": true, "scale": true, "beta_initializer": {"class_name": "Zeros", "config": {}}, "gamma_initializer": {"class_name": "Ones", "config": {}}, "moving_mean_initializer": {"class_name": "Zeros", "config": {}}, "moving_variance_initializer": {"class_name": "Ones", "config": {}}, "beta_regularizer": null, "gamma_regularizer": null, "beta_constraint": null, "gamma_constraint": null}, "name": "428", "inbound_nodes": [[["427", 0, 0, {}]]]}, {"class_name": "Add", "config": {"name": "429", "trainable": true, "dtype": "float32"}, "name": "429", "inbound_nodes": [[["output_2", 0, 0, {}], ["428", 0, 0, {}]]]}, {"class_name": "Conv2D", "config": {"name": "430", "trainable": true, "dtype": "float32", "filters": 240, "kernel_size": [1, 1], "strides": [1, 1], "padding": "valid", "data_format": "channels_first", "dilation_rate": [1, 1], "activation": "linear", "use_bias": false, "kernel_initializer": {"class_name": "Zeros", "config": {}}, "bias_initializer": {"class_name": "Zeros", "config": {}}, "kernel_regularizer": null, "bias_regularizer": null, "activity_regularizer": null, "kernel_constraint": null, "bias_constraint": null}, "name": "430", "inbound_nodes": [[["429", 0, 0, {}]]]}, {"class_name": "BatchNormalization", "config": {"name": "431", "trainable": true, "dtype": "float32", "axis": [1], "momentum": 0.8999999761581421, "epsilon": 9.999999747378752e-06, "center": true, "scale": true, "beta_initializer": {"class_name": "Zeros", "config": {}}, "gamma_initializer": {"class_name": "Ones", "config": {}}, "moving_mean_initializer": {"class_name": "Zeros", "config": {}}, "moving_variance_initializer": {"class_name": "Ones", "config": {}}, "beta_regularizer": null, "gamma_regularizer": null, "beta_constraint": null, "gamma_constraint": null}, "name": "431", "inbound_nodes": [[["430", 0, 0, {}]]]}, {"class_name": "Activation", "config": {"name": "432", "trainable": true, "dtype": "float32", "activation": "relu"}, "name": "432", "inbound_nodes": [[["431", 0, 0, {}]]]}, {"class_name": "ZeroPadding2D", "config": {"name": "433_pad", "trainable": true, "dtype": "float32", "padding": [[1, 1], [1, 1]], "data_format": "channels_first"}, "name": "433_pad", "inbound_nodes": [[["432", 0, 0, {}]]]}, {"class_name": "DepthwiseConv2D", "config": {"name": "433", "trainable": true, "dtype": "float32", "kernel_size": [3, 3], "strides": [2, 2], "padding": "valid", "data_format": "channels_first", "dilation_rate": [1, 1], "activation": "linear", "use_bias": false, "bias_initializer": {"class_name": "Zeros", "config": {}}, "bias_regularizer": null, "activity_regularizer": null, "bias_constraint": null, "depth_multiplier": 1, "depthwise_initializer": {"class_name": "GlorotUniform", "config": {"seed": null}}, "depthwise_regularizer": null, "depthwise_constraint": null}, "name": "433", "inbound_nodes": [[["433_pad", 0, 0, {}]]]}, {"class_name": "BatchNormalization", "config": {"name": "434", "trainable": true, "dtype": "float32", "axis": [1], "momentum": 0.8999999761581421, "epsilon": 9.999999747378752e-06, "center": true, "scale": true, "beta_initializer": {"class_name": "Zeros", "config": {}}, "gamma_initializer": {"class_name": "Ones", "config": {}}, "moving_mean_initializer": {"class_name": "Zeros", "config": {}}, "moving_variance_initializer": {"class_name": "Ones", "config": {}}, "beta_regularizer": null, "gamma_regularizer": null, "beta_constraint": null, "gamma_constraint": null}, "name": "434", "inbound_nodes": [[["433", 0, 0, {}]]]}, {"class_name": "Activation", "config": {"name": "435", "trainable": true, "dtype": "float32", "activation": "relu"}, "name": "435", "inbound_nodes": [[["434", 0, 0, {}]]]}, {"class_name": "Conv2D", "config": {"name": "436", "trainable": true, "dtype": "float32", "filters": 80, "kernel_size": [1, 1], "strides": [1, 1], "padding": "valid", "data_format": "channels_first", "dilation_rate": [1, 1], "activation": "linear", "use_bias": false, "kernel_initializer": {"class_name": "Zeros", "config": {}}, "bias_initializer": {"class_name": "Zeros", "config": {}}, "kernel_regularizer": null, "bias_regularizer": null, "activity_regularizer": null, "kernel_constraint": null, "bias_constraint": null}, "name": "436", "inbound_nodes": [[["435", 0, 0, {}]]]}, {"class_name": "BatchNormalization", "config": {"name": "437", "trainable": true, "dtype": "float32", "axis": [1], "momentum": 0.8999999761581421, "epsilon": 9.999999747378752e-06, "center": true, "scale": true, "beta_initializer": {"class_name": "Zeros", "config": {}}, "gamma_initializer": {"class_name": "Ones", "config": {}}, "moving_mean_initializer": {"class_name": "Zeros", "config": {}}, "moving_variance_initializer": {"class_name": "Ones", "config": {}}, "beta_regularizer": null, "gamma_regularizer": null, "beta_constraint": null, "gamma_constraint": null}, "name": "437", "inbound_nodes": [[["436", 0, 0, {}]]]}, {"class_name": "Conv2D", "config": {"name": "438", "trainable": true, "dtype": "float32", "filters": 200, "kernel_size": [1, 1], "strides": [1, 1], "padding": "valid", "data_format": "channels_first", "dilation_rate": [1, 1], "activation": "linear", "use_bias": false, "kernel_initializer": {"class_name": "Zeros", "config": {}}, "bias_initializer": {"class_name": "Zeros", "config": {}}, "kernel_regularizer": null, "bias_regularizer": null, "activity_regularizer": null, "kernel_constraint": null, "bias_constraint": null}, "name": "438", "inbound_nodes": [[["437", 0, 0, {}]]]}, {"class_name": "BatchNormalization", "config": {"name": "439", "trainable": true, "dtype": "float32", "axis": [1], "momentum": 0.8999999761581421, "epsilon": 9.999999747378752e-06, "center": true, "scale": true, "beta_initializer": {"class_name": "Zeros", "config": {}}, "gamma_initializer": {"class_name": "Ones", "config": {}}, "moving_mean_initializer": {"class_name": "Zeros", "config": {}}, "moving_variance_initializer": {"class_name": "Ones", "config": {}}, "beta_regularizer": null, "gamma_regularizer": null, "beta_constraint": null, "gamma_constraint": null}, "name": "439", "inbound_nodes": [[["438", 0, 0, {}]]]}, {"class_name": "Activation", "config": {"name": "440", "trainable": true, "dtype": "float32", "activation": "relu"}, "name": "440", "inbound_nodes": [[["439", 0, 0, {}]]]}, {"class_name": "ZeroPadding2D", "config": {"name": "441_pad", "trainable": true, "dtype": "float32", "padding": [[1, 1], [1, 1]], "data_format": "channels_first"}, "name": "441_pad", "inbound_nodes": [[["440", 0, 0, {}]]]}, {"class_name": "DepthwiseConv2D", "config": {"name": "441", "trainable": true, "dtype": "float32", "kernel_size": [3, 3], "strides": [1, 1], "padding": "valid", "data_format": "channels_first", "dilation_rate": [1, 1], "activation": "linear", "use_bias": false, "bias_initializer": {"class_name": "Zeros", "config": {}}, "bias_regularizer": null, "activity_regularizer": null, "bias_constraint": null, "depth_multiplier": 1, "depthwise_initializer": {"class_name": "GlorotUniform", "config": {"seed": null}}, "depthwise_regularizer": null, "depthwise_constraint": null}, "name": "441", "inbound_nodes": [[["441_pad", 0, 0, {}]]]}, {"class_name": "BatchNormalization", "config": {"name": "442", "trainable": true, "dtype": "float32", "axis": [1], "momentum": 0.8999999761581421, "epsilon": 9.999999747378752e-06, "center": true, "scale": true, "beta_initializer": {"class_name": "Zeros", "config": {}}, "gamma_initializer": {"class_name": "Ones", "config": {}}, "moving_mean_initializer": {"class_name": "Zeros", "config": {}}, "moving_variance_initializer": {"class_name": "Ones", "config": {}}, "beta_regularizer": null, "gamma_regularizer": null, "beta_constraint": null, "gamma_constraint": null}, "name": "442", "inbound_nodes": [[["441", 0, 0, {}]]]}, {"class_name": "Activation", "config": {"name": "443", "trainable": true, "dtype": "float32", "activation": "relu"}, "name": "443", "inbound_nodes": [[["442", 0, 0, {}]]]}, {"class_name": "Conv2D", "config": {"name": "444", "trainable": true, "dtype": "float32", "filters": 80, "kernel_size": [1, 1], "strides": [1, 1], "padding": "valid", "data_format": "channels_first", "dilation_rate": [1, 1], "activation": "linear", "use_bias": false, "kernel_initializer": {"class_name": "Zeros", "config": {}}, "bias_initializer": {"class_name": "Zeros", "config": {}}, "kernel_regularizer": null, "bias_regularizer": null, "activity_regularizer": null, "kernel_constraint": null, "bias_constraint": null}, "name": "444", "inbound_nodes": [[["443", 0, 0, {}]]]}, {"class_name": "BatchNormalization", "config": {"name": "445", "trainable": true, "dtype": "float32", "axis": [1], "momentum": 0.8999999761581421, "epsilon": 9.999999747378752e-06, "center": true, "scale": true, "beta_initializer": {"class_name": "Zeros", "config": {}}, "gamma_initializer": {"class_name": "Ones", "config": {}}, "moving_mean_initializer": {"class_name": "Zeros", "config": {}}, "moving_variance_initializer": {"class_name": "Ones", "config": {}}, "beta_regularizer": null, "gamma_regularizer": null, "beta_constraint": null, "gamma_constraint": null}, "name": "445", "inbound_nodes": [[["444", 0, 0, {}]]]}, {"class_name": "Add", "config": {"name": "446", "trainable": true, "dtype": "float32"}, "name": "446", "inbound_nodes": [[["437", 0, 0, {}], ["445", 0, 0, {}]]]}, {"class_name": "Conv2D", "config": {"name": "447", "trainable": true, "dtype": "float32", "filters": 184, "kernel_size": [1, 1], "strides": [1, 1], "padding": "valid", "data_format": "channels_first", "dilation_rate": [1, 1], "activation": "linear", "use_bias": false, "kernel_initializer": {"class_name": "Zeros", "config": {}}, "bias_initializer": {"class_name": "Zeros", "config": {}}, "kernel_regularizer": null, "bias_regularizer": null, "activity_regularizer": null, "kernel_constraint": null, "bias_constraint": null}, "name": "447", "inbound_nodes": [[["446", 0, 0, {}]]]}, {"class_name": "BatchNormalization", "config": {"name": "448", "trainable": true, "dtype": "float32", "axis": [1], "momentum": 0.8999999761581421, "epsilon": 9.999999747378752e-06, "center": true, "scale": true, "beta_initializer": {"class_name": "Zeros", "config": {}}, "gamma_initializer": {"class_name": "Ones", "config": {}}, "moving_mean_initializer": {"class_name": "Zeros", "config": {}}, "moving_variance_initializer": {"class_name": "Ones", "config": {}}, "beta_regularizer": null, "gamma_regularizer": null, "beta_constraint": null, "gamma_constraint": null}, "name": "448", "inbound_nodes": [[["447", 0, 0, {}]]]}, {"class_name": "Activation", "config": {"name": "449", "trainable": true, "dtype": "float32", "activation": "relu"}, "name": "449", "inbound_nodes": [[["448", 0, 0, {}]]]}, {"class_name": "ZeroPadding2D", "config": {"name": "450_pad", "trainable": true, "dtype": "float32", "padding": [[1, 1], [1, 1]], "data_format": "channels_first"}, "name": "450_pad", "inbound_nodes": [[["449", 0, 0, {}]]]}, {"class_name": "DepthwiseConv2D", "config": {"name": "450", "trainable": true, "dtype": "float32", "kernel_size": [3, 3], "strides": [1, 1], "padding": "valid", "data_format": "channels_first", "dilation_rate": [1, 1], "activation": "linear", "use_bias": false, "bias_initializer": {"class_name": "Zeros", "config": {}}, "bias_regularizer": null, "activity_regularizer": null, "bias_constraint": null, "depth_multiplier": 1, "depthwise_initializer": {"class_name": "GlorotUniform", "config": {"seed": null}}, "depthwise_regularizer": null, "depthwise_constraint": null}, "name": "450", "inbound_nodes": [[["450_pad", 0, 0, {}]]]}, {"class_name": "BatchNormalization", "config": {"name": "451", "trainable": true, "dtype": "float32", "axis": [1], "momentum": 0.8999999761581421, "epsilon": 9.999999747378752e-06, "center": true, "scale": true, "beta_initializer": {"class_name": "Zeros", "config": {}}, "gamma_initializer": {"class_name": "Ones", "config": {}}, "moving_mean_initializer": {"class_name": "Zeros", "config": {}}, "moving_variance_initializer": {"class_name": "Ones", "config": {}}, "beta_regularizer": null, "gamma_regularizer": null, "beta_constraint": null, "gamma_constraint": null}, "name": "451", "inbound_nodes": [[["450", 0, 0, {}]]]}, {"class_name": "Activation", "config": {"name": "452", "trainable": true, "dtype": "float32", "activation": "relu"}, "name": "452", "inbound_nodes": [[["451", 0, 0, {}]]]}, {"class_name": "Conv2D", "config": {"name": "453", "trainable": true, "dtype": "float32", "filters": 80, "kernel_size": [1, 1], "strides": [1, 1], "padding": "valid", "data_format": "channels_first", "dilation_rate": [1, 1], "activation": "linear", "use_bias": false, "kernel_initializer": {"class_name": "Zeros", "config": {}}, "bias_initializer": {"class_name": "Zeros", "config": {}}, "kernel_regularizer": null, "bias_regularizer": null, "activity_regularizer": null, "kernel_constraint": null, "bias_constraint": null}, "name": "453", "inbound_nodes": [[["452", 0, 0, {}]]]}, {"class_name": "BatchNormalization", "config": {"name": "454", "trainable": true, "dtype": "float32", "axis": [1], "momentum": 0.8999999761581421, "epsilon": 9.999999747378752e-06, "center": true, "scale": true, "beta_initializer": {"class_name": "Zeros", "config": {}}, "gamma_initializer": {"class_name": "Ones", "config": {}}, "moving_mean_initializer": {"class_name": "Zeros", "config": {}}, "moving_variance_initializer": {"class_name": "Ones", "config": {}}, "beta_regularizer": null, "gamma_regularizer": null, "beta_constraint": null, "gamma_constraint": null}, "name": "454", "inbound_nodes": [[["453", 0, 0, {}]]]}, {"class_name": "Add", "config": {"name": "455", "trainable": true, "dtype": "float32"}, "name": "455", "inbound_nodes": [[["446", 0, 0, {}], ["454", 0, 0, {}]]]}, {"class_name": "Conv2D", "config": {"name": "456", "trainable": true, "dtype": "float32", "filters": 184, "kernel_size": [1, 1], "strides": [1, 1], "padding": "valid", "data_format": "channels_first", "dilation_rate": [1, 1], "activation": "linear", "use_bias": false, "kernel_initializer": {"class_name": "Zeros", "config": {}}, "bias_initializer": {"class_name": "Zeros", "config": {}}, "kernel_regularizer": null, "bias_regularizer": null, "activity_regularizer": null, "kernel_constraint": null, "bias_constraint": null}, "name": "456", "inbound_nodes": [[["455", 0, 0, {}]]]}, {"class_name": "BatchNormalization", "config": {"name": "457", "trainable": true, "dtype": "float32", "axis": [1], "momentum": 0.8999999761581421, "epsilon": 9.999999747378752e-06, "center": true, "scale": true, "beta_initializer": {"class_name": "Zeros", "config": {}}, "gamma_initializer": {"class_name": "Ones", "config": {}}, "moving_mean_initializer": {"class_name": "Zeros", "config": {}}, "moving_variance_initializer": {"class_name": "Ones", "config": {}}, "beta_regularizer": null, "gamma_regularizer": null, "beta_constraint": null, "gamma_constraint": null}, "name": "457", "inbound_nodes": [[["456", 0, 0, {}]]]}, {"class_name": "Activation", "config": {"name": "458", "trainable": true, "dtype": "float32", "activation": "relu"}, "name": "458", "inbound_nodes": [[["457", 0, 0, {}]]]}, {"class_name": "ZeroPadding2D", "config": {"name": "459_pad", "trainable": true, "dtype": "float32", "padding": [[1, 1], [1, 1]], "data_format": "channels_first"}, "name": "459_pad", "inbound_nodes": [[["458", 0, 0, {}]]]}, {"class_name": "DepthwiseConv2D", "config": {"name": "459", "trainable": true, "dtype": "float32", "kernel_size": [3, 3], "strides": [1, 1], "padding": "valid", "data_format": "channels_first", "dilation_rate": [1, 1], "activation": "linear", "use_bias": false, "bias_initializer": {"class_name": "Zeros", "config": {}}, "bias_regularizer": null, "activity_regularizer": null, "bias_constraint": null, "depth_multiplier": 1, "depthwise_initializer": {"class_name": "GlorotUniform", "config": {"seed": null}}, "depthwise_regularizer": null, "depthwise_constraint": null}, "name": "459", "inbound_nodes": [[["459_pad", 0, 0, {}]]]}, {"class_name": "BatchNormalization", "config": {"name": "460", "trainable": true, "dtype": "float32", "axis": [1], "momentum": 0.8999999761581421, "epsilon": 9.999999747378752e-06, "center": true, "scale": true, "beta_initializer": {"class_name": "Zeros", "config": {}}, "gamma_initializer": {"class_name": "Ones", "config": {}}, "moving_mean_initializer": {"class_name": "Zeros", "config": {}}, "moving_variance_initializer": {"class_name": "Ones", "config": {}}, "beta_regularizer": null, "gamma_regularizer": null, "beta_constraint": null, "gamma_constraint": null}, "name": "460", "inbound_nodes": [[["459", 0, 0, {}]]]}, {"class_name": "Activation", "config": {"name": "461", "trainable": true, "dtype": "float32", "activation": "relu"}, "name": "461", "inbound_nodes": [[["460", 0, 0, {}]]]}, {"class_name": "Conv2D", "config": {"name": "462", "trainable": true, "dtype": "float32", "filters": 80, "kernel_size": [1, 1], "strides": [1, 1], "padding": "valid", "data_format": "channels_first", "dilation_rate": [1, 1], "activation": "linear", "use_bias": false, "kernel_initializer": {"class_name": "Zeros", "config": {}}, "bias_initializer": {"class_name": "Zeros", "config": {}}, "kernel_regularizer": null, "bias_regularizer": null, "activity_regularizer": null, "kernel_constraint": null, "bias_constraint": null}, "name": "462", "inbound_nodes": [[["461", 0, 0, {}]]]}, {"class_name": "BatchNormalization", "config": {"name": "463", "trainable": true, "dtype": "float32", "axis": [1], "momentum": 0.8999999761581421, "epsilon": 9.999999747378752e-06, "center": true, "scale": true, "beta_initializer": {"class_name": "Zeros", "config": {}}, "gamma_initializer": {"class_name": "Ones", "config": {}}, "moving_mean_initializer": {"class_name": "Zeros", "config": {}}, "moving_variance_initializer": {"class_name": "Ones", "config": {}}, "beta_regularizer": null, "gamma_regularizer": null, "beta_constraint": null, "gamma_constraint": null}, "name": "463", "inbound_nodes": [[["462", 0, 0, {}]]]}, {"class_name": "Add", "config": {"name": "464", "trainable": true, "dtype": "float32"}, "name": "464", "inbound_nodes": [[["455", 0, 0, {}], ["463", 0, 0, {}]]]}, {"class_name": "Conv2D", "config": {"name": "465", "trainable": true, "dtype": "float32", "filters": 480, "kernel_size": [1, 1], "strides": [1, 1], "padding": "valid", "data_format": "channels_first", "dilation_rate": [1, 1], "activation": "linear", "use_bias": false, "kernel_initializer": {"class_name": "Zeros", "config": {}}, "bias_initializer": {"class_name": "Zeros", "config": {}}, "kernel_regularizer": null, "bias_regularizer": null, "activity_regularizer": null, "kernel_constraint": null, "bias_constraint": null}, "name": "465", "inbound_nodes": [[["464", 0, 0, {}]]]}, {"class_name": "BatchNormalization", "config": {"name": "466", "trainable": true, "dtype": "float32", "axis": [1], "momentum": 0.8999999761581421, "epsilon": 9.999999747378752e-06, "center": true, "scale": true, "beta_initializer": {"class_name": "Zeros", "config": {}}, "gamma_initializer": {"class_name": "Ones", "config": {}}, "moving_mean_initializer": {"class_name": "Zeros", "config": {}}, "moving_variance_initializer": {"class_name": "Ones", "config": {}}, "beta_regularizer": null, "gamma_regularizer": null, "beta_constraint": null, "gamma_constraint": null}, "name": "466", "inbound_nodes": [[["465", 0, 0, {}]]]}, {"class_name": "Activation", "config": {"name": "467", "trainable": true, "dtype": "float32", "activation": "relu"}, "name": "467", "inbound_nodes": [[["466", 0, 0, {}]]]}, {"class_name": "ZeroPadding2D", "config": {"name": "468_pad", "trainable": true, "dtype": "float32", "padding": [[1, 1], [1, 1]], "data_format": "channels_first"}, "name": "468_pad", "inbound_nodes": [[["467", 0, 0, {}]]]}, {"class_name": "DepthwiseConv2D", "config": {"name": "468", "trainable": true, "dtype": "float32", "kernel_size": [3, 3], "strides": [1, 1], "padding": "valid", "data_format": "channels_first", "dilation_rate": [1, 1], "activation": "linear", "use_bias": false, "bias_initializer": {"class_name": "Zeros", "config": {}}, "bias_regularizer": null, "activity_regularizer": null, "bias_constraint": null, "depth_multiplier": 1, "depthwise_initializer": {"class_name": "GlorotUniform", "config": {"seed": null}}, "depthwise_regularizer": null, "depthwise_constraint": null}, "name": "468", "inbound_nodes": [[["468_pad", 0, 0, {}]]]}, {"class_name": "BatchNormalization", "config": {"name": "469", "trainable": true, "dtype": "float32", "axis": [1], "momentum": 0.8999999761581421, "epsilon": 9.999999747378752e-06, "center": true, "scale": true, "beta_initializer": {"class_name": "Zeros", "config": {}}, "gamma_initializer": {"class_name": "Ones", "config": {}}, "moving_mean_initializer": {"class_name": "Zeros", "config": {}}, "moving_variance_initializer": {"class_name": "Ones", "config": {}}, "beta_regularizer": null, "gamma_regularizer": null, "beta_constraint": null, "gamma_constraint": null}, "name": "469", "inbound_nodes": [[["468", 0, 0, {}]]]}, {"class_name": "ZeroPadding2D", "config": {"name": "476", "trainable": true, "dtype": "float32", "padding": [[0, 0], [0, 0]], "data_format": "channels_first"}, "name": "476", "inbound_nodes": [[["469", 0, 0, {}]]]}, {"class_name": "ZeroPadding2D", "config": {"name": "477_pad", "trainable": true, "dtype": "float32", "padding": [[0, 0], [0, 0]], "data_format": "channels_first"}, "name": "477_pad", "inbound_nodes": [[["476", 0, 0, {}]]]}, {"class_name": "AveragePooling2D", "config": {"name": "477", "trainable": true, "dtype": "float32", "pool_size": [28, 28], "padding": "valid", "strides": [28, 28], "data_format": "channels_first"}, "name": "477", "inbound_nodes": [[["477_pad", 0, 0, {}]]]}, {"class_name": "Reshape", "config": {"name": "481", "trainable": true, "dtype": "float32", "target_shape": [480]}, "name": "481", "inbound_nodes": [[["477", 0, 0, {}]]]}, {"class_name": "Dense", "config": {"name": "482", "trainable": true, "dtype": "float32", "units": 120, "activation": "linear", "use_bias": true, "kernel_initializer": {"class_name": "Zeros", "config": {}}, "bias_initializer": {"class_name": "Zeros", "config": {}}, "kernel_regularizer": null, "bias_regularizer": null, "activity_regularizer": null, "kernel_constraint": null, "bias_constraint": null}, "name": "482", "inbound_nodes": [[["481", 0, 0, {}]]]}, {"class_name": "Activation", "config": {"name": "483", "trainable": true, "dtype": "float32", "activation": "relu"}, "name": "483", "inbound_nodes": [[["482", 0, 0, {}]]]}, {"class_name": "Dense", "config": {"name": "484", "trainable": true, "dtype": "float32", "units": 480, "activation": "linear", "use_bias": true, "kernel_initializer": {"class_name": "Zeros", "config": {}}, "bias_initializer": {"class_name": "Zeros", "config": {}}, "kernel_regularizer": null, "bias_regularizer": null, "activity_regularizer": null, "kernel_constraint": null, "bias_constraint": null}, "name": "484", "inbound_nodes": [[["483", 0, 0, {}]]]}, {"class_name": "Activation", "config": {"name": "485", "trainable": true, "dtype": "float32", "activation": "sigmoid"}, "name": "485", "inbound_nodes": [[["484", 0, 0, {}]]]}, {"class_name": "Reshape", "config": {"name": "493", "trainable": true, "dtype": "float32", "target_shape": [480, 1, 1]}, "name": "493", "inbound_nodes": [[["485", 0, 0, {}]]]}, {"class_name": "Multiply", "config": {"name": "494", "trainable": true, "dtype": "float32"}, "name": "494", "inbound_nodes": [[["469", 0, 0, {}], ["493", 0, 0, {}]]]}, {"class_name": "Activation", "config": {"name": "495", "trainable": true, "dtype": "float32", "activation": "relu"}, "name": "495", "inbound_nodes": [[["494", 0, 0, {}]]]}, {"class_name": "Conv2D", "config": {"name": "496", "trainable": true, "dtype": "float32", "filters": 112, "kernel_size": [1, 1], "strides": [1, 1], "padding": "valid", "data_format": "channels_first", "dilation_rate": [1, 1], "activation": "linear", "use_bias": false, "kernel_initializer": {"class_name": "Zeros", "config": {}}, "bias_initializer": {"class_name": "Zeros", "config": {}}, "kernel_regularizer": null, "bias_regularizer": null, "activity_regularizer": null, "kernel_constraint": null, "bias_constraint": null}, "name": "496", "inbound_nodes": [[["495", 0, 0, {}]]]}, {"class_name": "BatchNormalization", "config": {"name": "output_3", "trainable": true, "dtype": "float32", "axis": [1], "momentum": 0.8999999761581421, "epsilon": 9.999999747378752e-06, "center": true, "scale": true, "beta_initializer": {"class_name": "Zeros", "config": {}}, "gamma_initializer": {"class_name": "Ones", "config": {}}, "moving_mean_initializer": {"class_name": "Zeros", "config": {}}, "moving_variance_initializer": {"class_name": "Ones", "config": {}}, "beta_regularizer": null, "gamma_regularizer": null, "beta_constraint": null, "gamma_constraint": null}, "name": "output_3", "inbound_nodes": [[["496", 0, 0, {}]]]}, {"class_name": "Conv2D", "config": {"name": "498", "trainable": true, "dtype": "float32", "filters": 672, "kernel_size": [1, 1], "strides": [1, 1], "padding": "valid", "data_format": "channels_first", "dilation_rate": [1, 1], "activation": "linear", "use_bias": false, "kernel_initializer": {"class_name": "Zeros", "config": {}}, "bias_initializer": {"class_name": "Zeros", "config": {}}, "kernel_regularizer": null, "bias_regularizer": null, "activity_regularizer": null, "kernel_constraint": null, "bias_constraint": null}, "name": "498", "inbound_nodes": [[["output_3", 0, 0, {}]]]}, {"class_name": "BatchNormalization", "config": {"name": "499", "trainable": true, "dtype": "float32", "axis": [1], "momentum": 0.8999999761581421, "epsilon": 9.999999747378752e-06, "center": true, "scale": true, "beta_initializer": {"class_name": "Zeros", "config": {}}, "gamma_initializer": {"class_name": "Ones", "config": {}}, "moving_mean_initializer": {"class_name": "Zeros", "config": {}}, "moving_variance_initializer": {"class_name": "Ones", "config": {}}, "beta_regularizer": null, "gamma_regularizer": null, "beta_constraint": null, "gamma_constraint": null}, "name": "499", "inbound_nodes": [[["498", 0, 0, {}]]]}, {"class_name": "Activation", "config": {"name": "500", "trainable": true, "dtype": "float32", "activation": "relu"}, "name": "500", "inbound_nodes": [[["499", 0, 0, {}]]]}, {"class_name": "ZeroPadding2D", "config": {"name": "501_pad", "trainable": true, "dtype": "float32", "padding": [[1, 1], [1, 1]], "data_format": "channels_first"}, "name": "501_pad", "inbound_nodes": [[["500", 0, 0, {}]]]}, {"class_name": "DepthwiseConv2D", "config": {"name": "501", "trainable": true, "dtype": "float32", "kernel_size": [3, 3], "strides": [1, 1], "padding": "valid", "data_format": "channels_first", "dilation_rate": [1, 1], "activation": "linear", "use_bias": false, "bias_initializer": {"class_name": "Zeros", "config": {}}, "bias_regularizer": null, "activity_regularizer": null, "bias_constraint": null, "depth_multiplier": 1, "depthwise_initializer": {"class_name": "GlorotUniform", "config": {"seed": null}}, "depthwise_regularizer": null, "depthwise_constraint": null}, "name": "501", "inbound_nodes": [[["501_pad", 0, 0, {}]]]}, {"class_name": "BatchNormalization", "config": {"name": "502", "trainable": true, "dtype": "float32", "axis": [1], "momentum": 0.8999999761581421, "epsilon": 9.999999747378752e-06, "center": true, "scale": true, "beta_initializer": {"class_name": "Zeros", "config": {}}, "gamma_initializer": {"class_name": "Ones", "config": {}}, "moving_mean_initializer": {"class_name": "Zeros", "config": {}}, "moving_variance_initializer": {"class_name": "Ones", "config": {}}, "beta_regularizer": null, "gamma_regularizer": null, "beta_constraint": null, "gamma_constraint": null}, "name": "502", "inbound_nodes": [[["501", 0, 0, {}]]]}, {"class_name": "ZeroPadding2D", "config": {"name": "509", "trainable": true, "dtype": "float32", "padding": [[0, 0], [0, 0]], "data_format": "channels_first"}, "name": "509", "inbound_nodes": [[["502", 0, 0, {}]]]}, {"class_name": "ZeroPadding2D", "config": {"name": "510_pad", "trainable": true, "dtype": "float32", "padding": [[0, 0], [0, 0]], "data_format": "channels_first"}, "name": "510_pad", "inbound_nodes": [[["509", 0, 0, {}]]]}, {"class_name": "AveragePooling2D", "config": {"name": "510", "trainable": true, "dtype": "float32", "pool_size": [28, 28], "padding": "valid", "strides": [28, 28], "data_format": "channels_first"}, "name": "510", "inbound_nodes": [[["510_pad", 0, 0, {}]]]}, {"class_name": "Reshape", "config": {"name": "514", "trainable": true, "dtype": "float32", "target_shape": [672]}, "name": "514", "inbound_nodes": [[["510", 0, 0, {}]]]}, {"class_name": "Dense", "config": {"name": "515", "trainable": true, "dtype": "float32", "units": 168, "activation": "linear", "use_bias": true, "kernel_initializer": {"class_name": "Zeros", "config": {}}, "bias_initializer": {"class_name": "Zeros", "config": {}}, "kernel_regularizer": null, "bias_regularizer": null, "activity_regularizer": null, "kernel_constraint": null, "bias_constraint": null}, "name": "515", "inbound_nodes": [[["514", 0, 0, {}]]]}, {"class_name": "Activation", "config": {"name": "516", "trainable": true, "dtype": "float32", "activation": "relu"}, "name": "516", "inbound_nodes": [[["515", 0, 0, {}]]]}, {"class_name": "Dense", "config": {"name": "517", "trainable": true, "dtype": "float32", "units": 672, "activation": "linear", "use_bias": true, "kernel_initializer": {"class_name": "Zeros", "config": {}}, "bias_initializer": {"class_name": "Zeros", "config": {}}, "kernel_regularizer": null, "bias_regularizer": null, "activity_regularizer": null, "kernel_constraint": null, "bias_constraint": null}, "name": "517", "inbound_nodes": [[["516", 0, 0, {}]]]}, {"class_name": "Activation", "config": {"name": "518", "trainable": true, "dtype": "float32", "activation": "sigmoid"}, "name": "518", "inbound_nodes": [[["517", 0, 0, {}]]]}, {"class_name": "Reshape", "config": {"name": "526", "trainable": true, "dtype": "float32", "target_shape": [672, 1, 1]}, "name": "526", "inbound_nodes": [[["518", 0, 0, {}]]]}, {"class_name": "Multiply", "config": {"name": "527", "trainable": true, "dtype": "float32"}, "name": "527", "inbound_nodes": [[["502", 0, 0, {}], ["526", 0, 0, {}]]]}, {"class_name": "Activation", "config": {"name": "528", "trainable": true, "dtype": "float32", "activation": "relu"}, "name": "528", "inbound_nodes": [[["527", 0, 0, {}]]]}, {"class_name": "Conv2D", "config": {"name": "529", "trainable": true, "dtype": "float32", "filters": 112, "kernel_size": [1, 1], "strides": [1, 1], "padding": "valid", "data_format": "channels_first", "dilation_rate": [1, 1], "activation": "linear", "use_bias": false, "kernel_initializer": {"class_name": "Zeros", "config": {}}, "bias_initializer": {"class_name": "Zeros", "config": {}}, "kernel_regularizer": null, "bias_regularizer": null, "activity_regularizer": null, "kernel_constraint": null, "bias_constraint": null}, "name": "529", "inbound_nodes": [[["528", 0, 0, {}]]]}, {"class_name": "BatchNormalization", "config": {"name": "530", "trainable": true, "dtype": "float32", "axis": [1], "momentum": 0.8999999761581421, "epsilon": 9.999999747378752e-06, "center": true, "scale": true, "beta_initializer": {"class_name": "Zeros", "config": {}}, "gamma_initializer": {"class_name": "Ones", "config": {}}, "moving_mean_initializer": {"class_name": "Zeros", "config": {}}, "moving_variance_initializer": {"class_name": "Ones", "config": {}}, "beta_regularizer": null, "gamma_regularizer": null, "beta_constraint": null, "gamma_constraint": null}, "name": "530", "inbound_nodes": [[["529", 0, 0, {}]]]}, {"class_name": "Add", "config": {"name": "531", "trainable": true, "dtype": "float32"}, "name": "531", "inbound_nodes": [[["output_3", 0, 0, {}], ["530", 0, 0, {}]]]}, {"class_name": "Conv2D", "config": {"name": "532", "trainable": true, "dtype": "float32", "filters": 672, "kernel_size": [1, 1], "strides": [1, 1], "padding": "valid", "data_format": "channels_first", "dilation_rate": [1, 1], "activation": "linear", "use_bias": false, "kernel_initializer": {"class_name": "Zeros", "config": {}}, "bias_initializer": {"class_name": "Zeros", "config": {}}, "kernel_regularizer": null, "bias_regularizer": null, "activity_regularizer": null, "kernel_constraint": null, "bias_constraint": null}, "name": "532", "inbound_nodes": [[["531", 0, 0, {}]]]}, {"class_name": "BatchNormalization", "config": {"name": "533", "trainable": true, "dtype": "float32", "axis": [1], "momentum": 0.8999999761581421, "epsilon": 9.999999747378752e-06, "center": true, "scale": true, "beta_initializer": {"class_name": "Zeros", "config": {}}, "gamma_initializer": {"class_name": "Ones", "config": {}}, "moving_mean_initializer": {"class_name": "Zeros", "config": {}}, "moving_variance_initializer": {"class_name": "Ones", "config": {}}, "beta_regularizer": null, "gamma_regularizer": null, "beta_constraint": null, "gamma_constraint": null}, "name": "533", "inbound_nodes": [[["532", 0, 0, {}]]]}, {"class_name": "Activation", "config": {"name": "534", "trainable": true, "dtype": "float32", "activation": "relu"}, "name": "534", "inbound_nodes": [[["533", 0, 0, {}]]]}, {"class_name": "ZeroPadding2D", "config": {"name": "535_pad", "trainable": true, "dtype": "float32", "padding": [[2, 2], [2, 2]], "data_format": "channels_first"}, "name": "535_pad", "inbound_nodes": [[["534", 0, 0, {}]]]}, {"class_name": "DepthwiseConv2D", "config": {"name": "535", "trainable": true, "dtype": "float32", "kernel_size": [5, 5], "strides": [2, 2], "padding": "valid", "data_format": "channels_first", "dilation_rate": [1, 1], "activation": "linear", "use_bias": false, "bias_initializer": {"class_name": "Zeros", "config": {}}, "bias_regularizer": null, "activity_regularizer": null, "bias_constraint": null, "depth_multiplier": 1, "depthwise_initializer": {"class_name": "GlorotUniform", "config": {"seed": null}}, "depthwise_regularizer": null, "depthwise_constraint": null}, "name": "535", "inbound_nodes": [[["535_pad", 0, 0, {}]]]}, {"class_name": "BatchNormalization", "config": {"name": "536", "trainable": true, "dtype": "float32", "axis": [1], "momentum": 0.8999999761581421, "epsilon": 9.999999747378752e-06, "center": true, "scale": true, "beta_initializer": {"class_name": "Zeros", "config": {}}, "gamma_initializer": {"class_name": "Ones", "config": {}}, "moving_mean_initializer": {"class_name": "Zeros", "config": {}}, "moving_variance_initializer": {"class_name": "Ones", "config": {}}, "beta_regularizer": null, "gamma_regularizer": null, "beta_constraint": null, "gamma_constraint": null}, "name": "536", "inbound_nodes": [[["535", 0, 0, {}]]]}, {"class_name": "ZeroPadding2D", "config": {"name": "543", "trainable": true, "dtype": "float32", "padding": [[0, 0], [0, 0]], "data_format": "channels_first"}, "name": "543", "inbound_nodes": [[["536", 0, 0, {}]]]}, {"class_name": "ZeroPadding2D", "config": {"name": "544_pad", "trainable": true, "dtype": "float32", "padding": [[0, 0], [0, 0]], "data_format": "channels_first"}, "name": "544_pad", "inbound_nodes": [[["543", 0, 0, {}]]]}, {"class_name": "AveragePooling2D", "config": {"name": "544", "trainable": true, "dtype": "float32", "pool_size": [14, 14], "padding": "valid", "strides": [14, 14], "data_format": "channels_first"}, "name": "544", "inbound_nodes": [[["544_pad", 0, 0, {}]]]}, {"class_name": "Reshape", "config": {"name": "548", "trainable": true, "dtype": "float32", "target_shape": [672]}, "name": "548", "inbound_nodes": [[["544", 0, 0, {}]]]}, {"class_name": "Dense", "config": {"name": "549", "trainable": true, "dtype": "float32", "units": 168, "activation": "linear", "use_bias": true, "kernel_initializer": {"class_name": "Zeros", "config": {}}, "bias_initializer": {"class_name": "Zeros", "config": {}}, "kernel_regularizer": null, "bias_regularizer": null, "activity_regularizer": null, "kernel_constraint": null, "bias_constraint": null}, "name": "549", "inbound_nodes": [[["548", 0, 0, {}]]]}, {"class_name": "Activation", "config": {"name": "550", "trainable": true, "dtype": "float32", "activation": "relu"}, "name": "550", "inbound_nodes": [[["549", 0, 0, {}]]]}, {"class_name": "Dense", "config": {"name": "551", "trainable": true, "dtype": "float32", "units": 672, "activation": "linear", "use_bias": true, "kernel_initializer": {"class_name": "Zeros", "config": {}}, "bias_initializer": {"class_name": "Zeros", "config": {}}, "kernel_regularizer": null, "bias_regularizer": null, "activity_regularizer": null, "kernel_constraint": null, "bias_constraint": null}, "name": "551", "inbound_nodes": [[["550", 0, 0, {}]]]}, {"class_name": "Activation", "config": {"name": "552", "trainable": true, "dtype": "float32", "activation": "sigmoid"}, "name": "552", "inbound_nodes": [[["551", 0, 0, {}]]]}, {"class_name": "Reshape", "config": {"name": "560", "trainable": true, "dtype": "float32", "target_shape": [672, 1, 1]}, "name": "560", "inbound_nodes": [[["552", 0, 0, {}]]]}, {"class_name": "Multiply", "config": {"name": "561", "trainable": true, "dtype": "float32"}, "name": "561", "inbound_nodes": [[["536", 0, 0, {}], ["560", 0, 0, {}]]]}, {"class_name": "Activation", "config": {"name": "562", "trainable": true, "dtype": "float32", "activation": "relu"}, "name": "562", "inbound_nodes": [[["561", 0, 0, {}]]]}, {"class_name": "Conv2D", "config": {"name": "563", "trainable": true, "dtype": "float32", "filters": 160, "kernel_size": [1, 1], "strides": [1, 1], "padding": "valid", "data_format": "channels_first", "dilation_rate": [1, 1], "activation": "linear", "use_bias": false, "kernel_initializer": {"class_name": "Zeros", "config": {}}, "bias_initializer": {"class_name": "Zeros", "config": {}}, "kernel_regularizer": null, "bias_regularizer": null, "activity_regularizer": null, "kernel_constraint": null, "bias_constraint": null}, "name": "563", "inbound_nodes": [[["562", 0, 0, {}]]]}, {"class_name": "BatchNormalization", "config": {"name": "564", "trainable": true, "dtype": "float32", "axis": [1], "momentum": 0.8999999761581421, "epsilon": 9.999999747378752e-06, "center": true, "scale": true, "beta_initializer": {"class_name": "Zeros", "config": {}}, "gamma_initializer": {"class_name": "Ones", "config": {}}, "moving_mean_initializer": {"class_name": "Zeros", "config": {}}, "moving_variance_initializer": {"class_name": "Ones", "config": {}}, "beta_regularizer": null, "gamma_regularizer": null, "beta_constraint": null, "gamma_constraint": null}, "name": "564", "inbound_nodes": [[["563", 0, 0, {}]]]}, {"class_name": "Conv2D", "config": {"name": "565", "trainable": true, "dtype": "float32", "filters": 960, "kernel_size": [1, 1], "strides": [1, 1], "padding": "valid", "data_format": "channels_first", "dilation_rate": [1, 1], "activation": "linear", "use_bias": false, "kernel_initializer": {"class_name": "Zeros", "config": {}}, "bias_initializer": {"class_name": "Zeros", "config": {}}, "kernel_regularizer": null, "bias_regularizer": null, "activity_regularizer": null, "kernel_constraint": null, "bias_constraint": null}, "name": "565", "inbound_nodes": [[["564", 0, 0, {}]]]}, {"class_name": "BatchNormalization", "config": {"name": "566", "trainable": true, "dtype": "float32", "axis": [1], "momentum": 0.8999999761581421, "epsilon": 9.999999747378752e-06, "center": true, "scale": true, "beta_initializer": {"class_name": "Zeros", "config": {}}, "gamma_initializer": {"class_name": "Ones", "config": {}}, "moving_mean_initializer": {"class_name": "Zeros", "config": {}}, "moving_variance_initializer": {"class_name": "Ones", "config": {}}, "beta_regularizer": null, "gamma_regularizer": null, "beta_constraint": null, "gamma_constraint": null}, "name": "566", "inbound_nodes": [[["565", 0, 0, {}]]]}, {"class_name": "Activation", "config": {"name": "567", "trainable": true, "dtype": "float32", "activation": "relu"}, "name": "567", "inbound_nodes": [[["566", 0, 0, {}]]]}, {"class_name": "ZeroPadding2D", "config": {"name": "568_pad", "trainable": true, "dtype": "float32", "padding": [[2, 2], [2, 2]], "data_format": "channels_first"}, "name": "568_pad", "inbound_nodes": [[["567", 0, 0, {}]]]}, {"class_name": "DepthwiseConv2D", "config": {"name": "568", "trainable": true, "dtype": "float32", "kernel_size": [5, 5], "strides": [1, 1], "padding": "valid", "data_format": "channels_first", "dilation_rate": [1, 1], "activation": "linear", "use_bias": false, "bias_initializer": {"class_name": "Zeros", "config": {}}, "bias_regularizer": null, "activity_regularizer": null, "bias_constraint": null, "depth_multiplier": 1, "depthwise_initializer": {"class_name": "GlorotUniform", "config": {"seed": null}}, "depthwise_regularizer": null, "depthwise_constraint": null}, "name": "568", "inbound_nodes": [[["568_pad", 0, 0, {}]]]}, {"class_name": "BatchNormalization", "config": {"name": "569", "trainable": true, "dtype": "float32", "axis": [1], "momentum": 0.8999999761581421, "epsilon": 9.999999747378752e-06, "center": true, "scale": true, "beta_initializer": {"class_name": "Zeros", "config": {}}, "gamma_initializer": {"class_name": "Ones", "config": {}}, "moving_mean_initializer": {"class_name": "Zeros", "config": {}}, "moving_variance_initializer": {"class_name": "Ones", "config": {}}, "beta_regularizer": null, "gamma_regularizer": null, "beta_constraint": null, "gamma_constraint": null}, "name": "569", "inbound_nodes": [[["568", 0, 0, {}]]]}, {"class_name": "ZeroPadding2D", "config": {"name": "576", "trainable": true, "dtype": "float32", "padding": [[0, 0], [0, 0]], "data_format": "channels_first"}, "name": "576", "inbound_nodes": [[["569", 0, 0, {}]]]}, {"class_name": "ZeroPadding2D", "config": {"name": "577_pad", "trainable": true, "dtype": "float32", "padding": [[0, 0], [0, 0]], "data_format": "channels_first"}, "name": "577_pad", "inbound_nodes": [[["576", 0, 0, {}]]]}, {"class_name": "AveragePooling2D", "config": {"name": "577", "trainable": true, "dtype": "float32", "pool_size": [14, 14], "padding": "valid", "strides": [14, 14], "data_format": "channels_first"}, "name": "577", "inbound_nodes": [[["577_pad", 0, 0, {}]]]}, {"class_name": "Reshape", "config": {"name": "581", "trainable": true, "dtype": "float32", "target_shape": [960]}, "name": "581", "inbound_nodes": [[["577", 0, 0, {}]]]}, {"class_name": "Dense", "config": {"name": "582", "trainable": true, "dtype": "float32", "units": 240, "activation": "linear", "use_bias": true, "kernel_initializer": {"class_name": "Zeros", "config": {}}, "bias_initializer": {"class_name": "Zeros", "config": {}}, "kernel_regularizer": null, "bias_regularizer": null, "activity_regularizer": null, "kernel_constraint": null, "bias_constraint": null}, "name": "582", "inbound_nodes": [[["581", 0, 0, {}]]]}, {"class_name": "Activation", "config": {"name": "583", "trainable": true, "dtype": "float32", "activation": "relu"}, "name": "583", "inbound_nodes": [[["582", 0, 0, {}]]]}, {"class_name": "Dense", "config": {"name": "584", "trainable": true, "dtype": "float32", "units": 960, "activation": "linear", "use_bias": true, "kernel_initializer": {"class_name": "Zeros", "config": {}}, "bias_initializer": {"class_name": "Zeros", "config": {}}, "kernel_regularizer": null, "bias_regularizer": null, "activity_regularizer": null, "kernel_constraint": null, "bias_constraint": null}, "name": "584", "inbound_nodes": [[["583", 0, 0, {}]]]}, {"class_name": "Activation", "config": {"name": "585", "trainable": true, "dtype": "float32", "activation": "sigmoid"}, "name": "585", "inbound_nodes": [[["584", 0, 0, {}]]]}, {"class_name": "Reshape", "config": {"name": "593", "trainable": true, "dtype": "float32", "target_shape": [960, 1, 1]}, "name": "593", "inbound_nodes": [[["585", 0, 0, {}]]]}, {"class_name": "Multiply", "config": {"name": "594", "trainable": true, "dtype": "float32"}, "name": "594", "inbound_nodes": [[["569", 0, 0, {}], ["593", 0, 0, {}]]]}, {"class_name": "Activation", "config": {"name": "595", "trainable": true, "dtype": "float32", "activation": "relu"}, "name": "595", "inbound_nodes": [[["594", 0, 0, {}]]]}, {"class_name": "Conv2D", "config": {"name": "596", "trainable": true, "dtype": "float32", "filters": 160, "kernel_size": [1, 1], "strides": [1, 1], "padding": "valid", "data_format": "channels_first", "dilation_rate": [1, 1], "activation": "linear", "use_bias": false, "kernel_initializer": {"class_name": "Zeros", "config": {}}, "bias_initializer": {"class_name": "Zeros", "config": {}}, "kernel_regularizer": null, "bias_regularizer": null, "activity_regularizer": null, "kernel_constraint": null, "bias_constraint": null}, "name": "596", "inbound_nodes": [[["595", 0, 0, {}]]]}, {"class_name": "BatchNormalization", "config": {"name": "597", "trainable": true, "dtype": "float32", "axis": [1], "momentum": 0.8999999761581421, "epsilon": 9.999999747378752e-06, "center": true, "scale": true, "beta_initializer": {"class_name": "Zeros", "config": {}}, "gamma_initializer": {"class_name": "Ones", "config": {}}, "moving_mean_initializer": {"class_name": "Zeros", "config": {}}, "moving_variance_initializer": {"class_name": "Ones", "config": {}}, "beta_regularizer": null, "gamma_regularizer": null, "beta_constraint": null, "gamma_constraint": null}, "name": "597", "inbound_nodes": [[["596", 0, 0, {}]]]}, {"class_name": "Add", "config": {"name": "598", "trainable": true, "dtype": "float32"}, "name": "598", "inbound_nodes": [[["564", 0, 0, {}], ["597", 0, 0, {}]]]}, {"class_name": "Conv2D", "config": {"name": "599", "trainable": true, "dtype": "float32", "filters": 960, "kernel_size": [1, 1], "strides": [1, 1], "padding": "valid", "data_format": "channels_first", "dilation_rate": [1, 1], "activation": "linear", "use_bias": false, "kernel_initializer": {"class_name": "Zeros", "config": {}}, "bias_initializer": {"class_name": "Zeros", "config": {}}, "kernel_regularizer": null, "bias_regularizer": null, "activity_regularizer": null, "kernel_constraint": null, "bias_constraint": null}, "name": "599", "inbound_nodes": [[["598", 0, 0, {}]]]}, {"class_name": "BatchNormalization", "config": {"name": "600", "trainable": true, "dtype": "float32", "axis": [1], "momentum": 0.8999999761581421, "epsilon": 9.999999747378752e-06, "center": true, "scale": true, "beta_initializer": {"class_name": "Zeros", "config": {}}, "gamma_initializer": {"class_name": "Ones", "config": {}}, "moving_mean_initializer": {"class_name": "Zeros", "config": {}}, "moving_variance_initializer": {"class_name": "Ones", "config": {}}, "beta_regularizer": null, "gamma_regularizer": null, "beta_constraint": null, "gamma_constraint": null}, "name": "600", "inbound_nodes": [[["599", 0, 0, {}]]]}, {"class_name": "Activation", "config": {"name": "601", "trainable": true, "dtype": "float32", "activation": "relu"}, "name": "601", "inbound_nodes": [[["600", 0, 0, {}]]]}, {"class_name": "ZeroPadding2D", "config": {"name": "602_pad", "trainable": true, "dtype": "float32", "padding": [[2, 2], [2, 2]], "data_format": "channels_first"}, "name": "602_pad", "inbound_nodes": [[["601", 0, 0, {}]]]}, {"class_name": "DepthwiseConv2D", "config": {"name": "602", "trainable": true, "dtype": "float32", "kernel_size": [5, 5], "strides": [1, 1], "padding": "valid", "data_format": "channels_first", "dilation_rate": [1, 1], "activation": "linear", "use_bias": false, "bias_initializer": {"class_name": "Zeros", "config": {}}, "bias_regularizer": null, "activity_regularizer": null, "bias_constraint": null, "depth_multiplier": 1, "depthwise_initializer": {"class_name": "GlorotUniform", "config": {"seed": null}}, "depthwise_regularizer": null, "depthwise_constraint": null}, "name": "602", "inbound_nodes": [[["602_pad", 0, 0, {}]]]}, {"class_name": "BatchNormalization", "config": {"name": "603", "trainable": true, "dtype": "float32", "axis": [1], "momentum": 0.8999999761581421, "epsilon": 9.999999747378752e-06, "center": true, "scale": true, "beta_initializer": {"class_name": "Zeros", "config": {}}, "gamma_initializer": {"class_name": "Ones", "config": {}}, "moving_mean_initializer": {"class_name": "Zeros", "config": {}}, "moving_variance_initializer": {"class_name": "Ones", "config": {}}, "beta_regularizer": null, "gamma_regularizer": null, "beta_constraint": null, "gamma_constraint": null}, "name": "603", "inbound_nodes": [[["602", 0, 0, {}]]]}, {"class_name": "ZeroPadding2D", "config": {"name": "610", "trainable": true, "dtype": "float32", "padding": [[0, 0], [0, 0]], "data_format": "channels_first"}, "name": "610", "inbound_nodes": [[["603", 0, 0, {}]]]}, {"class_name": "ZeroPadding2D", "config": {"name": "611_pad", "trainable": true, "dtype": "float32", "padding": [[0, 0], [0, 0]], "data_format": "channels_first"}, "name": "611_pad", "inbound_nodes": [[["610", 0, 0, {}]]]}, {"class_name": "AveragePooling2D", "config": {"name": "611", "trainable": true, "dtype": "float32", "pool_size": [14, 14], "padding": "valid", "strides": [14, 14], "data_format": "channels_first"}, "name": "611", "inbound_nodes": [[["611_pad", 0, 0, {}]]]}, {"class_name": "Reshape", "config": {"name": "615", "trainable": true, "dtype": "float32", "target_shape": [960]}, "name": "615", "inbound_nodes": [[["611", 0, 0, {}]]]}, {"class_name": "Dense", "config": {"name": "616", "trainable": true, "dtype": "float32", "units": 240, "activation": "linear", "use_bias": true, "kernel_initializer": {"class_name": "Zeros", "config": {}}, "bias_initializer": {"class_name": "Zeros", "config": {}}, "kernel_regularizer": null, "bias_regularizer": null, "activity_regularizer": null, "kernel_constraint": null, "bias_constraint": null}, "name": "616", "inbound_nodes": [[["615", 0, 0, {}]]]}, {"class_name": "Activation", "config": {"name": "617", "trainable": true, "dtype": "float32", "activation": "relu"}, "name": "617", "inbound_nodes": [[["616", 0, 0, {}]]]}, {"class_name": "Dense", "config": {"name": "618", "trainable": true, "dtype": "float32", "units": 960, "activation": "linear", "use_bias": true, "kernel_initializer": {"class_name": "Zeros", "config": {}}, "bias_initializer": {"class_name": "Zeros", "config": {}}, "kernel_regularizer": null, "bias_regularizer": null, "activity_regularizer": null, "kernel_constraint": null, "bias_constraint": null}, "name": "618", "inbound_nodes": [[["617", 0, 0, {}]]]}, {"class_name": "Activation", "config": {"name": "619", "trainable": true, "dtype": "float32", "activation": "sigmoid"}, "name": "619", "inbound_nodes": [[["618", 0, 0, {}]]]}, {"class_name": "Reshape", "config": {"name": "627", "trainable": true, "dtype": "float32", "target_shape": [960, 1, 1]}, "name": "627", "inbound_nodes": [[["619", 0, 0, {}]]]}, {"class_name": "Multiply", "config": {"name": "628", "trainable": true, "dtype": "float32"}, "name": "628", "inbound_nodes": [[["603", 0, 0, {}], ["627", 0, 0, {}]]]}, {"class_name": "Activation", "config": {"name": "629", "trainable": true, "dtype": "float32", "activation": "relu"}, "name": "629", "inbound_nodes": [[["628", 0, 0, {}]]]}, {"class_name": "Conv2D", "config": {"name": "630", "trainable": true, "dtype": "float32", "filters": 160, "kernel_size": [1, 1], "strides": [1, 1], "padding": "valid", "data_format": "channels_first", "dilation_rate": [1, 1], "activation": "linear", "use_bias": false, "kernel_initializer": {"class_name": "Zeros", "config": {}}, "bias_initializer": {"class_name": "Zeros", "config": {}}, "kernel_regularizer": null, "bias_regularizer": null, "activity_regularizer": null, "kernel_constraint": null, "bias_constraint": null}, "name": "630", "inbound_nodes": [[["629", 0, 0, {}]]]}, {"class_name": "BatchNormalization", "config": {"name": "631", "trainable": true, "dtype": "float32", "axis": [1], "momentum": 0.8999999761581421, "epsilon": 9.999999747378752e-06, "center": true, "scale": true, "beta_initializer": {"class_name": "Zeros", "config": {}}, "gamma_initializer": {"class_name": "Ones", "config": {}}, "moving_mean_initializer": {"class_name": "Zeros", "config": {}}, "moving_variance_initializer": {"class_name": "Ones", "config": {}}, "beta_regularizer": null, "gamma_regularizer": null, "beta_constraint": null, "gamma_constraint": null}, "name": "631", "inbound_nodes": [[["630", 0, 0, {}]]]}, {"class_name": "Add", "config": {"name": "output_4", "trainable": true, "dtype": "float32"}, "name": "output_4", "inbound_nodes": [[["598", 0, 0, {}], ["631", 0, 0, {}]]]}], "input_layers": [["input_0", 0, 0]], "output_layers": [["output_0", 0, 0], ["output_1", 0, 0], ["output_2", 0, 0], ["output_3", 0, 0], ["output_4", 0, 0]]}}}, "weightsManifest": [{"paths": ["group1-shard1of3.bin", "group1-shard2of3.bin", "group1-shard3of3.bin"], "weights": [{"name": "303/kernel", "shape": [3, 3, 3, 16], "dtype": "float32"}, {"name": "304/gamma", "shape": [16], "dtype": "float32"}, {"name": "304/beta", "shape": [16], "dtype": "float32"}, {"name": "304/moving_mean", "shape": [16], "dtype": "float32"}, {"name": "304/moving_variance", "shape": [16], "dtype": "float32"}, {"name": "306/depthwise_kernel", "shape": [3, 3, 16, 1], "dtype": "float32"}, {"name": "307/gamma", "shape": [16], "dtype": "float32"}, {"name": "307/beta", "shape": [16], "dtype": "float32"}, {"name": "307/moving_mean", "shape": [16], "dtype": "float32"}, {"name": "307/moving_variance", "shape": [16], "dtype": "float32"}, {"name": "309/kernel", "shape": [1, 1, 16, 16], "dtype": "float32"}, {"name": "310/gamma", "shape": [16], "dtype": "float32"}, {"name": "310/beta", "shape": [16], "dtype": "float32"}, {"name": "310/moving_mean", "shape": [16], "dtype": "float32"}, {"name": "310/moving_variance", "shape": [16], "dtype": "float32"}, {"name": "312/kernel", "shape": [1, 1, 16, 64], "dtype": "float32"}, {"name": "313/gamma", "shape": [64], "dtype": "float32"}, {"name": "313/beta", "shape": [64], "dtype": "float32"}, {"name": "313/moving_mean", "shape": [64], "dtype": "float32"}, {"name": "313/moving_variance", "shape": [64], "dtype": "float32"}, {"name": "315/depthwise_kernel", "shape": [3, 3, 64, 1], "dtype": "float32"}, {"name": "316/gamma", "shape": [64], "dtype": "float32"}, {"name": "316/beta", "shape": [64], "dtype": "float32"}, {"name": "316/moving_mean", "shape": [64], "dtype": "float32"}, {"name": "316/moving_variance", "shape": [64], "dtype": "float32"}, {"name": "318/kernel", "shape": [1, 1, 64, 24], "dtype": "float32"}, {"name": "320/kernel", "shape": [1, 1, 24, 72], "dtype": "float32"}, {"name": "321/gamma", "shape": [72], "dtype": "float32"}, {"name": "321/beta", "shape": [72], "dtype": "float32"}, {"name": "321/moving_mean", "shape": [72], "dtype": "float32"}, {"name": "321/moving_variance", "shape": [72], "dtype": "float32"}, {"name": "323/depthwise_kernel", "shape": [3, 3, 72, 1], "dtype": "float32"}, {"name": "324/gamma", "shape": [72], "dtype": "float32"}, {"name": "324/beta", "shape": [72], "dtype": "float32"}, {"name": "324/moving_mean", "shape": [72], "dtype": "float32"}, {"name": "324/moving_variance", "shape": [72], "dtype": "float32"}, {"name": "326/kernel", "shape": [1, 1, 72, 24], "dtype": "float32"}, {"name": "327/gamma", "shape": [24], "dtype": "float32"}, {"name": "327/beta", "shape": [24], "dtype": "float32"}, {"name": "327/moving_mean", "shape": [24], "dtype": "float32"}, {"name": "327/moving_variance", "shape": [24], "dtype": "float32"}, {"name": "329/kernel", "shape": [1, 1, 24, 72], "dtype": "float32"}, {"name": "330/gamma", "shape": [72], "dtype": "float32"}, {"name": "330/beta", "shape": [72], "dtype": "float32"}, {"name": "330/moving_mean", "shape": [72], "dtype": "float32"}, {"name": "330/moving_variance", "shape": [72], "dtype": "float32"}, {"name": "332/depthwise_kernel", "shape": [5, 5, 72, 1], "dtype": "float32"}, {"name": "333/gamma", "shape": [72], "dtype": "float32"}, {"name": "333/beta", "shape": [72], "dtype": "float32"}, {"name": "333/moving_mean", "shape": [72], "dtype": "float32"}, {"name": "333/moving_variance", "shape": [72], "dtype": "float32"}, {"name": "346/kernel", "shape": [72, 24], "dtype": "float32"}, {"name": "346/bias", "shape": [24], "dtype": "float32"}, {"name": "348/kernel", "shape": [24, 72], "dtype": "float32"}, {"name": "348/bias", "shape": [72], "dtype": "float32"}, {"name": "360/kernel", "shape": [1, 1, 72, 40], "dtype": "float32"}, {"name": "361/gamma", "shape": [40], "dtype": "float32"}, {"name": "361/beta", "shape": [40], "dtype": "float32"}, {"name": "361/moving_mean", "shape": [40], "dtype": "float32"}, {"name": "361/moving_variance", "shape": [40], "dtype": "float32"}, {"name": "362/kernel", "shape": [1, 1, 40, 120], "dtype": "float32"}, {"name": "363/gamma", "shape": [120], "dtype": "float32"}, {"name": "363/beta", "shape": [120], "dtype": "float32"}, {"name": "363/moving_mean", "shape": [120], "dtype": "float32"}, {"name": "363/moving_variance", "shape": [120], "dtype": "float32"}, {"name": "365/depthwise_kernel", "shape": [5, 5, 120, 1], "dtype": "float32"}, {"name": "366/gamma", "shape": [120], "dtype": "float32"}, {"name": "366/beta", "shape": [120], "dtype": "float32"}, {"name": "366/moving_mean", "shape": [120], "dtype": "float32"}, {"name": "366/moving_variance", "shape": [120], "dtype": "float32"}, {"name": "379/kernel", "shape": [120, 32], "dtype": "float32"}, {"name": "379/bias", "shape": [32], "dtype": "float32"}, {"name": "381/kernel", "shape": [32, 120], "dtype": "float32"}, {"name": "381/bias", "shape": [120], "dtype": "float32"}, {"name": "393/kernel", "shape": [1, 1, 120, 40], "dtype": "float32"}, {"name": "394/gamma", "shape": [40], "dtype": "float32"}, {"name": "394/beta", "shape": [40], "dtype": "float32"}, {"name": "394/moving_mean", "shape": [40], "dtype": "float32"}, {"name": "394/moving_variance", "shape": [40], "dtype": "float32"}, {"name": "396/kernel", "shape": [1, 1, 40, 120], "dtype": "float32"}, {"name": "397/gamma", "shape": [120], "dtype": "float32"}, {"name": "397/beta", "shape": [120], "dtype": "float32"}, {"name": "397/moving_mean", "shape": [120], "dtype": "float32"}, {"name": "397/moving_variance", "shape": [120], "dtype": "float32"}, {"name": "399/depthwise_kernel", "shape": [5, 5, 120, 1], "dtype": "float32"}, {"name": "400/gamma", "shape": [120], "dtype": "float32"}, {"name": "400/beta", "shape": [120], "dtype": "float32"}, {"name": "400/moving_mean", "shape": [120], "dtype": "float32"}, {"name": "400/moving_variance", "shape": [120], "dtype": "float32"}, {"name": "413/kernel", "shape": [120, 32], "dtype": "float32"}, {"name": "413/bias", "shape": [32], "dtype": "float32"}, {"name": "415/kernel", "shape": [32, 120], "dtype": "float32"}, {"name": "415/bias", "shape": [120], "dtype": "float32"}, {"name": "427/kernel", "shape": [1, 1, 120, 40], "dtype": "float32"}, {"name": "428/gamma", "shape": [40], "dtype": "float32"}, {"name": "428/beta", "shape": [40], "dtype": "float32"}, {"name": "428/moving_mean", "shape": [40], "dtype": "float32"}, {"name": "428/moving_variance", "shape": [40], "dtype": "float32"}, {"name": "430/kernel", "shape": [1, 1, 40, 240], "dtype": "float32"}, {"name": "431/gamma", "shape": [240], "dtype": "float32"}, {"name": "431/beta", "shape": [240], "dtype": "float32"}, {"name": "431/moving_mean", "shape": [240], "dtype": "float32"}, {"name": "431/moving_variance", "shape": [240], "dtype": "float32"}, {"name": "433/depthwise_kernel", "shape": [3, 3, 240, 1], "dtype": "float32"}, {"name": "434/gamma", "shape": [240], "dtype": "float32"}, {"name": "434/beta", "shape": [240], "dtype": "float32"}, {"name": "434/moving_mean", "shape": [240], "dtype": "float32"}, {"name": "434/moving_variance", "shape": [240], "dtype": "float32"}, {"name": "436/kernel", "shape": [1, 1, 240, 80], "dtype": "float32"}, {"name": "437/gamma", "shape": [80], "dtype": "float32"}, {"name": "437/beta", "shape": [80], "dtype": "float32"}, {"name": "437/moving_mean", "shape": [80], "dtype": "float32"}, {"name": "437/moving_variance", "shape": [80], "dtype": "float32"}, {"name": "438/kernel", "shape": [1, 1, 80, 200], "dtype": "float32"}, {"name": "439/gamma", "shape": [200], "dtype": "float32"}, {"name": "439/beta", "shape": [200], "dtype": "float32"}, {"name": "439/moving_mean", "shape": [200], "dtype": "float32"}, {"name": "439/moving_variance", "shape": [200], "dtype": "float32"}, {"name": "441/depthwise_kernel", "shape": [3, 3, 200, 1], "dtype": "float32"}, {"name": "442/gamma", "shape": [200], "dtype": "float32"}, {"name": "442/beta", "shape": [200], "dtype": "float32"}, {"name": "442/moving_mean", "shape": [200], "dtype": "float32"}, {"name": "442/moving_variance", "shape": [200], "dtype": "float32"}, {"name": "444/kernel", "shape": [1, 1, 200, 80], "dtype": "float32"}, {"name": "445/gamma", "shape": [80], "dtype": "float32"}, {"name": "445/beta", "shape": [80], "dtype": "float32"}, {"name": "445/moving_mean", "shape": [80], "dtype": "float32"}, {"name": "445/moving_variance", "shape": [80], "dtype": "float32"}, {"name": "447/kernel", "shape": [1, 1, 80, 184], "dtype": "float32"}, {"name": "448/gamma", "shape": [184], "dtype": "float32"}, {"name": "448/beta", "shape": [184], "dtype": "float32"}, {"name": "448/moving_mean", "shape": [184], "dtype": "float32"}, {"name": "448/moving_variance", "shape": [184], "dtype": "float32"}, {"name": "450/depthwise_kernel", "shape": [3, 3, 184, 1], "dtype": "float32"}, {"name": "451/gamma", "shape": [184], "dtype": "float32"}, {"name": "451/beta", "shape": [184], "dtype": "float32"}, {"name": "451/moving_mean", "shape": [184], "dtype": "float32"}, {"name": "451/moving_variance", "shape": [184], "dtype": "float32"}, {"name": "453/kernel", "shape": [1, 1, 184, 80], "dtype": "float32"}, {"name": "454/gamma", "shape": [80], "dtype": "float32"}, {"name": "454/beta", "shape": [80], "dtype": "float32"}, {"name": "454/moving_mean", "shape": [80], "dtype": "float32"}, {"name": "454/moving_variance", "shape": [80], "dtype": "float32"}, {"name": "456/kernel", "shape": [1, 1, 80, 184], "dtype": "float32"}, {"name": "457/gamma", "shape": [184], "dtype": "float32"}, {"name": "457/beta", "shape": [184], "dtype": "float32"}, {"name": "457/moving_mean", "shape": [184], "dtype": "float32"}, {"name": "457/moving_variance", "shape": [184], "dtype": "float32"}, {"name": "459/depthwise_kernel", "shape": [3, 3, 184, 1], "dtype": "float32"}, {"name": "460/gamma", "shape": [184], "dtype": "float32"}, {"name": "460/beta", "shape": [184], "dtype": "float32"}, {"name": "460/moving_mean", "shape": [184], "dtype": "float32"}, {"name": "460/moving_variance", "shape": [184], "dtype": "float32"}, {"name": "462/kernel", "shape": [1, 1, 184, 80], "dtype": "float32"}, {"name": "463/gamma", "shape": [80], "dtype": "float32"}, {"name": "463/beta", "shape": [80], "dtype": "float32"}, {"name": "463/moving_mean", "shape": [80], "dtype": "float32"}, {"name": "463/moving_variance", "shape": [80], "dtype": "float32"}, {"name": "465/kernel", "shape": [1, 1, 80, 480], "dtype": "float32"}, {"name": "466/gamma", "shape": [480], "dtype": "float32"}, {"name": "466/beta", "shape": [480], "dtype": "float32"}, {"name": "466/moving_mean", "shape": [480], "dtype": "float32"}, {"name": "466/moving_variance", "shape": [480], "dtype": "float32"}, {"name": "468/depthwise_kernel", "shape": [3, 3, 480, 1], "dtype": "float32"}, {"name": "469/gamma", "shape": [480], "dtype": "float32"}, {"name": "469/beta", "shape": [480], "dtype": "float32"}, {"name": "469/moving_mean", "shape": [480], "dtype": "float32"}, {"name": "469/moving_variance", "shape": [480], "dtype": "float32"}, {"name": "482/kernel", "shape": [480, 120], "dtype": "float32"}, {"name": "482/bias", "shape": [120], "dtype": "float32"}, {"name": "484/kernel", "shape": [120, 480], "dtype": "float32"}, {"name": "484/bias", "shape": [480], "dtype": "float32"}, {"name": "496/kernel", "shape": [1, 1, 480, 112], "dtype": "float32"}, {"name": "498/kernel", "shape": [1, 1, 112, 672], "dtype": "float32"}, {"name": "499/gamma", "shape": [672], "dtype": "float32"}, {"name": "499/beta", "shape": [672], "dtype": "float32"}, {"name": "499/moving_mean", "shape": [672], "dtype": "float32"}, {"name": "499/moving_variance", "shape": [672], "dtype": "float32"}, {"name": "501/depthwise_kernel", "shape": [3, 3, 672, 1], "dtype": "float32"}, {"name": "502/gamma", "shape": [672], "dtype": "float32"}, {"name": "502/beta", "shape": [672], "dtype": "float32"}, {"name": "502/moving_mean", "shape": [672], "dtype": "float32"}, {"name": "502/moving_variance", "shape": [672], "dtype": "float32"}, {"name": "515/kernel", "shape": [672, 168], "dtype": "float32"}, {"name": "515/bias", "shape": [168], "dtype": "float32"}, {"name": "517/kernel", "shape": [168, 672], "dtype": "float32"}, {"name": "517/bias", "shape": [672], "dtype": "float32"}, {"name": "529/kernel", "shape": [1, 1, 672, 112], "dtype": "float32"}, {"name": "530/gamma", "shape": [112], "dtype": "float32"}, {"name": "530/beta", "shape": [112], "dtype": "float32"}, {"name": "530/moving_mean", "shape": [112], "dtype": "float32"}, {"name": "530/moving_variance", "shape": [112], "dtype": "float32"}, {"name": "532/kernel", "shape": [1, 1, 112, 672], "dtype": "float32"}, {"name": "533/gamma", "shape": [672], "dtype": "float32"}, {"name": "533/beta", "shape": [672], "dtype": "float32"}, {"name": "533/moving_mean", "shape": [672], "dtype": "float32"}, {"name": "533/moving_variance", "shape": [672], "dtype": "float32"}, {"name": "535/depthwise_kernel", "shape": [5, 5, 672, 1], "dtype": "float32"}, {"name": "536/gamma", "shape": [672], "dtype": "float32"}, {"name": "536/beta", "shape": [672], "dtype": "float32"}, {"name": "536/moving_mean", "shape": [672], "dtype": "float32"}, {"name": "536/moving_variance", "shape": [672], "dtype": "float32"}, {"name": "549/kernel", "shape": [672, 168], "dtype": "float32"}, {"name": "549/bias", "shape": [168], "dtype": "float32"}, {"name": "551/kernel", "shape": [168, 672], "dtype": "float32"}, {"name": "551/bias", "shape": [672], "dtype": "float32"}, {"name": "563/kernel", "shape": [1, 1, 672, 160], "dtype": "float32"}, {"name": "564/gamma", "shape": [160], "dtype": "float32"}, {"name": "564/beta", "shape": [160], "dtype": "float32"}, {"name": "564/moving_mean", "shape": [160], "dtype": "float32"}, {"name": "564/moving_variance", "shape": [160], "dtype": "float32"}, {"name": "565/kernel", "shape": [1, 1, 160, 960], "dtype": "float32"}, {"name": "566/gamma", "shape": [960], "dtype": "float32"}, {"name": "566/beta", "shape": [960], "dtype": "float32"}, {"name": "566/moving_mean", "shape": [960], "dtype": "float32"}, {"name": "566/moving_variance", "shape": [960], "dtype": "float32"}, {"name": "568/depthwise_kernel", "shape": [5, 5, 960, 1], "dtype": "float32"}, {"name": "569/gamma", "shape": [960], "dtype": "float32"}, {"name": "569/beta", "shape": [960], "dtype": "float32"}, {"name": "569/moving_mean", "shape": [960], "dtype": "float32"}, {"name": "569/moving_variance", "shape": [960], "dtype": "float32"}, {"name": "582/kernel", "shape": [960, 240], "dtype": "float32"}, {"name": "582/bias", "shape": [240], "dtype": "float32"}, {"name": "584/kernel", "shape": [240, 960], "dtype": "float32"}, {"name": "584/bias", "shape": [960], "dtype": "float32"}, {"name": "596/kernel", "shape": [1, 1, 960, 160], "dtype": "float32"}, {"name": "597/gamma", "shape": [160], "dtype": "float32"}, {"name": "597/beta", "shape": [160], "dtype": "float32"}, {"name": "597/moving_mean", "shape": [160], "dtype": "float32"}, {"name": "597/moving_variance", "shape": [160], "dtype": "float32"}, {"name": "599/kernel", "shape": [1, 1, 160, 960], "dtype": "float32"}, {"name": "600/gamma", "shape": [960], "dtype": "float32"}, {"name": "600/beta", "shape": [960], "dtype": "float32"}, {"name": "600/moving_mean", "shape": [960], "dtype": "float32"}, {"name": "600/moving_variance", "shape": [960], "dtype": "float32"}, {"name": "602/depthwise_kernel", "shape": [5, 5, 960, 1], "dtype": "float32"}, {"name": "603/gamma", "shape": [960], "dtype": "float32"}, {"name": "603/beta", "shape": [960], "dtype": "float32"}, {"name": "603/moving_mean", "shape": [960], "dtype": "float32"}, {"name": "603/moving_variance", "shape": [960], "dtype": "float32"}, {"name": "616/kernel", "shape": [960, 240], "dtype": "float32"}, {"name": "616/bias", "shape": [240], "dtype": "float32"}, {"name": "618/kernel", "shape": [240, 960], "dtype": "float32"}, {"name": "618/bias", "shape": [960], "dtype": "float32"}, {"name": "630/kernel", "shape": [1, 1, 960, 160], "dtype": "float32"}, {"name": "631/gamma", "shape": [160], "dtype": "float32"}, {"name": "631/beta", "shape": [160], "dtype": "float32"}, {"name": "631/moving_mean", "shape": [160], "dtype": "float32"}, {"name": "631/moving_variance", "shape": [160], "dtype": "float32"}, {"name": "output_1/gamma", "shape": [24], "dtype": "float32"}, {"name": "output_1/beta", "shape": [24], "dtype": "float32"}, {"name": "output_1/moving_mean", "shape": [24], "dtype": "float32"}, {"name": "output_1/moving_variance", "shape": [24], "dtype": "float32"}, {"name": "output_3/gamma", "shape": [112], "dtype": "float32"}, {"name": "output_3/beta", "shape": [112], "dtype": "float32"}, {"name": "output_3/moving_mean", "shape": [112], "dtype": "float32"}, {"name": "output_3/moving_variance", "shape": [112], "dtype": "float32"}]}]}
