{"format": "layers-model", "generatedBy": "keras v2.2.4-tf", "convertedBy": "TensorFlow.js Converter v1.4.0", "modelTopology": {"keras_version": "2.2.4-tf", "backend": "tensorflow", "model_config": {"class_name": "Model", "config": {"name": "model", "layers": [{"name": "input_0", "class_name": "InputLayer", "config": {"batch_input_shape": [null, 3, 224, 384], "dtype": "float32", "sparse": false, "ragged": false, "name": "input_0"}, "inbound_nodes": []}, {"name": "339_pad", "class_name": "ZeroPadding2D", "config": {"name": "339_pad", "trainable": true, "dtype": "float32", "padding": [[3, 3], [3, 3]], "data_format": "channels_first"}, "inbound_nodes": [[["input_0", 0, 0, {}]]]}, {"name": "339", "class_name": "Conv2D", "config": {"name": "339", "trainable": true, "dtype": "float32", "filters": 64, "kernel_size": [7, 7], "strides": [2, 2], "padding": "valid", "data_format": "channels_first", "dilation_rate": [1, 1], "activation": "linear", "use_bias": false, "kernel_initializer": {"class_name": "Zeros", "config": {"dtype": "float32"}}, "bias_initializer": {"class_name": "Zeros", "config": {"dtype": "float32"}}, "kernel_regularizer": null, "bias_regularizer": null, "activity_regularizer": null, "kernel_constraint": null, "bias_constraint": null}, "inbound_nodes": [[["339_pad", 0, 0, {}]]]}, {"name": "340", "class_name": "BatchNormalization", "config": {"name": "340", "trainable": true, "dtype": "float32", "axis": [1], "momentum": 0.8999999761581421, "epsilon": 9.999999747378752e-06, "center": true, "scale": true, "beta_initializer": {"class_name": "Zeros", "config": {"dtype": "float32"}}, "gamma_initializer": {"class_name": "Ones", "config": {"dtype": "float32"}}, "moving_mean_initializer": {"class_name": "Zeros", "config": {"dtype": "float32"}}, "moving_variance_initializer": {"class_name": "Ones", "config": {"dtype": "float32"}}, "beta_regularizer": null, "gamma_regularizer": null, "beta_constraint": null, "gamma_constraint": null}, "inbound_nodes": [[["339", 0, 0, {}]]]}, {"name": "341", "class_name": "Activation", "config": {"name": "341", "trainable": true, "dtype": "float32", "activation": "relu"}, "inbound_nodes": [[["340", 0, 0, {}]]]}, {"name": "342_pad", "class_name": "ZeroPadding2D", "config": {"name": "342_pad", "trainable": true, "dtype": "float32", "padding": [[1, 1], [1, 1]], "data_format": "channels_first"}, "inbound_nodes": [[["341", 0, 0, {}]]]}, {"name": "342", "class_name": "MaxPooling2D", "config": {"name": "342", "trainable": true, "dtype": "float32", "pool_size": [3, 3], "padding": "valid", "strides": [2, 2], "data_format": "channels_first"}, "inbound_nodes": [[["342_pad", 0, 0, {}]]]}, {"name": "343", "class_name": "Conv2D", "config": {"name": "343", "trainable": true, "dtype": "float32", "filters": 64, "kernel_size": [1, 1], "strides": [1, 1], "padding": "valid", "data_format": "channels_first", "dilation_rate": [1, 1], "activation": "linear", "use_bias": false, "kernel_initializer": {"class_name": "Zeros", "config": {"dtype": "float32"}}, "bias_initializer": {"class_name": "Zeros", "config": {"dtype": "float32"}}, "kernel_regularizer": null, "bias_regularizer": null, "activity_regularizer": null, "kernel_constraint": null, "bias_constraint": null}, "inbound_nodes": [[["342", 0, 0, {}]]]}, {"name": "344", "class_name": "BatchNormalization", "config": {"name": "344", "trainable": true, "dtype": "float32", "axis": [1], "momentum": 0.8999999761581421, "epsilon": 9.999999747378752e-06, "center": true, "scale": true, "beta_initializer": {"class_name": "Zeros", "config": {"dtype": "float32"}}, "gamma_initializer": {"class_name": "Ones", "config": {"dtype": "float32"}}, "moving_mean_initializer": {"class_name": "Zeros", "config": {"dtype": "float32"}}, "moving_variance_initializer": {"class_name": "Ones", "config": {"dtype": "float32"}}, "beta_regularizer": null, "gamma_regularizer": null, "beta_constraint": null, "gamma_constraint": null}, "inbound_nodes": [[["343", 0, 0, {}]]]}, {"name": "345", "class_name": "Activation", "config": {"name": "345", "trainable": true, "dtype": "float32", "activation": "relu"}, "inbound_nodes": [[["344", 0, 0, {}]]]}, {"name": "346_pad", "class_name": "ZeroPadding2D", "config": {"name": "346_pad", "trainable": true, "dtype": "float32", "padding": [[1, 1], [1, 1]], "data_format": "channels_first"}, "inbound_nodes": [[["345", 0, 0, {}]]]}, {"name": "346", "class_name": "Conv2D", "config": {"name": "346", "trainable": true, "dtype": "float32", "filters": 64, "kernel_size": [3, 3], "strides": [1, 1], "padding": "valid", "data_format": "channels_first", "dilation_rate": [1, 1], "activation": "linear", "use_bias": false, "kernel_initializer": {"class_name": "Zeros", "config": {"dtype": "float32"}}, "bias_initializer": {"class_name": "Zeros", "config": {"dtype": "float32"}}, "kernel_regularizer": null, "bias_regularizer": null, "activity_regularizer": null, "kernel_constraint": null, "bias_constraint": null}, "inbound_nodes": [[["346_pad", 0, 0, {}]]]}, {"name": "347", "class_name": "BatchNormalization", "config": {"name": "347", "trainable": true, "dtype": "float32", "axis": [1], "momentum": 0.8999999761581421, "epsilon": 9.999999747378752e-06, "center": true, "scale": true, "beta_initializer": {"class_name": "Zeros", "config": {"dtype": "float32"}}, "gamma_initializer": {"class_name": "Ones", "config": {"dtype": "float32"}}, "moving_mean_initializer": {"class_name": "Zeros", "config": {"dtype": "float32"}}, "moving_variance_initializer": {"class_name": "Ones", "config": {"dtype": "float32"}}, "beta_regularizer": null, "gamma_regularizer": null, "beta_constraint": null, "gamma_constraint": null}, "inbound_nodes": [[["346", 0, 0, {}]]]}, {"name": "348", "class_name": "Activation", "config": {"name": "348", "trainable": true, "dtype": "float32", "activation": "relu"}, "inbound_nodes": [[["347", 0, 0, {}]]]}, {"name": "349", "class_name": "Conv2D", "config": {"name": "349", "trainable": true, "dtype": "float32", "filters": 256, "kernel_size": [1, 1], "strides": [1, 1], "padding": "valid", "data_format": "channels_first", "dilation_rate": [1, 1], "activation": "linear", "use_bias": false, "kernel_initializer": {"class_name": "Zeros", "config": {"dtype": "float32"}}, "bias_initializer": {"class_name": "Zeros", "config": {"dtype": "float32"}}, "kernel_regularizer": null, "bias_regularizer": null, "activity_regularizer": null, "kernel_constraint": null, "bias_constraint": null}, "inbound_nodes": [[["348", 0, 0, {}]]]}, {"name": "351", "class_name": "Conv2D", "config": {"name": "351", "trainable": true, "dtype": "float32", "filters": 256, "kernel_size": [1, 1], "strides": [1, 1], "padding": "valid", "data_format": "channels_first", "dilation_rate": [1, 1], "activation": "linear", "use_bias": false, "kernel_initializer": {"class_name": "Zeros", "config": {"dtype": "float32"}}, "bias_initializer": {"class_name": "Zeros", "config": {"dtype": "float32"}}, "kernel_regularizer": null, "bias_regularizer": null, "activity_regularizer": null, "kernel_constraint": null, "bias_constraint": null}, "inbound_nodes": [[["342", 0, 0, {}]]]}, {"name": "350", "class_name": "BatchNormalization", "config": {"name": "350", "trainable": true, "dtype": "float32", "axis": [1], "momentum": 0.8999999761581421, "epsilon": 9.999999747378752e-06, "center": true, "scale": true, "beta_initializer": {"class_name": "Zeros", "config": {"dtype": "float32"}}, "gamma_initializer": {"class_name": "Ones", "config": {"dtype": "float32"}}, "moving_mean_initializer": {"class_name": "Zeros", "config": {"dtype": "float32"}}, "moving_variance_initializer": {"class_name": "Ones", "config": {"dtype": "float32"}}, "beta_regularizer": null, "gamma_regularizer": null, "beta_constraint": null, "gamma_constraint": null}, "inbound_nodes": [[["349", 0, 0, {}]]]}, {"name": "352", "class_name": "BatchNormalization", "config": {"name": "352", "trainable": true, "dtype": "float32", "axis": [1], "momentum": 0.8999999761581421, "epsilon": 9.999999747378752e-06, "center": true, "scale": true, "beta_initializer": {"class_name": "Zeros", "config": {"dtype": "float32"}}, "gamma_initializer": {"class_name": "Ones", "config": {"dtype": "float32"}}, "moving_mean_initializer": {"class_name": "Zeros", "config": {"dtype": "float32"}}, "moving_variance_initializer": {"class_name": "Ones", "config": {"dtype": "float32"}}, "beta_regularizer": null, "gamma_regularizer": null, "beta_constraint": null, "gamma_constraint": null}, "inbound_nodes": [[["351", 0, 0, {}]]]}, {"name": "353", "class_name": "Add", "config": {"name": "353", "trainable": true, "dtype": "float32"}, "inbound_nodes": [[["350", 0, 0, {}], ["352", 0, 0, {}]]]}, {"name": "354", "class_name": "Activation", "config": {"name": "354", "trainable": true, "dtype": "float32", "activation": "relu"}, "inbound_nodes": [[["353", 0, 0, {}]]]}, {"name": "355", "class_name": "Conv2D", "config": {"name": "355", "trainable": true, "dtype": "float32", "filters": 64, "kernel_size": [1, 1], "strides": [1, 1], "padding": "valid", "data_format": "channels_first", "dilation_rate": [1, 1], "activation": "linear", "use_bias": false, "kernel_initializer": {"class_name": "Zeros", "config": {"dtype": "float32"}}, "bias_initializer": {"class_name": "Zeros", "config": {"dtype": "float32"}}, "kernel_regularizer": null, "bias_regularizer": null, "activity_regularizer": null, "kernel_constraint": null, "bias_constraint": null}, "inbound_nodes": [[["354", 0, 0, {}]]]}, {"name": "356", "class_name": "BatchNormalization", "config": {"name": "356", "trainable": true, "dtype": "float32", "axis": [1], "momentum": 0.8999999761581421, "epsilon": 9.999999747378752e-06, "center": true, "scale": true, "beta_initializer": {"class_name": "Zeros", "config": {"dtype": "float32"}}, "gamma_initializer": {"class_name": "Ones", "config": {"dtype": "float32"}}, "moving_mean_initializer": {"class_name": "Zeros", "config": {"dtype": "float32"}}, "moving_variance_initializer": {"class_name": "Ones", "config": {"dtype": "float32"}}, "beta_regularizer": null, "gamma_regularizer": null, "beta_constraint": null, "gamma_constraint": null}, "inbound_nodes": [[["355", 0, 0, {}]]]}, {"name": "357", "class_name": "Activation", "config": {"name": "357", "trainable": true, "dtype": "float32", "activation": "relu"}, "inbound_nodes": [[["356", 0, 0, {}]]]}, {"name": "358_pad", "class_name": "ZeroPadding2D", "config": {"name": "358_pad", "trainable": true, "dtype": "float32", "padding": [[1, 1], [1, 1]], "data_format": "channels_first"}, "inbound_nodes": [[["357", 0, 0, {}]]]}, {"name": "358", "class_name": "Conv2D", "config": {"name": "358", "trainable": true, "dtype": "float32", "filters": 64, "kernel_size": [3, 3], "strides": [1, 1], "padding": "valid", "data_format": "channels_first", "dilation_rate": [1, 1], "activation": "linear", "use_bias": false, "kernel_initializer": {"class_name": "Zeros", "config": {"dtype": "float32"}}, "bias_initializer": {"class_name": "Zeros", "config": {"dtype": "float32"}}, "kernel_regularizer": null, "bias_regularizer": null, "activity_regularizer": null, "kernel_constraint": null, "bias_constraint": null}, "inbound_nodes": [[["358_pad", 0, 0, {}]]]}, {"name": "359", "class_name": "BatchNormalization", "config": {"name": "359", "trainable": true, "dtype": "float32", "axis": [1], "momentum": 0.8999999761581421, "epsilon": 9.999999747378752e-06, "center": true, "scale": true, "beta_initializer": {"class_name": "Zeros", "config": {"dtype": "float32"}}, "gamma_initializer": {"class_name": "Ones", "config": {"dtype": "float32"}}, "moving_mean_initializer": {"class_name": "Zeros", "config": {"dtype": "float32"}}, "moving_variance_initializer": {"class_name": "Ones", "config": {"dtype": "float32"}}, "beta_regularizer": null, "gamma_regularizer": null, "beta_constraint": null, "gamma_constraint": null}, "inbound_nodes": [[["358", 0, 0, {}]]]}, {"name": "360", "class_name": "Activation", "config": {"name": "360", "trainable": true, "dtype": "float32", "activation": "relu"}, "inbound_nodes": [[["359", 0, 0, {}]]]}, {"name": "361", "class_name": "Conv2D", "config": {"name": "361", "trainable": true, "dtype": "float32", "filters": 256, "kernel_size": [1, 1], "strides": [1, 1], "padding": "valid", "data_format": "channels_first", "dilation_rate": [1, 1], "activation": "linear", "use_bias": false, "kernel_initializer": {"class_name": "Zeros", "config": {"dtype": "float32"}}, "bias_initializer": {"class_name": "Zeros", "config": {"dtype": "float32"}}, "kernel_regularizer": null, "bias_regularizer": null, "activity_regularizer": null, "kernel_constraint": null, "bias_constraint": null}, "inbound_nodes": [[["360", 0, 0, {}]]]}, {"name": "362", "class_name": "BatchNormalization", "config": {"name": "362", "trainable": true, "dtype": "float32", "axis": [1], "momentum": 0.8999999761581421, "epsilon": 9.999999747378752e-06, "center": true, "scale": true, "beta_initializer": {"class_name": "Zeros", "config": {"dtype": "float32"}}, "gamma_initializer": {"class_name": "Ones", "config": {"dtype": "float32"}}, "moving_mean_initializer": {"class_name": "Zeros", "config": {"dtype": "float32"}}, "moving_variance_initializer": {"class_name": "Ones", "config": {"dtype": "float32"}}, "beta_regularizer": null, "gamma_regularizer": null, "beta_constraint": null, "gamma_constraint": null}, "inbound_nodes": [[["361", 0, 0, {}]]]}, {"name": "363", "class_name": "Add", "config": {"name": "363", "trainable": true, "dtype": "float32"}, "inbound_nodes": [[["362", 0, 0, {}], ["354", 0, 0, {}]]]}, {"name": "364", "class_name": "Activation", "config": {"name": "364", "trainable": true, "dtype": "float32", "activation": "relu"}, "inbound_nodes": [[["363", 0, 0, {}]]]}, {"name": "365", "class_name": "Conv2D", "config": {"name": "365", "trainable": true, "dtype": "float32", "filters": 64, "kernel_size": [1, 1], "strides": [1, 1], "padding": "valid", "data_format": "channels_first", "dilation_rate": [1, 1], "activation": "linear", "use_bias": false, "kernel_initializer": {"class_name": "Zeros", "config": {"dtype": "float32"}}, "bias_initializer": {"class_name": "Zeros", "config": {"dtype": "float32"}}, "kernel_regularizer": null, "bias_regularizer": null, "activity_regularizer": null, "kernel_constraint": null, "bias_constraint": null}, "inbound_nodes": [[["364", 0, 0, {}]]]}, {"name": "366", "class_name": "BatchNormalization", "config": {"name": "366", "trainable": true, "dtype": "float32", "axis": [1], "momentum": 0.8999999761581421, "epsilon": 9.999999747378752e-06, "center": true, "scale": true, "beta_initializer": {"class_name": "Zeros", "config": {"dtype": "float32"}}, "gamma_initializer": {"class_name": "Ones", "config": {"dtype": "float32"}}, "moving_mean_initializer": {"class_name": "Zeros", "config": {"dtype": "float32"}}, "moving_variance_initializer": {"class_name": "Ones", "config": {"dtype": "float32"}}, "beta_regularizer": null, "gamma_regularizer": null, "beta_constraint": null, "gamma_constraint": null}, "inbound_nodes": [[["365", 0, 0, {}]]]}, {"name": "367", "class_name": "Activation", "config": {"name": "367", "trainable": true, "dtype": "float32", "activation": "relu"}, "inbound_nodes": [[["366", 0, 0, {}]]]}, {"name": "368_pad", "class_name": "ZeroPadding2D", "config": {"name": "368_pad", "trainable": true, "dtype": "float32", "padding": [[1, 1], [1, 1]], "data_format": "channels_first"}, "inbound_nodes": [[["367", 0, 0, {}]]]}, {"name": "368", "class_name": "Conv2D", "config": {"name": "368", "trainable": true, "dtype": "float32", "filters": 64, "kernel_size": [3, 3], "strides": [1, 1], "padding": "valid", "data_format": "channels_first", "dilation_rate": [1, 1], "activation": "linear", "use_bias": false, "kernel_initializer": {"class_name": "Zeros", "config": {"dtype": "float32"}}, "bias_initializer": {"class_name": "Zeros", "config": {"dtype": "float32"}}, "kernel_regularizer": null, "bias_regularizer": null, "activity_regularizer": null, "kernel_constraint": null, "bias_constraint": null}, "inbound_nodes": [[["368_pad", 0, 0, {}]]]}, {"name": "369", "class_name": "BatchNormalization", "config": {"name": "369", "trainable": true, "dtype": "float32", "axis": [1], "momentum": 0.8999999761581421, "epsilon": 9.999999747378752e-06, "center": true, "scale": true, "beta_initializer": {"class_name": "Zeros", "config": {"dtype": "float32"}}, "gamma_initializer": {"class_name": "Ones", "config": {"dtype": "float32"}}, "moving_mean_initializer": {"class_name": "Zeros", "config": {"dtype": "float32"}}, "moving_variance_initializer": {"class_name": "Ones", "config": {"dtype": "float32"}}, "beta_regularizer": null, "gamma_regularizer": null, "beta_constraint": null, "gamma_constraint": null}, "inbound_nodes": [[["368", 0, 0, {}]]]}, {"name": "370", "class_name": "Activation", "config": {"name": "370", "trainable": true, "dtype": "float32", "activation": "relu"}, "inbound_nodes": [[["369", 0, 0, {}]]]}, {"name": "371", "class_name": "Conv2D", "config": {"name": "371", "trainable": true, "dtype": "float32", "filters": 256, "kernel_size": [1, 1], "strides": [1, 1], "padding": "valid", "data_format": "channels_first", "dilation_rate": [1, 1], "activation": "linear", "use_bias": false, "kernel_initializer": {"class_name": "Zeros", "config": {"dtype": "float32"}}, "bias_initializer": {"class_name": "Zeros", "config": {"dtype": "float32"}}, "kernel_regularizer": null, "bias_regularizer": null, "activity_regularizer": null, "kernel_constraint": null, "bias_constraint": null}, "inbound_nodes": [[["370", 0, 0, {}]]]}, {"name": "372", "class_name": "BatchNormalization", "config": {"name": "372", "trainable": true, "dtype": "float32", "axis": [1], "momentum": 0.8999999761581421, "epsilon": 9.999999747378752e-06, "center": true, "scale": true, "beta_initializer": {"class_name": "Zeros", "config": {"dtype": "float32"}}, "gamma_initializer": {"class_name": "Ones", "config": {"dtype": "float32"}}, "moving_mean_initializer": {"class_name": "Zeros", "config": {"dtype": "float32"}}, "moving_variance_initializer": {"class_name": "Ones", "config": {"dtype": "float32"}}, "beta_regularizer": null, "gamma_regularizer": null, "beta_constraint": null, "gamma_constraint": null}, "inbound_nodes": [[["371", 0, 0, {}]]]}, {"name": "373", "class_name": "Add", "config": {"name": "373", "trainable": true, "dtype": "float32"}, "inbound_nodes": [[["372", 0, 0, {}], ["364", 0, 0, {}]]]}, {"name": "374", "class_name": "Activation", "config": {"name": "374", "trainable": true, "dtype": "float32", "activation": "relu"}, "inbound_nodes": [[["373", 0, 0, {}]]]}, {"name": "375", "class_name": "Conv2D", "config": {"name": "375", "trainable": true, "dtype": "float32", "filters": 128, "kernel_size": [1, 1], "strides": [1, 1], "padding": "valid", "data_format": "channels_first", "dilation_rate": [1, 1], "activation": "linear", "use_bias": false, "kernel_initializer": {"class_name": "Zeros", "config": {"dtype": "float32"}}, "bias_initializer": {"class_name": "Zeros", "config": {"dtype": "float32"}}, "kernel_regularizer": null, "bias_regularizer": null, "activity_regularizer": null, "kernel_constraint": null, "bias_constraint": null}, "inbound_nodes": [[["374", 0, 0, {}]]]}, {"name": "376", "class_name": "BatchNormalization", "config": {"name": "376", "trainable": true, "dtype": "float32", "axis": [1], "momentum": 0.8999999761581421, "epsilon": 9.999999747378752e-06, "center": true, "scale": true, "beta_initializer": {"class_name": "Zeros", "config": {"dtype": "float32"}}, "gamma_initializer": {"class_name": "Ones", "config": {"dtype": "float32"}}, "moving_mean_initializer": {"class_name": "Zeros", "config": {"dtype": "float32"}}, "moving_variance_initializer": {"class_name": "Ones", "config": {"dtype": "float32"}}, "beta_regularizer": null, "gamma_regularizer": null, "beta_constraint": null, "gamma_constraint": null}, "inbound_nodes": [[["375", 0, 0, {}]]]}, {"name": "377", "class_name": "Activation", "config": {"name": "377", "trainable": true, "dtype": "float32", "activation": "relu"}, "inbound_nodes": [[["376", 0, 0, {}]]]}, {"name": "378_pad", "class_name": "ZeroPadding2D", "config": {"name": "378_pad", "trainable": true, "dtype": "float32", "padding": [[1, 1], [1, 1]], "data_format": "channels_first"}, "inbound_nodes": [[["377", 0, 0, {}]]]}, {"name": "378", "class_name": "Conv2D", "config": {"name": "378", "trainable": true, "dtype": "float32", "filters": 128, "kernel_size": [3, 3], "strides": [2, 2], "padding": "valid", "data_format": "channels_first", "dilation_rate": [1, 1], "activation": "linear", "use_bias": false, "kernel_initializer": {"class_name": "Zeros", "config": {"dtype": "float32"}}, "bias_initializer": {"class_name": "Zeros", "config": {"dtype": "float32"}}, "kernel_regularizer": null, "bias_regularizer": null, "activity_regularizer": null, "kernel_constraint": null, "bias_constraint": null}, "inbound_nodes": [[["378_pad", 0, 0, {}]]]}, {"name": "379", "class_name": "BatchNormalization", "config": {"name": "379", "trainable": true, "dtype": "float32", "axis": [1], "momentum": 0.8999999761581421, "epsilon": 9.999999747378752e-06, "center": true, "scale": true, "beta_initializer": {"class_name": "Zeros", "config": {"dtype": "float32"}}, "gamma_initializer": {"class_name": "Ones", "config": {"dtype": "float32"}}, "moving_mean_initializer": {"class_name": "Zeros", "config": {"dtype": "float32"}}, "moving_variance_initializer": {"class_name": "Ones", "config": {"dtype": "float32"}}, "beta_regularizer": null, "gamma_regularizer": null, "beta_constraint": null, "gamma_constraint": null}, "inbound_nodes": [[["378", 0, 0, {}]]]}, {"name": "380", "class_name": "Activation", "config": {"name": "380", "trainable": true, "dtype": "float32", "activation": "relu"}, "inbound_nodes": [[["379", 0, 0, {}]]]}, {"name": "381", "class_name": "Conv2D", "config": {"name": "381", "trainable": true, "dtype": "float32", "filters": 512, "kernel_size": [1, 1], "strides": [1, 1], "padding": "valid", "data_format": "channels_first", "dilation_rate": [1, 1], "activation": "linear", "use_bias": false, "kernel_initializer": {"class_name": "Zeros", "config": {"dtype": "float32"}}, "bias_initializer": {"class_name": "Zeros", "config": {"dtype": "float32"}}, "kernel_regularizer": null, "bias_regularizer": null, "activity_regularizer": null, "kernel_constraint": null, "bias_constraint": null}, "inbound_nodes": [[["380", 0, 0, {}]]]}, {"name": "383", "class_name": "Conv2D", "config": {"name": "383", "trainable": true, "dtype": "float32", "filters": 512, "kernel_size": [1, 1], "strides": [2, 2], "padding": "valid", "data_format": "channels_first", "dilation_rate": [1, 1], "activation": "linear", "use_bias": false, "kernel_initializer": {"class_name": "Zeros", "config": {"dtype": "float32"}}, "bias_initializer": {"class_name": "Zeros", "config": {"dtype": "float32"}}, "kernel_regularizer": null, "bias_regularizer": null, "activity_regularizer": null, "kernel_constraint": null, "bias_constraint": null}, "inbound_nodes": [[["374", 0, 0, {}]]]}, {"name": "382", "class_name": "BatchNormalization", "config": {"name": "382", "trainable": true, "dtype": "float32", "axis": [1], "momentum": 0.8999999761581421, "epsilon": 9.999999747378752e-06, "center": true, "scale": true, "beta_initializer": {"class_name": "Zeros", "config": {"dtype": "float32"}}, "gamma_initializer": {"class_name": "Ones", "config": {"dtype": "float32"}}, "moving_mean_initializer": {"class_name": "Zeros", "config": {"dtype": "float32"}}, "moving_variance_initializer": {"class_name": "Ones", "config": {"dtype": "float32"}}, "beta_regularizer": null, "gamma_regularizer": null, "beta_constraint": null, "gamma_constraint": null}, "inbound_nodes": [[["381", 0, 0, {}]]]}, {"name": "384", "class_name": "BatchNormalization", "config": {"name": "384", "trainable": true, "dtype": "float32", "axis": [1], "momentum": 0.8999999761581421, "epsilon": 9.999999747378752e-06, "center": true, "scale": true, "beta_initializer": {"class_name": "Zeros", "config": {"dtype": "float32"}}, "gamma_initializer": {"class_name": "Ones", "config": {"dtype": "float32"}}, "moving_mean_initializer": {"class_name": "Zeros", "config": {"dtype": "float32"}}, "moving_variance_initializer": {"class_name": "Ones", "config": {"dtype": "float32"}}, "beta_regularizer": null, "gamma_regularizer": null, "beta_constraint": null, "gamma_constraint": null}, "inbound_nodes": [[["383", 0, 0, {}]]]}, {"name": "385", "class_name": "Add", "config": {"name": "385", "trainable": true, "dtype": "float32"}, "inbound_nodes": [[["382", 0, 0, {}], ["384", 0, 0, {}]]]}, {"name": "386", "class_name": "Activation", "config": {"name": "386", "trainable": true, "dtype": "float32", "activation": "relu"}, "inbound_nodes": [[["385", 0, 0, {}]]]}, {"name": "387", "class_name": "Conv2D", "config": {"name": "387", "trainable": true, "dtype": "float32", "filters": 128, "kernel_size": [1, 1], "strides": [1, 1], "padding": "valid", "data_format": "channels_first", "dilation_rate": [1, 1], "activation": "linear", "use_bias": false, "kernel_initializer": {"class_name": "Zeros", "config": {"dtype": "float32"}}, "bias_initializer": {"class_name": "Zeros", "config": {"dtype": "float32"}}, "kernel_regularizer": null, "bias_regularizer": null, "activity_regularizer": null, "kernel_constraint": null, "bias_constraint": null}, "inbound_nodes": [[["386", 0, 0, {}]]]}, {"name": "388", "class_name": "BatchNormalization", "config": {"name": "388", "trainable": true, "dtype": "float32", "axis": [1], "momentum": 0.8999999761581421, "epsilon": 9.999999747378752e-06, "center": true, "scale": true, "beta_initializer": {"class_name": "Zeros", "config": {"dtype": "float32"}}, "gamma_initializer": {"class_name": "Ones", "config": {"dtype": "float32"}}, "moving_mean_initializer": {"class_name": "Zeros", "config": {"dtype": "float32"}}, "moving_variance_initializer": {"class_name": "Ones", "config": {"dtype": "float32"}}, "beta_regularizer": null, "gamma_regularizer": null, "beta_constraint": null, "gamma_constraint": null}, "inbound_nodes": [[["387", 0, 0, {}]]]}, {"name": "389", "class_name": "Activation", "config": {"name": "389", "trainable": true, "dtype": "float32", "activation": "relu"}, "inbound_nodes": [[["388", 0, 0, {}]]]}, {"name": "390_pad", "class_name": "ZeroPadding2D", "config": {"name": "390_pad", "trainable": true, "dtype": "float32", "padding": [[1, 1], [1, 1]], "data_format": "channels_first"}, "inbound_nodes": [[["389", 0, 0, {}]]]}, {"name": "390", "class_name": "Conv2D", "config": {"name": "390", "trainable": true, "dtype": "float32", "filters": 128, "kernel_size": [3, 3], "strides": [1, 1], "padding": "valid", "data_format": "channels_first", "dilation_rate": [1, 1], "activation": "linear", "use_bias": false, "kernel_initializer": {"class_name": "Zeros", "config": {"dtype": "float32"}}, "bias_initializer": {"class_name": "Zeros", "config": {"dtype": "float32"}}, "kernel_regularizer": null, "bias_regularizer": null, "activity_regularizer": null, "kernel_constraint": null, "bias_constraint": null}, "inbound_nodes": [[["390_pad", 0, 0, {}]]]}, {"name": "391", "class_name": "BatchNormalization", "config": {"name": "391", "trainable": true, "dtype": "float32", "axis": [1], "momentum": 0.8999999761581421, "epsilon": 9.999999747378752e-06, "center": true, "scale": true, "beta_initializer": {"class_name": "Zeros", "config": {"dtype": "float32"}}, "gamma_initializer": {"class_name": "Ones", "config": {"dtype": "float32"}}, "moving_mean_initializer": {"class_name": "Zeros", "config": {"dtype": "float32"}}, "moving_variance_initializer": {"class_name": "Ones", "config": {"dtype": "float32"}}, "beta_regularizer": null, "gamma_regularizer": null, "beta_constraint": null, "gamma_constraint": null}, "inbound_nodes": [[["390", 0, 0, {}]]]}, {"name": "392", "class_name": "Activation", "config": {"name": "392", "trainable": true, "dtype": "float32", "activation": "relu"}, "inbound_nodes": [[["391", 0, 0, {}]]]}, {"name": "393", "class_name": "Conv2D", "config": {"name": "393", "trainable": true, "dtype": "float32", "filters": 512, "kernel_size": [1, 1], "strides": [1, 1], "padding": "valid", "data_format": "channels_first", "dilation_rate": [1, 1], "activation": "linear", "use_bias": false, "kernel_initializer": {"class_name": "Zeros", "config": {"dtype": "float32"}}, "bias_initializer": {"class_name": "Zeros", "config": {"dtype": "float32"}}, "kernel_regularizer": null, "bias_regularizer": null, "activity_regularizer": null, "kernel_constraint": null, "bias_constraint": null}, "inbound_nodes": [[["392", 0, 0, {}]]]}, {"name": "394", "class_name": "BatchNormalization", "config": {"name": "394", "trainable": true, "dtype": "float32", "axis": [1], "momentum": 0.8999999761581421, "epsilon": 9.999999747378752e-06, "center": true, "scale": true, "beta_initializer": {"class_name": "Zeros", "config": {"dtype": "float32"}}, "gamma_initializer": {"class_name": "Ones", "config": {"dtype": "float32"}}, "moving_mean_initializer": {"class_name": "Zeros", "config": {"dtype": "float32"}}, "moving_variance_initializer": {"class_name": "Ones", "config": {"dtype": "float32"}}, "beta_regularizer": null, "gamma_regularizer": null, "beta_constraint": null, "gamma_constraint": null}, "inbound_nodes": [[["393", 0, 0, {}]]]}, {"name": "395", "class_name": "Add", "config": {"name": "395", "trainable": true, "dtype": "float32"}, "inbound_nodes": [[["394", 0, 0, {}], ["386", 0, 0, {}]]]}, {"name": "396", "class_name": "Activation", "config": {"name": "396", "trainable": true, "dtype": "float32", "activation": "relu"}, "inbound_nodes": [[["395", 0, 0, {}]]]}, {"name": "397", "class_name": "Conv2D", "config": {"name": "397", "trainable": true, "dtype": "float32", "filters": 128, "kernel_size": [1, 1], "strides": [1, 1], "padding": "valid", "data_format": "channels_first", "dilation_rate": [1, 1], "activation": "linear", "use_bias": false, "kernel_initializer": {"class_name": "Zeros", "config": {"dtype": "float32"}}, "bias_initializer": {"class_name": "Zeros", "config": {"dtype": "float32"}}, "kernel_regularizer": null, "bias_regularizer": null, "activity_regularizer": null, "kernel_constraint": null, "bias_constraint": null}, "inbound_nodes": [[["396", 0, 0, {}]]]}, {"name": "398", "class_name": "BatchNormalization", "config": {"name": "398", "trainable": true, "dtype": "float32", "axis": [1], "momentum": 0.8999999761581421, "epsilon": 9.999999747378752e-06, "center": true, "scale": true, "beta_initializer": {"class_name": "Zeros", "config": {"dtype": "float32"}}, "gamma_initializer": {"class_name": "Ones", "config": {"dtype": "float32"}}, "moving_mean_initializer": {"class_name": "Zeros", "config": {"dtype": "float32"}}, "moving_variance_initializer": {"class_name": "Ones", "config": {"dtype": "float32"}}, "beta_regularizer": null, "gamma_regularizer": null, "beta_constraint": null, "gamma_constraint": null}, "inbound_nodes": [[["397", 0, 0, {}]]]}, {"name": "399", "class_name": "Activation", "config": {"name": "399", "trainable": true, "dtype": "float32", "activation": "relu"}, "inbound_nodes": [[["398", 0, 0, {}]]]}, {"name": "400_pad", "class_name": "ZeroPadding2D", "config": {"name": "400_pad", "trainable": true, "dtype": "float32", "padding": [[1, 1], [1, 1]], "data_format": "channels_first"}, "inbound_nodes": [[["399", 0, 0, {}]]]}, {"name": "400", "class_name": "Conv2D", "config": {"name": "400", "trainable": true, "dtype": "float32", "filters": 128, "kernel_size": [3, 3], "strides": [1, 1], "padding": "valid", "data_format": "channels_first", "dilation_rate": [1, 1], "activation": "linear", "use_bias": false, "kernel_initializer": {"class_name": "Zeros", "config": {"dtype": "float32"}}, "bias_initializer": {"class_name": "Zeros", "config": {"dtype": "float32"}}, "kernel_regularizer": null, "bias_regularizer": null, "activity_regularizer": null, "kernel_constraint": null, "bias_constraint": null}, "inbound_nodes": [[["400_pad", 0, 0, {}]]]}, {"name": "401", "class_name": "BatchNormalization", "config": {"name": "401", "trainable": true, "dtype": "float32", "axis": [1], "momentum": 0.8999999761581421, "epsilon": 9.999999747378752e-06, "center": true, "scale": true, "beta_initializer": {"class_name": "Zeros", "config": {"dtype": "float32"}}, "gamma_initializer": {"class_name": "Ones", "config": {"dtype": "float32"}}, "moving_mean_initializer": {"class_name": "Zeros", "config": {"dtype": "float32"}}, "moving_variance_initializer": {"class_name": "Ones", "config": {"dtype": "float32"}}, "beta_regularizer": null, "gamma_regularizer": null, "beta_constraint": null, "gamma_constraint": null}, "inbound_nodes": [[["400", 0, 0, {}]]]}, {"name": "402", "class_name": "Activation", "config": {"name": "402", "trainable": true, "dtype": "float32", "activation": "relu"}, "inbound_nodes": [[["401", 0, 0, {}]]]}, {"name": "403", "class_name": "Conv2D", "config": {"name": "403", "trainable": true, "dtype": "float32", "filters": 512, "kernel_size": [1, 1], "strides": [1, 1], "padding": "valid", "data_format": "channels_first", "dilation_rate": [1, 1], "activation": "linear", "use_bias": false, "kernel_initializer": {"class_name": "Zeros", "config": {"dtype": "float32"}}, "bias_initializer": {"class_name": "Zeros", "config": {"dtype": "float32"}}, "kernel_regularizer": null, "bias_regularizer": null, "activity_regularizer": null, "kernel_constraint": null, "bias_constraint": null}, "inbound_nodes": [[["402", 0, 0, {}]]]}, {"name": "404", "class_name": "BatchNormalization", "config": {"name": "404", "trainable": true, "dtype": "float32", "axis": [1], "momentum": 0.8999999761581421, "epsilon": 9.999999747378752e-06, "center": true, "scale": true, "beta_initializer": {"class_name": "Zeros", "config": {"dtype": "float32"}}, "gamma_initializer": {"class_name": "Ones", "config": {"dtype": "float32"}}, "moving_mean_initializer": {"class_name": "Zeros", "config": {"dtype": "float32"}}, "moving_variance_initializer": {"class_name": "Ones", "config": {"dtype": "float32"}}, "beta_regularizer": null, "gamma_regularizer": null, "beta_constraint": null, "gamma_constraint": null}, "inbound_nodes": [[["403", 0, 0, {}]]]}, {"name": "405", "class_name": "Add", "config": {"name": "405", "trainable": true, "dtype": "float32"}, "inbound_nodes": [[["404", 0, 0, {}], ["396", 0, 0, {}]]]}, {"name": "406", "class_name": "Activation", "config": {"name": "406", "trainable": true, "dtype": "float32", "activation": "relu"}, "inbound_nodes": [[["405", 0, 0, {}]]]}, {"name": "407", "class_name": "Conv2D", "config": {"name": "407", "trainable": true, "dtype": "float32", "filters": 128, "kernel_size": [1, 1], "strides": [1, 1], "padding": "valid", "data_format": "channels_first", "dilation_rate": [1, 1], "activation": "linear", "use_bias": false, "kernel_initializer": {"class_name": "Zeros", "config": {"dtype": "float32"}}, "bias_initializer": {"class_name": "Zeros", "config": {"dtype": "float32"}}, "kernel_regularizer": null, "bias_regularizer": null, "activity_regularizer": null, "kernel_constraint": null, "bias_constraint": null}, "inbound_nodes": [[["406", 0, 0, {}]]]}, {"name": "408", "class_name": "BatchNormalization", "config": {"name": "408", "trainable": true, "dtype": "float32", "axis": [1], "momentum": 0.8999999761581421, "epsilon": 9.999999747378752e-06, "center": true, "scale": true, "beta_initializer": {"class_name": "Zeros", "config": {"dtype": "float32"}}, "gamma_initializer": {"class_name": "Ones", "config": {"dtype": "float32"}}, "moving_mean_initializer": {"class_name": "Zeros", "config": {"dtype": "float32"}}, "moving_variance_initializer": {"class_name": "Ones", "config": {"dtype": "float32"}}, "beta_regularizer": null, "gamma_regularizer": null, "beta_constraint": null, "gamma_constraint": null}, "inbound_nodes": [[["407", 0, 0, {}]]]}, {"name": "409", "class_name": "Activation", "config": {"name": "409", "trainable": true, "dtype": "float32", "activation": "relu"}, "inbound_nodes": [[["408", 0, 0, {}]]]}, {"name": "410_pad", "class_name": "ZeroPadding2D", "config": {"name": "410_pad", "trainable": true, "dtype": "float32", "padding": [[1, 1], [1, 1]], "data_format": "channels_first"}, "inbound_nodes": [[["409", 0, 0, {}]]]}, {"name": "410", "class_name": "Conv2D", "config": {"name": "410", "trainable": true, "dtype": "float32", "filters": 128, "kernel_size": [3, 3], "strides": [1, 1], "padding": "valid", "data_format": "channels_first", "dilation_rate": [1, 1], "activation": "linear", "use_bias": false, "kernel_initializer": {"class_name": "Zeros", "config": {"dtype": "float32"}}, "bias_initializer": {"class_name": "Zeros", "config": {"dtype": "float32"}}, "kernel_regularizer": null, "bias_regularizer": null, "activity_regularizer": null, "kernel_constraint": null, "bias_constraint": null}, "inbound_nodes": [[["410_pad", 0, 0, {}]]]}, {"name": "411", "class_name": "BatchNormalization", "config": {"name": "411", "trainable": true, "dtype": "float32", "axis": [1], "momentum": 0.8999999761581421, "epsilon": 9.999999747378752e-06, "center": true, "scale": true, "beta_initializer": {"class_name": "Zeros", "config": {"dtype": "float32"}}, "gamma_initializer": {"class_name": "Ones", "config": {"dtype": "float32"}}, "moving_mean_initializer": {"class_name": "Zeros", "config": {"dtype": "float32"}}, "moving_variance_initializer": {"class_name": "Ones", "config": {"dtype": "float32"}}, "beta_regularizer": null, "gamma_regularizer": null, "beta_constraint": null, "gamma_constraint": null}, "inbound_nodes": [[["410", 0, 0, {}]]]}, {"name": "412", "class_name": "Activation", "config": {"name": "412", "trainable": true, "dtype": "float32", "activation": "relu"}, "inbound_nodes": [[["411", 0, 0, {}]]]}, {"name": "413", "class_name": "Conv2D", "config": {"name": "413", "trainable": true, "dtype": "float32", "filters": 512, "kernel_size": [1, 1], "strides": [1, 1], "padding": "valid", "data_format": "channels_first", "dilation_rate": [1, 1], "activation": "linear", "use_bias": false, "kernel_initializer": {"class_name": "Zeros", "config": {"dtype": "float32"}}, "bias_initializer": {"class_name": "Zeros", "config": {"dtype": "float32"}}, "kernel_regularizer": null, "bias_regularizer": null, "activity_regularizer": null, "kernel_constraint": null, "bias_constraint": null}, "inbound_nodes": [[["412", 0, 0, {}]]]}, {"name": "414", "class_name": "BatchNormalization", "config": {"name": "414", "trainable": true, "dtype": "float32", "axis": [1], "momentum": 0.8999999761581421, "epsilon": 9.999999747378752e-06, "center": true, "scale": true, "beta_initializer": {"class_name": "Zeros", "config": {"dtype": "float32"}}, "gamma_initializer": {"class_name": "Ones", "config": {"dtype": "float32"}}, "moving_mean_initializer": {"class_name": "Zeros", "config": {"dtype": "float32"}}, "moving_variance_initializer": {"class_name": "Ones", "config": {"dtype": "float32"}}, "beta_regularizer": null, "gamma_regularizer": null, "beta_constraint": null, "gamma_constraint": null}, "inbound_nodes": [[["413", 0, 0, {}]]]}, {"name": "415", "class_name": "Add", "config": {"name": "415", "trainable": true, "dtype": "float32"}, "inbound_nodes": [[["414", 0, 0, {}], ["406", 0, 0, {}]]]}, {"name": "416", "class_name": "Activation", "config": {"name": "416", "trainable": true, "dtype": "float32", "activation": "relu"}, "inbound_nodes": [[["415", 0, 0, {}]]]}, {"name": "417", "class_name": "Conv2D", "config": {"name": "417", "trainable": true, "dtype": "float32", "filters": 256, "kernel_size": [1, 1], "strides": [1, 1], "padding": "valid", "data_format": "channels_first", "dilation_rate": [1, 1], "activation": "linear", "use_bias": false, "kernel_initializer": {"class_name": "Zeros", "config": {"dtype": "float32"}}, "bias_initializer": {"class_name": "Zeros", "config": {"dtype": "float32"}}, "kernel_regularizer": null, "bias_regularizer": null, "activity_regularizer": null, "kernel_constraint": null, "bias_constraint": null}, "inbound_nodes": [[["416", 0, 0, {}]]]}, {"name": "418", "class_name": "BatchNormalization", "config": {"name": "418", "trainable": true, "dtype": "float32", "axis": [1], "momentum": 0.8999999761581421, "epsilon": 9.999999747378752e-06, "center": true, "scale": true, "beta_initializer": {"class_name": "Zeros", "config": {"dtype": "float32"}}, "gamma_initializer": {"class_name": "Ones", "config": {"dtype": "float32"}}, "moving_mean_initializer": {"class_name": "Zeros", "config": {"dtype": "float32"}}, "moving_variance_initializer": {"class_name": "Ones", "config": {"dtype": "float32"}}, "beta_regularizer": null, "gamma_regularizer": null, "beta_constraint": null, "gamma_constraint": null}, "inbound_nodes": [[["417", 0, 0, {}]]]}, {"name": "419", "class_name": "Activation", "config": {"name": "419", "trainable": true, "dtype": "float32", "activation": "relu"}, "inbound_nodes": [[["418", 0, 0, {}]]]}, {"name": "420_pad", "class_name": "ZeroPadding2D", "config": {"name": "420_pad", "trainable": true, "dtype": "float32", "padding": [[1, 1], [1, 1]], "data_format": "channels_first"}, "inbound_nodes": [[["419", 0, 0, {}]]]}, {"name": "420", "class_name": "Conv2D", "config": {"name": "420", "trainable": true, "dtype": "float32", "filters": 256, "kernel_size": [3, 3], "strides": [2, 2], "padding": "valid", "data_format": "channels_first", "dilation_rate": [1, 1], "activation": "linear", "use_bias": false, "kernel_initializer": {"class_name": "Zeros", "config": {"dtype": "float32"}}, "bias_initializer": {"class_name": "Zeros", "config": {"dtype": "float32"}}, "kernel_regularizer": null, "bias_regularizer": null, "activity_regularizer": null, "kernel_constraint": null, "bias_constraint": null}, "inbound_nodes": [[["420_pad", 0, 0, {}]]]}, {"name": "421", "class_name": "BatchNormalization", "config": {"name": "421", "trainable": true, "dtype": "float32", "axis": [1], "momentum": 0.8999999761581421, "epsilon": 9.999999747378752e-06, "center": true, "scale": true, "beta_initializer": {"class_name": "Zeros", "config": {"dtype": "float32"}}, "gamma_initializer": {"class_name": "Ones", "config": {"dtype": "float32"}}, "moving_mean_initializer": {"class_name": "Zeros", "config": {"dtype": "float32"}}, "moving_variance_initializer": {"class_name": "Ones", "config": {"dtype": "float32"}}, "beta_regularizer": null, "gamma_regularizer": null, "beta_constraint": null, "gamma_constraint": null}, "inbound_nodes": [[["420", 0, 0, {}]]]}, {"name": "422", "class_name": "Activation", "config": {"name": "422", "trainable": true, "dtype": "float32", "activation": "relu"}, "inbound_nodes": [[["421", 0, 0, {}]]]}, {"name": "423", "class_name": "Conv2D", "config": {"name": "423", "trainable": true, "dtype": "float32", "filters": 1024, "kernel_size": [1, 1], "strides": [1, 1], "padding": "valid", "data_format": "channels_first", "dilation_rate": [1, 1], "activation": "linear", "use_bias": false, "kernel_initializer": {"class_name": "Zeros", "config": {"dtype": "float32"}}, "bias_initializer": {"class_name": "Zeros", "config": {"dtype": "float32"}}, "kernel_regularizer": null, "bias_regularizer": null, "activity_regularizer": null, "kernel_constraint": null, "bias_constraint": null}, "inbound_nodes": [[["422", 0, 0, {}]]]}, {"name": "425", "class_name": "Conv2D", "config": {"name": "425", "trainable": true, "dtype": "float32", "filters": 1024, "kernel_size": [1, 1], "strides": [2, 2], "padding": "valid", "data_format": "channels_first", "dilation_rate": [1, 1], "activation": "linear", "use_bias": false, "kernel_initializer": {"class_name": "Zeros", "config": {"dtype": "float32"}}, "bias_initializer": {"class_name": "Zeros", "config": {"dtype": "float32"}}, "kernel_regularizer": null, "bias_regularizer": null, "activity_regularizer": null, "kernel_constraint": null, "bias_constraint": null}, "inbound_nodes": [[["416", 0, 0, {}]]]}, {"name": "424", "class_name": "BatchNormalization", "config": {"name": "424", "trainable": true, "dtype": "float32", "axis": [1], "momentum": 0.8999999761581421, "epsilon": 9.999999747378752e-06, "center": true, "scale": true, "beta_initializer": {"class_name": "Zeros", "config": {"dtype": "float32"}}, "gamma_initializer": {"class_name": "Ones", "config": {"dtype": "float32"}}, "moving_mean_initializer": {"class_name": "Zeros", "config": {"dtype": "float32"}}, "moving_variance_initializer": {"class_name": "Ones", "config": {"dtype": "float32"}}, "beta_regularizer": null, "gamma_regularizer": null, "beta_constraint": null, "gamma_constraint": null}, "inbound_nodes": [[["423", 0, 0, {}]]]}, {"name": "426", "class_name": "BatchNormalization", "config": {"name": "426", "trainable": true, "dtype": "float32", "axis": [1], "momentum": 0.8999999761581421, "epsilon": 9.999999747378752e-06, "center": true, "scale": true, "beta_initializer": {"class_name": "Zeros", "config": {"dtype": "float32"}}, "gamma_initializer": {"class_name": "Ones", "config": {"dtype": "float32"}}, "moving_mean_initializer": {"class_name": "Zeros", "config": {"dtype": "float32"}}, "moving_variance_initializer": {"class_name": "Ones", "config": {"dtype": "float32"}}, "beta_regularizer": null, "gamma_regularizer": null, "beta_constraint": null, "gamma_constraint": null}, "inbound_nodes": [[["425", 0, 0, {}]]]}, {"name": "427", "class_name": "Add", "config": {"name": "427", "trainable": true, "dtype": "float32"}, "inbound_nodes": [[["424", 0, 0, {}], ["426", 0, 0, {}]]]}, {"name": "428", "class_name": "Activation", "config": {"name": "428", "trainable": true, "dtype": "float32", "activation": "relu"}, "inbound_nodes": [[["427", 0, 0, {}]]]}, {"name": "429", "class_name": "Conv2D", "config": {"name": "429", "trainable": true, "dtype": "float32", "filters": 256, "kernel_size": [1, 1], "strides": [1, 1], "padding": "valid", "data_format": "channels_first", "dilation_rate": [1, 1], "activation": "linear", "use_bias": false, "kernel_initializer": {"class_name": "Zeros", "config": {"dtype": "float32"}}, "bias_initializer": {"class_name": "Zeros", "config": {"dtype": "float32"}}, "kernel_regularizer": null, "bias_regularizer": null, "activity_regularizer": null, "kernel_constraint": null, "bias_constraint": null}, "inbound_nodes": [[["428", 0, 0, {}]]]}, {"name": "430", "class_name": "BatchNormalization", "config": {"name": "430", "trainable": true, "dtype": "float32", "axis": [1], "momentum": 0.8999999761581421, "epsilon": 9.999999747378752e-06, "center": true, "scale": true, "beta_initializer": {"class_name": "Zeros", "config": {"dtype": "float32"}}, "gamma_initializer": {"class_name": "Ones", "config": {"dtype": "float32"}}, "moving_mean_initializer": {"class_name": "Zeros", "config": {"dtype": "float32"}}, "moving_variance_initializer": {"class_name": "Ones", "config": {"dtype": "float32"}}, "beta_regularizer": null, "gamma_regularizer": null, "beta_constraint": null, "gamma_constraint": null}, "inbound_nodes": [[["429", 0, 0, {}]]]}, {"name": "431", "class_name": "Activation", "config": {"name": "431", "trainable": true, "dtype": "float32", "activation": "relu"}, "inbound_nodes": [[["430", 0, 0, {}]]]}, {"name": "432_pad", "class_name": "ZeroPadding2D", "config": {"name": "432_pad", "trainable": true, "dtype": "float32", "padding": [[1, 1], [1, 1]], "data_format": "channels_first"}, "inbound_nodes": [[["431", 0, 0, {}]]]}, {"name": "432", "class_name": "Conv2D", "config": {"name": "432", "trainable": true, "dtype": "float32", "filters": 256, "kernel_size": [3, 3], "strides": [1, 1], "padding": "valid", "data_format": "channels_first", "dilation_rate": [1, 1], "activation": "linear", "use_bias": false, "kernel_initializer": {"class_name": "Zeros", "config": {"dtype": "float32"}}, "bias_initializer": {"class_name": "Zeros", "config": {"dtype": "float32"}}, "kernel_regularizer": null, "bias_regularizer": null, "activity_regularizer": null, "kernel_constraint": null, "bias_constraint": null}, "inbound_nodes": [[["432_pad", 0, 0, {}]]]}, {"name": "433", "class_name": "BatchNormalization", "config": {"name": "433", "trainable": true, "dtype": "float32", "axis": [1], "momentum": 0.8999999761581421, "epsilon": 9.999999747378752e-06, "center": true, "scale": true, "beta_initializer": {"class_name": "Zeros", "config": {"dtype": "float32"}}, "gamma_initializer": {"class_name": "Ones", "config": {"dtype": "float32"}}, "moving_mean_initializer": {"class_name": "Zeros", "config": {"dtype": "float32"}}, "moving_variance_initializer": {"class_name": "Ones", "config": {"dtype": "float32"}}, "beta_regularizer": null, "gamma_regularizer": null, "beta_constraint": null, "gamma_constraint": null}, "inbound_nodes": [[["432", 0, 0, {}]]]}, {"name": "434", "class_name": "Activation", "config": {"name": "434", "trainable": true, "dtype": "float32", "activation": "relu"}, "inbound_nodes": [[["433", 0, 0, {}]]]}, {"name": "435", "class_name": "Conv2D", "config": {"name": "435", "trainable": true, "dtype": "float32", "filters": 1024, "kernel_size": [1, 1], "strides": [1, 1], "padding": "valid", "data_format": "channels_first", "dilation_rate": [1, 1], "activation": "linear", "use_bias": false, "kernel_initializer": {"class_name": "Zeros", "config": {"dtype": "float32"}}, "bias_initializer": {"class_name": "Zeros", "config": {"dtype": "float32"}}, "kernel_regularizer": null, "bias_regularizer": null, "activity_regularizer": null, "kernel_constraint": null, "bias_constraint": null}, "inbound_nodes": [[["434", 0, 0, {}]]]}, {"name": "436", "class_name": "BatchNormalization", "config": {"name": "436", "trainable": true, "dtype": "float32", "axis": [1], "momentum": 0.8999999761581421, "epsilon": 9.999999747378752e-06, "center": true, "scale": true, "beta_initializer": {"class_name": "Zeros", "config": {"dtype": "float32"}}, "gamma_initializer": {"class_name": "Ones", "config": {"dtype": "float32"}}, "moving_mean_initializer": {"class_name": "Zeros", "config": {"dtype": "float32"}}, "moving_variance_initializer": {"class_name": "Ones", "config": {"dtype": "float32"}}, "beta_regularizer": null, "gamma_regularizer": null, "beta_constraint": null, "gamma_constraint": null}, "inbound_nodes": [[["435", 0, 0, {}]]]}, {"name": "437", "class_name": "Add", "config": {"name": "437", "trainable": true, "dtype": "float32"}, "inbound_nodes": [[["436", 0, 0, {}], ["428", 0, 0, {}]]]}, {"name": "438", "class_name": "Activation", "config": {"name": "438", "trainable": true, "dtype": "float32", "activation": "relu"}, "inbound_nodes": [[["437", 0, 0, {}]]]}, {"name": "439", "class_name": "Conv2D", "config": {"name": "439", "trainable": true, "dtype": "float32", "filters": 256, "kernel_size": [1, 1], "strides": [1, 1], "padding": "valid", "data_format": "channels_first", "dilation_rate": [1, 1], "activation": "linear", "use_bias": false, "kernel_initializer": {"class_name": "Zeros", "config": {"dtype": "float32"}}, "bias_initializer": {"class_name": "Zeros", "config": {"dtype": "float32"}}, "kernel_regularizer": null, "bias_regularizer": null, "activity_regularizer": null, "kernel_constraint": null, "bias_constraint": null}, "inbound_nodes": [[["438", 0, 0, {}]]]}, {"name": "440", "class_name": "BatchNormalization", "config": {"name": "440", "trainable": true, "dtype": "float32", "axis": [1], "momentum": 0.8999999761581421, "epsilon": 9.999999747378752e-06, "center": true, "scale": true, "beta_initializer": {"class_name": "Zeros", "config": {"dtype": "float32"}}, "gamma_initializer": {"class_name": "Ones", "config": {"dtype": "float32"}}, "moving_mean_initializer": {"class_name": "Zeros", "config": {"dtype": "float32"}}, "moving_variance_initializer": {"class_name": "Ones", "config": {"dtype": "float32"}}, "beta_regularizer": null, "gamma_regularizer": null, "beta_constraint": null, "gamma_constraint": null}, "inbound_nodes": [[["439", 0, 0, {}]]]}, {"name": "441", "class_name": "Activation", "config": {"name": "441", "trainable": true, "dtype": "float32", "activation": "relu"}, "inbound_nodes": [[["440", 0, 0, {}]]]}, {"name": "442_pad", "class_name": "ZeroPadding2D", "config": {"name": "442_pad", "trainable": true, "dtype": "float32", "padding": [[1, 1], [1, 1]], "data_format": "channels_first"}, "inbound_nodes": [[["441", 0, 0, {}]]]}, {"name": "442", "class_name": "Conv2D", "config": {"name": "442", "trainable": true, "dtype": "float32", "filters": 256, "kernel_size": [3, 3], "strides": [1, 1], "padding": "valid", "data_format": "channels_first", "dilation_rate": [1, 1], "activation": "linear", "use_bias": false, "kernel_initializer": {"class_name": "Zeros", "config": {"dtype": "float32"}}, "bias_initializer": {"class_name": "Zeros", "config": {"dtype": "float32"}}, "kernel_regularizer": null, "bias_regularizer": null, "activity_regularizer": null, "kernel_constraint": null, "bias_constraint": null}, "inbound_nodes": [[["442_pad", 0, 0, {}]]]}, {"name": "443", "class_name": "BatchNormalization", "config": {"name": "443", "trainable": true, "dtype": "float32", "axis": [1], "momentum": 0.8999999761581421, "epsilon": 9.999999747378752e-06, "center": true, "scale": true, "beta_initializer": {"class_name": "Zeros", "config": {"dtype": "float32"}}, "gamma_initializer": {"class_name": "Ones", "config": {"dtype": "float32"}}, "moving_mean_initializer": {"class_name": "Zeros", "config": {"dtype": "float32"}}, "moving_variance_initializer": {"class_name": "Ones", "config": {"dtype": "float32"}}, "beta_regularizer": null, "gamma_regularizer": null, "beta_constraint": null, "gamma_constraint": null}, "inbound_nodes": [[["442", 0, 0, {}]]]}, {"name": "444", "class_name": "Activation", "config": {"name": "444", "trainable": true, "dtype": "float32", "activation": "relu"}, "inbound_nodes": [[["443", 0, 0, {}]]]}, {"name": "445", "class_name": "Conv2D", "config": {"name": "445", "trainable": true, "dtype": "float32", "filters": 1024, "kernel_size": [1, 1], "strides": [1, 1], "padding": "valid", "data_format": "channels_first", "dilation_rate": [1, 1], "activation": "linear", "use_bias": false, "kernel_initializer": {"class_name": "Zeros", "config": {"dtype": "float32"}}, "bias_initializer": {"class_name": "Zeros", "config": {"dtype": "float32"}}, "kernel_regularizer": null, "bias_regularizer": null, "activity_regularizer": null, "kernel_constraint": null, "bias_constraint": null}, "inbound_nodes": [[["444", 0, 0, {}]]]}, {"name": "446", "class_name": "BatchNormalization", "config": {"name": "446", "trainable": true, "dtype": "float32", "axis": [1], "momentum": 0.8999999761581421, "epsilon": 9.999999747378752e-06, "center": true, "scale": true, "beta_initializer": {"class_name": "Zeros", "config": {"dtype": "float32"}}, "gamma_initializer": {"class_name": "Ones", "config": {"dtype": "float32"}}, "moving_mean_initializer": {"class_name": "Zeros", "config": {"dtype": "float32"}}, "moving_variance_initializer": {"class_name": "Ones", "config": {"dtype": "float32"}}, "beta_regularizer": null, "gamma_regularizer": null, "beta_constraint": null, "gamma_constraint": null}, "inbound_nodes": [[["445", 0, 0, {}]]]}, {"name": "447", "class_name": "Add", "config": {"name": "447", "trainable": true, "dtype": "float32"}, "inbound_nodes": [[["446", 0, 0, {}], ["438", 0, 0, {}]]]}, {"name": "448", "class_name": "Activation", "config": {"name": "448", "trainable": true, "dtype": "float32", "activation": "relu"}, "inbound_nodes": [[["447", 0, 0, {}]]]}, {"name": "449", "class_name": "Conv2D", "config": {"name": "449", "trainable": true, "dtype": "float32", "filters": 256, "kernel_size": [1, 1], "strides": [1, 1], "padding": "valid", "data_format": "channels_first", "dilation_rate": [1, 1], "activation": "linear", "use_bias": false, "kernel_initializer": {"class_name": "Zeros", "config": {"dtype": "float32"}}, "bias_initializer": {"class_name": "Zeros", "config": {"dtype": "float32"}}, "kernel_regularizer": null, "bias_regularizer": null, "activity_regularizer": null, "kernel_constraint": null, "bias_constraint": null}, "inbound_nodes": [[["448", 0, 0, {}]]]}, {"name": "450", "class_name": "BatchNormalization", "config": {"name": "450", "trainable": true, "dtype": "float32", "axis": [1], "momentum": 0.8999999761581421, "epsilon": 9.999999747378752e-06, "center": true, "scale": true, "beta_initializer": {"class_name": "Zeros", "config": {"dtype": "float32"}}, "gamma_initializer": {"class_name": "Ones", "config": {"dtype": "float32"}}, "moving_mean_initializer": {"class_name": "Zeros", "config": {"dtype": "float32"}}, "moving_variance_initializer": {"class_name": "Ones", "config": {"dtype": "float32"}}, "beta_regularizer": null, "gamma_regularizer": null, "beta_constraint": null, "gamma_constraint": null}, "inbound_nodes": [[["449", 0, 0, {}]]]}, {"name": "451", "class_name": "Activation", "config": {"name": "451", "trainable": true, "dtype": "float32", "activation": "relu"}, "inbound_nodes": [[["450", 0, 0, {}]]]}, {"name": "452_pad", "class_name": "ZeroPadding2D", "config": {"name": "452_pad", "trainable": true, "dtype": "float32", "padding": [[1, 1], [1, 1]], "data_format": "channels_first"}, "inbound_nodes": [[["451", 0, 0, {}]]]}, {"name": "452", "class_name": "Conv2D", "config": {"name": "452", "trainable": true, "dtype": "float32", "filters": 256, "kernel_size": [3, 3], "strides": [1, 1], "padding": "valid", "data_format": "channels_first", "dilation_rate": [1, 1], "activation": "linear", "use_bias": false, "kernel_initializer": {"class_name": "Zeros", "config": {"dtype": "float32"}}, "bias_initializer": {"class_name": "Zeros", "config": {"dtype": "float32"}}, "kernel_regularizer": null, "bias_regularizer": null, "activity_regularizer": null, "kernel_constraint": null, "bias_constraint": null}, "inbound_nodes": [[["452_pad", 0, 0, {}]]]}, {"name": "453", "class_name": "BatchNormalization", "config": {"name": "453", "trainable": true, "dtype": "float32", "axis": [1], "momentum": 0.8999999761581421, "epsilon": 9.999999747378752e-06, "center": true, "scale": true, "beta_initializer": {"class_name": "Zeros", "config": {"dtype": "float32"}}, "gamma_initializer": {"class_name": "Ones", "config": {"dtype": "float32"}}, "moving_mean_initializer": {"class_name": "Zeros", "config": {"dtype": "float32"}}, "moving_variance_initializer": {"class_name": "Ones", "config": {"dtype": "float32"}}, "beta_regularizer": null, "gamma_regularizer": null, "beta_constraint": null, "gamma_constraint": null}, "inbound_nodes": [[["452", 0, 0, {}]]]}, {"name": "454", "class_name": "Activation", "config": {"name": "454", "trainable": true, "dtype": "float32", "activation": "relu"}, "inbound_nodes": [[["453", 0, 0, {}]]]}, {"name": "455", "class_name": "Conv2D", "config": {"name": "455", "trainable": true, "dtype": "float32", "filters": 1024, "kernel_size": [1, 1], "strides": [1, 1], "padding": "valid", "data_format": "channels_first", "dilation_rate": [1, 1], "activation": "linear", "use_bias": false, "kernel_initializer": {"class_name": "Zeros", "config": {"dtype": "float32"}}, "bias_initializer": {"class_name": "Zeros", "config": {"dtype": "float32"}}, "kernel_regularizer": null, "bias_regularizer": null, "activity_regularizer": null, "kernel_constraint": null, "bias_constraint": null}, "inbound_nodes": [[["454", 0, 0, {}]]]}, {"name": "456", "class_name": "BatchNormalization", "config": {"name": "456", "trainable": true, "dtype": "float32", "axis": [1], "momentum": 0.8999999761581421, "epsilon": 9.999999747378752e-06, "center": true, "scale": true, "beta_initializer": {"class_name": "Zeros", "config": {"dtype": "float32"}}, "gamma_initializer": {"class_name": "Ones", "config": {"dtype": "float32"}}, "moving_mean_initializer": {"class_name": "Zeros", "config": {"dtype": "float32"}}, "moving_variance_initializer": {"class_name": "Ones", "config": {"dtype": "float32"}}, "beta_regularizer": null, "gamma_regularizer": null, "beta_constraint": null, "gamma_constraint": null}, "inbound_nodes": [[["455", 0, 0, {}]]]}, {"name": "457", "class_name": "Add", "config": {"name": "457", "trainable": true, "dtype": "float32"}, "inbound_nodes": [[["456", 0, 0, {}], ["448", 0, 0, {}]]]}, {"name": "458", "class_name": "Activation", "config": {"name": "458", "trainable": true, "dtype": "float32", "activation": "relu"}, "inbound_nodes": [[["457", 0, 0, {}]]]}, {"name": "459", "class_name": "Conv2D", "config": {"name": "459", "trainable": true, "dtype": "float32", "filters": 256, "kernel_size": [1, 1], "strides": [1, 1], "padding": "valid", "data_format": "channels_first", "dilation_rate": [1, 1], "activation": "linear", "use_bias": false, "kernel_initializer": {"class_name": "Zeros", "config": {"dtype": "float32"}}, "bias_initializer": {"class_name": "Zeros", "config": {"dtype": "float32"}}, "kernel_regularizer": null, "bias_regularizer": null, "activity_regularizer": null, "kernel_constraint": null, "bias_constraint": null}, "inbound_nodes": [[["458", 0, 0, {}]]]}, {"name": "460", "class_name": "BatchNormalization", "config": {"name": "460", "trainable": true, "dtype": "float32", "axis": [1], "momentum": 0.8999999761581421, "epsilon": 9.999999747378752e-06, "center": true, "scale": true, "beta_initializer": {"class_name": "Zeros", "config": {"dtype": "float32"}}, "gamma_initializer": {"class_name": "Ones", "config": {"dtype": "float32"}}, "moving_mean_initializer": {"class_name": "Zeros", "config": {"dtype": "float32"}}, "moving_variance_initializer": {"class_name": "Ones", "config": {"dtype": "float32"}}, "beta_regularizer": null, "gamma_regularizer": null, "beta_constraint": null, "gamma_constraint": null}, "inbound_nodes": [[["459", 0, 0, {}]]]}, {"name": "461", "class_name": "Activation", "config": {"name": "461", "trainable": true, "dtype": "float32", "activation": "relu"}, "inbound_nodes": [[["460", 0, 0, {}]]]}, {"name": "462_pad", "class_name": "ZeroPadding2D", "config": {"name": "462_pad", "trainable": true, "dtype": "float32", "padding": [[1, 1], [1, 1]], "data_format": "channels_first"}, "inbound_nodes": [[["461", 0, 0, {}]]]}, {"name": "462", "class_name": "Conv2D", "config": {"name": "462", "trainable": true, "dtype": "float32", "filters": 256, "kernel_size": [3, 3], "strides": [1, 1], "padding": "valid", "data_format": "channels_first", "dilation_rate": [1, 1], "activation": "linear", "use_bias": false, "kernel_initializer": {"class_name": "Zeros", "config": {"dtype": "float32"}}, "bias_initializer": {"class_name": "Zeros", "config": {"dtype": "float32"}}, "kernel_regularizer": null, "bias_regularizer": null, "activity_regularizer": null, "kernel_constraint": null, "bias_constraint": null}, "inbound_nodes": [[["462_pad", 0, 0, {}]]]}, {"name": "463", "class_name": "BatchNormalization", "config": {"name": "463", "trainable": true, "dtype": "float32", "axis": [1], "momentum": 0.8999999761581421, "epsilon": 9.999999747378752e-06, "center": true, "scale": true, "beta_initializer": {"class_name": "Zeros", "config": {"dtype": "float32"}}, "gamma_initializer": {"class_name": "Ones", "config": {"dtype": "float32"}}, "moving_mean_initializer": {"class_name": "Zeros", "config": {"dtype": "float32"}}, "moving_variance_initializer": {"class_name": "Ones", "config": {"dtype": "float32"}}, "beta_regularizer": null, "gamma_regularizer": null, "beta_constraint": null, "gamma_constraint": null}, "inbound_nodes": [[["462", 0, 0, {}]]]}, {"name": "464", "class_name": "Activation", "config": {"name": "464", "trainable": true, "dtype": "float32", "activation": "relu"}, "inbound_nodes": [[["463", 0, 0, {}]]]}, {"name": "465", "class_name": "Conv2D", "config": {"name": "465", "trainable": true, "dtype": "float32", "filters": 1024, "kernel_size": [1, 1], "strides": [1, 1], "padding": "valid", "data_format": "channels_first", "dilation_rate": [1, 1], "activation": "linear", "use_bias": false, "kernel_initializer": {"class_name": "Zeros", "config": {"dtype": "float32"}}, "bias_initializer": {"class_name": "Zeros", "config": {"dtype": "float32"}}, "kernel_regularizer": null, "bias_regularizer": null, "activity_regularizer": null, "kernel_constraint": null, "bias_constraint": null}, "inbound_nodes": [[["464", 0, 0, {}]]]}, {"name": "466", "class_name": "BatchNormalization", "config": {"name": "466", "trainable": true, "dtype": "float32", "axis": [1], "momentum": 0.8999999761581421, "epsilon": 9.999999747378752e-06, "center": true, "scale": true, "beta_initializer": {"class_name": "Zeros", "config": {"dtype": "float32"}}, "gamma_initializer": {"class_name": "Ones", "config": {"dtype": "float32"}}, "moving_mean_initializer": {"class_name": "Zeros", "config": {"dtype": "float32"}}, "moving_variance_initializer": {"class_name": "Ones", "config": {"dtype": "float32"}}, "beta_regularizer": null, "gamma_regularizer": null, "beta_constraint": null, "gamma_constraint": null}, "inbound_nodes": [[["465", 0, 0, {}]]]}, {"name": "467", "class_name": "Add", "config": {"name": "467", "trainable": true, "dtype": "float32"}, "inbound_nodes": [[["466", 0, 0, {}], ["458", 0, 0, {}]]]}, {"name": "468", "class_name": "Activation", "config": {"name": "468", "trainable": true, "dtype": "float32", "activation": "relu"}, "inbound_nodes": [[["467", 0, 0, {}]]]}, {"name": "469", "class_name": "Conv2D", "config": {"name": "469", "trainable": true, "dtype": "float32", "filters": 256, "kernel_size": [1, 1], "strides": [1, 1], "padding": "valid", "data_format": "channels_first", "dilation_rate": [1, 1], "activation": "linear", "use_bias": false, "kernel_initializer": {"class_name": "Zeros", "config": {"dtype": "float32"}}, "bias_initializer": {"class_name": "Zeros", "config": {"dtype": "float32"}}, "kernel_regularizer": null, "bias_regularizer": null, "activity_regularizer": null, "kernel_constraint": null, "bias_constraint": null}, "inbound_nodes": [[["468", 0, 0, {}]]]}, {"name": "470", "class_name": "BatchNormalization", "config": {"name": "470", "trainable": true, "dtype": "float32", "axis": [1], "momentum": 0.8999999761581421, "epsilon": 9.999999747378752e-06, "center": true, "scale": true, "beta_initializer": {"class_name": "Zeros", "config": {"dtype": "float32"}}, "gamma_initializer": {"class_name": "Ones", "config": {"dtype": "float32"}}, "moving_mean_initializer": {"class_name": "Zeros", "config": {"dtype": "float32"}}, "moving_variance_initializer": {"class_name": "Ones", "config": {"dtype": "float32"}}, "beta_regularizer": null, "gamma_regularizer": null, "beta_constraint": null, "gamma_constraint": null}, "inbound_nodes": [[["469", 0, 0, {}]]]}, {"name": "471", "class_name": "Activation", "config": {"name": "471", "trainable": true, "dtype": "float32", "activation": "relu"}, "inbound_nodes": [[["470", 0, 0, {}]]]}, {"name": "472_pad", "class_name": "ZeroPadding2D", "config": {"name": "472_pad", "trainable": true, "dtype": "float32", "padding": [[1, 1], [1, 1]], "data_format": "channels_first"}, "inbound_nodes": [[["471", 0, 0, {}]]]}, {"name": "472", "class_name": "Conv2D", "config": {"name": "472", "trainable": true, "dtype": "float32", "filters": 256, "kernel_size": [3, 3], "strides": [1, 1], "padding": "valid", "data_format": "channels_first", "dilation_rate": [1, 1], "activation": "linear", "use_bias": false, "kernel_initializer": {"class_name": "Zeros", "config": {"dtype": "float32"}}, "bias_initializer": {"class_name": "Zeros", "config": {"dtype": "float32"}}, "kernel_regularizer": null, "bias_regularizer": null, "activity_regularizer": null, "kernel_constraint": null, "bias_constraint": null}, "inbound_nodes": [[["472_pad", 0, 0, {}]]]}, {"name": "473", "class_name": "BatchNormalization", "config": {"name": "473", "trainable": true, "dtype": "float32", "axis": [1], "momentum": 0.8999999761581421, "epsilon": 9.999999747378752e-06, "center": true, "scale": true, "beta_initializer": {"class_name": "Zeros", "config": {"dtype": "float32"}}, "gamma_initializer": {"class_name": "Ones", "config": {"dtype": "float32"}}, "moving_mean_initializer": {"class_name": "Zeros", "config": {"dtype": "float32"}}, "moving_variance_initializer": {"class_name": "Ones", "config": {"dtype": "float32"}}, "beta_regularizer": null, "gamma_regularizer": null, "beta_constraint": null, "gamma_constraint": null}, "inbound_nodes": [[["472", 0, 0, {}]]]}, {"name": "474", "class_name": "Activation", "config": {"name": "474", "trainable": true, "dtype": "float32", "activation": "relu"}, "inbound_nodes": [[["473", 0, 0, {}]]]}, {"name": "475", "class_name": "Conv2D", "config": {"name": "475", "trainable": true, "dtype": "float32", "filters": 1024, "kernel_size": [1, 1], "strides": [1, 1], "padding": "valid", "data_format": "channels_first", "dilation_rate": [1, 1], "activation": "linear", "use_bias": false, "kernel_initializer": {"class_name": "Zeros", "config": {"dtype": "float32"}}, "bias_initializer": {"class_name": "Zeros", "config": {"dtype": "float32"}}, "kernel_regularizer": null, "bias_regularizer": null, "activity_regularizer": null, "kernel_constraint": null, "bias_constraint": null}, "inbound_nodes": [[["474", 0, 0, {}]]]}, {"name": "476", "class_name": "BatchNormalization", "config": {"name": "476", "trainable": true, "dtype": "float32", "axis": [1], "momentum": 0.8999999761581421, "epsilon": 9.999999747378752e-06, "center": true, "scale": true, "beta_initializer": {"class_name": "Zeros", "config": {"dtype": "float32"}}, "gamma_initializer": {"class_name": "Ones", "config": {"dtype": "float32"}}, "moving_mean_initializer": {"class_name": "Zeros", "config": {"dtype": "float32"}}, "moving_variance_initializer": {"class_name": "Ones", "config": {"dtype": "float32"}}, "beta_regularizer": null, "gamma_regularizer": null, "beta_constraint": null, "gamma_constraint": null}, "inbound_nodes": [[["475", 0, 0, {}]]]}, {"name": "477", "class_name": "Add", "config": {"name": "477", "trainable": true, "dtype": "float32"}, "inbound_nodes": [[["476", 0, 0, {}], ["468", 0, 0, {}]]]}, {"name": "478", "class_name": "Activation", "config": {"name": "478", "trainable": true, "dtype": "float32", "activation": "relu"}, "inbound_nodes": [[["477", 0, 0, {}]]]}, {"name": "479", "class_name": "Conv2D", "config": {"name": "479", "trainable": true, "dtype": "float32", "filters": 512, "kernel_size": [1, 1], "strides": [1, 1], "padding": "valid", "data_format": "channels_first", "dilation_rate": [1, 1], "activation": "linear", "use_bias": false, "kernel_initializer": {"class_name": "Zeros", "config": {"dtype": "float32"}}, "bias_initializer": {"class_name": "Zeros", "config": {"dtype": "float32"}}, "kernel_regularizer": null, "bias_regularizer": null, "activity_regularizer": null, "kernel_constraint": null, "bias_constraint": null}, "inbound_nodes": [[["478", 0, 0, {}]]]}, {"name": "480", "class_name": "BatchNormalization", "config": {"name": "480", "trainable": true, "dtype": "float32", "axis": [1], "momentum": 0.8999999761581421, "epsilon": 9.999999747378752e-06, "center": true, "scale": true, "beta_initializer": {"class_name": "Zeros", "config": {"dtype": "float32"}}, "gamma_initializer": {"class_name": "Ones", "config": {"dtype": "float32"}}, "moving_mean_initializer": {"class_name": "Zeros", "config": {"dtype": "float32"}}, "moving_variance_initializer": {"class_name": "Ones", "config": {"dtype": "float32"}}, "beta_regularizer": null, "gamma_regularizer": null, "beta_constraint": null, "gamma_constraint": null}, "inbound_nodes": [[["479", 0, 0, {}]]]}, {"name": "481", "class_name": "Activation", "config": {"name": "481", "trainable": true, "dtype": "float32", "activation": "relu"}, "inbound_nodes": [[["480", 0, 0, {}]]]}, {"name": "482_pad", "class_name": "ZeroPadding2D", "config": {"name": "482_pad", "trainable": true, "dtype": "float32", "padding": [[1, 1], [1, 1]], "data_format": "channels_first"}, "inbound_nodes": [[["481", 0, 0, {}]]]}, {"name": "482", "class_name": "Conv2D", "config": {"name": "482", "trainable": true, "dtype": "float32", "filters": 512, "kernel_size": [3, 3], "strides": [2, 2], "padding": "valid", "data_format": "channels_first", "dilation_rate": [1, 1], "activation": "linear", "use_bias": false, "kernel_initializer": {"class_name": "Zeros", "config": {"dtype": "float32"}}, "bias_initializer": {"class_name": "Zeros", "config": {"dtype": "float32"}}, "kernel_regularizer": null, "bias_regularizer": null, "activity_regularizer": null, "kernel_constraint": null, "bias_constraint": null}, "inbound_nodes": [[["482_pad", 0, 0, {}]]]}, {"name": "483", "class_name": "BatchNormalization", "config": {"name": "483", "trainable": true, "dtype": "float32", "axis": [1], "momentum": 0.8999999761581421, "epsilon": 9.999999747378752e-06, "center": true, "scale": true, "beta_initializer": {"class_name": "Zeros", "config": {"dtype": "float32"}}, "gamma_initializer": {"class_name": "Ones", "config": {"dtype": "float32"}}, "moving_mean_initializer": {"class_name": "Zeros", "config": {"dtype": "float32"}}, "moving_variance_initializer": {"class_name": "Ones", "config": {"dtype": "float32"}}, "beta_regularizer": null, "gamma_regularizer": null, "beta_constraint": null, "gamma_constraint": null}, "inbound_nodes": [[["482", 0, 0, {}]]]}, {"name": "484", "class_name": "Activation", "config": {"name": "484", "trainable": true, "dtype": "float32", "activation": "relu"}, "inbound_nodes": [[["483", 0, 0, {}]]]}, {"name": "485", "class_name": "Conv2D", "config": {"name": "485", "trainable": true, "dtype": "float32", "filters": 2048, "kernel_size": [1, 1], "strides": [1, 1], "padding": "valid", "data_format": "channels_first", "dilation_rate": [1, 1], "activation": "linear", "use_bias": false, "kernel_initializer": {"class_name": "Zeros", "config": {"dtype": "float32"}}, "bias_initializer": {"class_name": "Zeros", "config": {"dtype": "float32"}}, "kernel_regularizer": null, "bias_regularizer": null, "activity_regularizer": null, "kernel_constraint": null, "bias_constraint": null}, "inbound_nodes": [[["484", 0, 0, {}]]]}, {"name": "487", "class_name": "Conv2D", "config": {"name": "487", "trainable": true, "dtype": "float32", "filters": 2048, "kernel_size": [1, 1], "strides": [2, 2], "padding": "valid", "data_format": "channels_first", "dilation_rate": [1, 1], "activation": "linear", "use_bias": false, "kernel_initializer": {"class_name": "Zeros", "config": {"dtype": "float32"}}, "bias_initializer": {"class_name": "Zeros", "config": {"dtype": "float32"}}, "kernel_regularizer": null, "bias_regularizer": null, "activity_regularizer": null, "kernel_constraint": null, "bias_constraint": null}, "inbound_nodes": [[["478", 0, 0, {}]]]}, {"name": "486", "class_name": "BatchNormalization", "config": {"name": "486", "trainable": true, "dtype": "float32", "axis": [1], "momentum": 0.8999999761581421, "epsilon": 9.999999747378752e-06, "center": true, "scale": true, "beta_initializer": {"class_name": "Zeros", "config": {"dtype": "float32"}}, "gamma_initializer": {"class_name": "Ones", "config": {"dtype": "float32"}}, "moving_mean_initializer": {"class_name": "Zeros", "config": {"dtype": "float32"}}, "moving_variance_initializer": {"class_name": "Ones", "config": {"dtype": "float32"}}, "beta_regularizer": null, "gamma_regularizer": null, "beta_constraint": null, "gamma_constraint": null}, "inbound_nodes": [[["485", 0, 0, {}]]]}, {"name": "488", "class_name": "BatchNormalization", "config": {"name": "488", "trainable": true, "dtype": "float32", "axis": [1], "momentum": 0.8999999761581421, "epsilon": 9.999999747378752e-06, "center": true, "scale": true, "beta_initializer": {"class_name": "Zeros", "config": {"dtype": "float32"}}, "gamma_initializer": {"class_name": "Ones", "config": {"dtype": "float32"}}, "moving_mean_initializer": {"class_name": "Zeros", "config": {"dtype": "float32"}}, "moving_variance_initializer": {"class_name": "Ones", "config": {"dtype": "float32"}}, "beta_regularizer": null, "gamma_regularizer": null, "beta_constraint": null, "gamma_constraint": null}, "inbound_nodes": [[["487", 0, 0, {}]]]}, {"name": "489", "class_name": "Add", "config": {"name": "489", "trainable": true, "dtype": "float32"}, "inbound_nodes": [[["486", 0, 0, {}], ["488", 0, 0, {}]]]}, {"name": "490", "class_name": "Activation", "config": {"name": "490", "trainable": true, "dtype": "float32", "activation": "relu"}, "inbound_nodes": [[["489", 0, 0, {}]]]}, {"name": "491", "class_name": "Conv2D", "config": {"name": "491", "trainable": true, "dtype": "float32", "filters": 512, "kernel_size": [1, 1], "strides": [1, 1], "padding": "valid", "data_format": "channels_first", "dilation_rate": [1, 1], "activation": "linear", "use_bias": false, "kernel_initializer": {"class_name": "Zeros", "config": {"dtype": "float32"}}, "bias_initializer": {"class_name": "Zeros", "config": {"dtype": "float32"}}, "kernel_regularizer": null, "bias_regularizer": null, "activity_regularizer": null, "kernel_constraint": null, "bias_constraint": null}, "inbound_nodes": [[["490", 0, 0, {}]]]}, {"name": "492", "class_name": "BatchNormalization", "config": {"name": "492", "trainable": true, "dtype": "float32", "axis": [1], "momentum": 0.8999999761581421, "epsilon": 9.999999747378752e-06, "center": true, "scale": true, "beta_initializer": {"class_name": "Zeros", "config": {"dtype": "float32"}}, "gamma_initializer": {"class_name": "Ones", "config": {"dtype": "float32"}}, "moving_mean_initializer": {"class_name": "Zeros", "config": {"dtype": "float32"}}, "moving_variance_initializer": {"class_name": "Ones", "config": {"dtype": "float32"}}, "beta_regularizer": null, "gamma_regularizer": null, "beta_constraint": null, "gamma_constraint": null}, "inbound_nodes": [[["491", 0, 0, {}]]]}, {"name": "493", "class_name": "Activation", "config": {"name": "493", "trainable": true, "dtype": "float32", "activation": "relu"}, "inbound_nodes": [[["492", 0, 0, {}]]]}, {"name": "494_pad", "class_name": "ZeroPadding2D", "config": {"name": "494_pad", "trainable": true, "dtype": "float32", "padding": [[1, 1], [1, 1]], "data_format": "channels_first"}, "inbound_nodes": [[["493", 0, 0, {}]]]}, {"name": "494", "class_name": "Conv2D", "config": {"name": "494", "trainable": true, "dtype": "float32", "filters": 512, "kernel_size": [3, 3], "strides": [1, 1], "padding": "valid", "data_format": "channels_first", "dilation_rate": [1, 1], "activation": "linear", "use_bias": false, "kernel_initializer": {"class_name": "Zeros", "config": {"dtype": "float32"}}, "bias_initializer": {"class_name": "Zeros", "config": {"dtype": "float32"}}, "kernel_regularizer": null, "bias_regularizer": null, "activity_regularizer": null, "kernel_constraint": null, "bias_constraint": null}, "inbound_nodes": [[["494_pad", 0, 0, {}]]]}, {"name": "495", "class_name": "BatchNormalization", "config": {"name": "495", "trainable": true, "dtype": "float32", "axis": [1], "momentum": 0.8999999761581421, "epsilon": 9.999999747378752e-06, "center": true, "scale": true, "beta_initializer": {"class_name": "Zeros", "config": {"dtype": "float32"}}, "gamma_initializer": {"class_name": "Ones", "config": {"dtype": "float32"}}, "moving_mean_initializer": {"class_name": "Zeros", "config": {"dtype": "float32"}}, "moving_variance_initializer": {"class_name": "Ones", "config": {"dtype": "float32"}}, "beta_regularizer": null, "gamma_regularizer": null, "beta_constraint": null, "gamma_constraint": null}, "inbound_nodes": [[["494", 0, 0, {}]]]}, {"name": "496", "class_name": "Activation", "config": {"name": "496", "trainable": true, "dtype": "float32", "activation": "relu"}, "inbound_nodes": [[["495", 0, 0, {}]]]}, {"name": "497", "class_name": "Conv2D", "config": {"name": "497", "trainable": true, "dtype": "float32", "filters": 2048, "kernel_size": [1, 1], "strides": [1, 1], "padding": "valid", "data_format": "channels_first", "dilation_rate": [1, 1], "activation": "linear", "use_bias": false, "kernel_initializer": {"class_name": "Zeros", "config": {"dtype": "float32"}}, "bias_initializer": {"class_name": "Zeros", "config": {"dtype": "float32"}}, "kernel_regularizer": null, "bias_regularizer": null, "activity_regularizer": null, "kernel_constraint": null, "bias_constraint": null}, "inbound_nodes": [[["496", 0, 0, {}]]]}, {"name": "498", "class_name": "BatchNormalization", "config": {"name": "498", "trainable": true, "dtype": "float32", "axis": [1], "momentum": 0.8999999761581421, "epsilon": 9.999999747378752e-06, "center": true, "scale": true, "beta_initializer": {"class_name": "Zeros", "config": {"dtype": "float32"}}, "gamma_initializer": {"class_name": "Ones", "config": {"dtype": "float32"}}, "moving_mean_initializer": {"class_name": "Zeros", "config": {"dtype": "float32"}}, "moving_variance_initializer": {"class_name": "Ones", "config": {"dtype": "float32"}}, "beta_regularizer": null, "gamma_regularizer": null, "beta_constraint": null, "gamma_constraint": null}, "inbound_nodes": [[["497", 0, 0, {}]]]}, {"name": "499", "class_name": "Add", "config": {"name": "499", "trainable": true, "dtype": "float32"}, "inbound_nodes": [[["498", 0, 0, {}], ["490", 0, 0, {}]]]}, {"name": "500", "class_name": "Activation", "config": {"name": "500", "trainable": true, "dtype": "float32", "activation": "relu"}, "inbound_nodes": [[["499", 0, 0, {}]]]}, {"name": "501", "class_name": "Conv2D", "config": {"name": "501", "trainable": true, "dtype": "float32", "filters": 512, "kernel_size": [1, 1], "strides": [1, 1], "padding": "valid", "data_format": "channels_first", "dilation_rate": [1, 1], "activation": "linear", "use_bias": false, "kernel_initializer": {"class_name": "Zeros", "config": {"dtype": "float32"}}, "bias_initializer": {"class_name": "Zeros", "config": {"dtype": "float32"}}, "kernel_regularizer": null, "bias_regularizer": null, "activity_regularizer": null, "kernel_constraint": null, "bias_constraint": null}, "inbound_nodes": [[["500", 0, 0, {}]]]}, {"name": "502", "class_name": "BatchNormalization", "config": {"name": "502", "trainable": true, "dtype": "float32", "axis": [1], "momentum": 0.8999999761581421, "epsilon": 9.999999747378752e-06, "center": true, "scale": true, "beta_initializer": {"class_name": "Zeros", "config": {"dtype": "float32"}}, "gamma_initializer": {"class_name": "Ones", "config": {"dtype": "float32"}}, "moving_mean_initializer": {"class_name": "Zeros", "config": {"dtype": "float32"}}, "moving_variance_initializer": {"class_name": "Ones", "config": {"dtype": "float32"}}, "beta_regularizer": null, "gamma_regularizer": null, "beta_constraint": null, "gamma_constraint": null}, "inbound_nodes": [[["501", 0, 0, {}]]]}, {"name": "503", "class_name": "Activation", "config": {"name": "503", "trainable": true, "dtype": "float32", "activation": "relu"}, "inbound_nodes": [[["502", 0, 0, {}]]]}, {"name": "504_pad", "class_name": "ZeroPadding2D", "config": {"name": "504_pad", "trainable": true, "dtype": "float32", "padding": [[1, 1], [1, 1]], "data_format": "channels_first"}, "inbound_nodes": [[["503", 0, 0, {}]]]}, {"name": "504", "class_name": "Conv2D", "config": {"name": "504", "trainable": true, "dtype": "float32", "filters": 512, "kernel_size": [3, 3], "strides": [1, 1], "padding": "valid", "data_format": "channels_first", "dilation_rate": [1, 1], "activation": "linear", "use_bias": false, "kernel_initializer": {"class_name": "Zeros", "config": {"dtype": "float32"}}, "bias_initializer": {"class_name": "Zeros", "config": {"dtype": "float32"}}, "kernel_regularizer": null, "bias_regularizer": null, "activity_regularizer": null, "kernel_constraint": null, "bias_constraint": null}, "inbound_nodes": [[["504_pad", 0, 0, {}]]]}, {"name": "505", "class_name": "BatchNormalization", "config": {"name": "505", "trainable": true, "dtype": "float32", "axis": [1], "momentum": 0.8999999761581421, "epsilon": 9.999999747378752e-06, "center": true, "scale": true, "beta_initializer": {"class_name": "Zeros", "config": {"dtype": "float32"}}, "gamma_initializer": {"class_name": "Ones", "config": {"dtype": "float32"}}, "moving_mean_initializer": {"class_name": "Zeros", "config": {"dtype": "float32"}}, "moving_variance_initializer": {"class_name": "Ones", "config": {"dtype": "float32"}}, "beta_regularizer": null, "gamma_regularizer": null, "beta_constraint": null, "gamma_constraint": null}, "inbound_nodes": [[["504", 0, 0, {}]]]}, {"name": "506", "class_name": "Activation", "config": {"name": "506", "trainable": true, "dtype": "float32", "activation": "relu"}, "inbound_nodes": [[["505", 0, 0, {}]]]}, {"name": "507", "class_name": "Conv2D", "config": {"name": "507", "trainable": true, "dtype": "float32", "filters": 2048, "kernel_size": [1, 1], "strides": [1, 1], "padding": "valid", "data_format": "channels_first", "dilation_rate": [1, 1], "activation": "linear", "use_bias": false, "kernel_initializer": {"class_name": "Zeros", "config": {"dtype": "float32"}}, "bias_initializer": {"class_name": "Zeros", "config": {"dtype": "float32"}}, "kernel_regularizer": null, "bias_regularizer": null, "activity_regularizer": null, "kernel_constraint": null, "bias_constraint": null}, "inbound_nodes": [[["506", 0, 0, {}]]]}, {"name": "508", "class_name": "BatchNormalization", "config": {"name": "508", "trainable": true, "dtype": "float32", "axis": [1], "momentum": 0.8999999761581421, "epsilon": 9.999999747378752e-06, "center": true, "scale": true, "beta_initializer": {"class_name": "Zeros", "config": {"dtype": "float32"}}, "gamma_initializer": {"class_name": "Ones", "config": {"dtype": "float32"}}, "moving_mean_initializer": {"class_name": "Zeros", "config": {"dtype": "float32"}}, "moving_variance_initializer": {"class_name": "Ones", "config": {"dtype": "float32"}}, "beta_regularizer": null, "gamma_regularizer": null, "beta_constraint": null, "gamma_constraint": null}, "inbound_nodes": [[["507", 0, 0, {}]]]}, {"name": "509", "class_name": "Add", "config": {"name": "509", "trainable": true, "dtype": "float32"}, "inbound_nodes": [[["508", 0, 0, {}], ["500", 0, 0, {}]]]}, {"name": "510", "class_name": "Activation", "config": {"name": "510", "trainable": true, "dtype": "float32", "activation": "relu"}, "inbound_nodes": [[["509", 0, 0, {}]]]}, {"name": "514_pad", "class_name": "ZeroPadding2D", "config": {"name": "514_pad", "trainable": true, "dtype": "float32", "padding": [[1, 1], [1, 1]], "data_format": "channels_first"}, "inbound_nodes": [[["510", 0, 0, {}]]]}, {"name": "514", "class_name": "Conv2D", "config": {"name": "514", "trainable": true, "dtype": "float32", "filters": 256, "kernel_size": [3, 3], "strides": [1, 1], "padding": "valid", "data_format": "channels_first", "dilation_rate": [1, 1], "activation": "linear", "use_bias": false, "kernel_initializer": {"class_name": "Zeros", "config": {"dtype": "float32"}}, "bias_initializer": {"class_name": "Zeros", "config": {"dtype": "float32"}}, "kernel_regularizer": null, "bias_regularizer": null, "activity_regularizer": null, "kernel_constraint": null, "bias_constraint": null}, "inbound_nodes": [[["514_pad", 0, 0, {}]]]}, {"name": "513_pad", "class_name": "ZeroPadding2D", "config": {"name": "513_pad", "trainable": true, "dtype": "float32", "padding": [[1, 1], [1, 1]], "data_format": "channels_first"}, "inbound_nodes": [[["478", 0, 0, {}]]]}, {"name": "515", "class_name": "Activation", "config": {"name": "515", "trainable": true, "dtype": "float32", "activation": "relu"}, "inbound_nodes": [[["514", 0, 0, {}]]]}, {"name": "513", "class_name": "Conv2D", "config": {"name": "513", "trainable": true, "dtype": "float32", "filters": 256, "kernel_size": [3, 3], "strides": [1, 1], "padding": "valid", "data_format": "channels_first", "dilation_rate": [1, 1], "activation": "linear", "use_bias": false, "kernel_initializer": {"class_name": "Zeros", "config": {"dtype": "float32"}}, "bias_initializer": {"class_name": "Zeros", "config": {"dtype": "float32"}}, "kernel_regularizer": null, "bias_regularizer": null, "activity_regularizer": null, "kernel_constraint": null, "bias_constraint": null}, "inbound_nodes": [[["513_pad", 0, 0, {}]]]}, {"name": "516_pad", "class_name": "ZeroPadding2D", "config": {"name": "516_pad", "trainable": true, "dtype": "float32", "padding": [[1, 1], [1, 1]], "data_format": "channels_first"}, "inbound_nodes": [[["515", 0, 0, {}]]]}, {"name": "547", "class_name": "Activation", "config": {"name": "547", "trainable": true, "dtype": "float32", "activation": "relu"}, "inbound_nodes": [[["513", 0, 0, {}]]]}, {"name": "516", "class_name": "Conv2D", "config": {"name": "516", "trainable": true, "dtype": "float32", "filters": 256, "kernel_size": [3, 3], "strides": [1, 1], "padding": "valid", "data_format": "channels_first", "dilation_rate": [1, 1], "activation": "linear", "use_bias": true, "kernel_initializer": {"class_name": "Zeros", "config": {"dtype": "float32"}}, "bias_initializer": {"class_name": "Zeros", "config": {"dtype": "float32"}}, "kernel_regularizer": null, "bias_regularizer": null, "activity_regularizer": null, "kernel_constraint": null, "bias_constraint": null}, "inbound_nodes": [[["516_pad", 0, 0, {}]]]}, {"name": "548_pad", "class_name": "ZeroPadding2D", "config": {"name": "548_pad", "trainable": true, "dtype": "float32", "padding": [[1, 1], [1, 1]], "data_format": "channels_first"}, "inbound_nodes": [[["547", 0, 0, {}]]]}, {"name": "517", "class_name": "Activation", "config": {"name": "517", "trainable": true, "dtype": "float32", "activation": "relu"}, "inbound_nodes": [[["516", 0, 0, {}]]]}, {"name": "548", "class_name": "Conv2D", "config": {"name": "548", "trainable": true, "dtype": "float32", "filters": 256, "kernel_size": [3, 3], "strides": [1, 1], "padding": "valid", "data_format": "channels_first", "dilation_rate": [1, 1], "activation": "linear", "use_bias": true, "kernel_initializer": {"class_name": "Zeros", "config": {"dtype": "float32"}}, "bias_initializer": {"class_name": "Zeros", "config": {"dtype": "float32"}}, "kernel_regularizer": null, "bias_regularizer": null, "activity_regularizer": null, "kernel_constraint": null, "bias_constraint": null}, "inbound_nodes": [[["548_pad", 0, 0, {}]]]}, {"name": "518_pad", "class_name": "ZeroPadding2D", "config": {"name": "518_pad", "trainable": true, "dtype": "float32", "padding": [[1, 1], [1, 1]], "data_format": "channels_first"}, "inbound_nodes": [[["517", 0, 0, {}]]]}, {"name": "549", "class_name": "Activation", "config": {"name": "549", "trainable": true, "dtype": "float32", "activation": "relu"}, "inbound_nodes": [[["548", 0, 0, {}]]]}, {"name": "518", "class_name": "Conv2D", "config": {"name": "518", "trainable": true, "dtype": "float32", "filters": 256, "kernel_size": [3, 3], "strides": [1, 1], "padding": "valid", "data_format": "channels_first", "dilation_rate": [1, 1], "activation": "linear", "use_bias": false, "kernel_initializer": {"class_name": "Zeros", "config": {"dtype": "float32"}}, "bias_initializer": {"class_name": "Zeros", "config": {"dtype": "float32"}}, "kernel_regularizer": null, "bias_regularizer": null, "activity_regularizer": null, "kernel_constraint": null, "bias_constraint": null}, "inbound_nodes": [[["518_pad", 0, 0, {}]]]}, {"name": "550_pad", "class_name": "ZeroPadding2D", "config": {"name": "550_pad", "trainable": true, "dtype": "float32", "padding": [[1, 1], [1, 1]], "data_format": "channels_first"}, "inbound_nodes": [[["549", 0, 0, {}]]]}, {"name": "519", "class_name": "Add", "config": {"name": "519", "trainable": true, "dtype": "float32"}, "inbound_nodes": [[["518", 0, 0, {}], ["515", 0, 0, {}]]]}, {"name": "550", "class_name": "Conv2D", "config": {"name": "550", "trainable": true, "dtype": "float32", "filters": 256, "kernel_size": [3, 3], "strides": [1, 1], "padding": "valid", "data_format": "channels_first", "dilation_rate": [1, 1], "activation": "linear", "use_bias": false, "kernel_initializer": {"class_name": "Zeros", "config": {"dtype": "float32"}}, "bias_initializer": {"class_name": "Zeros", "config": {"dtype": "float32"}}, "kernel_regularizer": null, "bias_regularizer": null, "activity_regularizer": null, "kernel_constraint": null, "bias_constraint": null}, "inbound_nodes": [[["550_pad", 0, 0, {}]]]}, {"name": "546", "class_name": "UpSampling2D", "config": {"name": "546", "trainable": true, "dtype": "float32", "size": [2, 2], "data_format": "channels_first", "interpolation": "nearest"}, "inbound_nodes": [[["519", 0, 0, {}]]]}, {"name": "551", "class_name": "Add", "config": {"name": "551", "trainable": true, "dtype": "float32"}, "inbound_nodes": [[["550", 0, 0, {}], ["547", 0, 0, {}]]]}, {"name": "552", "class_name": "Add", "config": {"name": "552", "trainable": true, "dtype": "float32"}, "inbound_nodes": [[["546", 0, 0, {}], ["551", 0, 0, {}]]]}, {"name": "512_pad", "class_name": "ZeroPadding2D", "config": {"name": "512_pad", "trainable": true, "dtype": "float32", "padding": [[1, 1], [1, 1]], "data_format": "channels_first"}, "inbound_nodes": [[["416", 0, 0, {}]]]}, {"name": "553", "class_name": "Activation", "config": {"name": "553", "trainable": true, "dtype": "float32", "activation": "relu"}, "inbound_nodes": [[["552", 0, 0, {}]]]}, {"name": "512", "class_name": "Conv2D", "config": {"name": "512", "trainable": true, "dtype": "float32", "filters": 256, "kernel_size": [3, 3], "strides": [1, 1], "padding": "valid", "data_format": "channels_first", "dilation_rate": [1, 1], "activation": "linear", "use_bias": false, "kernel_initializer": {"class_name": "Zeros", "config": {"dtype": "float32"}}, "bias_initializer": {"class_name": "Zeros", "config": {"dtype": "float32"}}, "kernel_regularizer": null, "bias_regularizer": null, "activity_regularizer": null, "kernel_constraint": null, "bias_constraint": null}, "inbound_nodes": [[["512_pad", 0, 0, {}]]]}, {"name": "554_pad", "class_name": "ZeroPadding2D", "config": {"name": "554_pad", "trainable": true, "dtype": "float32", "padding": [[1, 1], [1, 1]], "data_format": "channels_first"}, "inbound_nodes": [[["553", 0, 0, {}]]]}, {"name": "585", "class_name": "Activation", "config": {"name": "585", "trainable": true, "dtype": "float32", "activation": "relu"}, "inbound_nodes": [[["512", 0, 0, {}]]]}, {"name": "554", "class_name": "Conv2D", "config": {"name": "554", "trainable": true, "dtype": "float32", "filters": 256, "kernel_size": [3, 3], "strides": [1, 1], "padding": "valid", "data_format": "channels_first", "dilation_rate": [1, 1], "activation": "linear", "use_bias": true, "kernel_initializer": {"class_name": "Zeros", "config": {"dtype": "float32"}}, "bias_initializer": {"class_name": "Zeros", "config": {"dtype": "float32"}}, "kernel_regularizer": null, "bias_regularizer": null, "activity_regularizer": null, "kernel_constraint": null, "bias_constraint": null}, "inbound_nodes": [[["554_pad", 0, 0, {}]]]}, {"name": "586_pad", "class_name": "ZeroPadding2D", "config": {"name": "586_pad", "trainable": true, "dtype": "float32", "padding": [[1, 1], [1, 1]], "data_format": "channels_first"}, "inbound_nodes": [[["585", 0, 0, {}]]]}, {"name": "555", "class_name": "Activation", "config": {"name": "555", "trainable": true, "dtype": "float32", "activation": "relu"}, "inbound_nodes": [[["554", 0, 0, {}]]]}, {"name": "586", "class_name": "Conv2D", "config": {"name": "586", "trainable": true, "dtype": "float32", "filters": 256, "kernel_size": [3, 3], "strides": [1, 1], "padding": "valid", "data_format": "channels_first", "dilation_rate": [1, 1], "activation": "linear", "use_bias": true, "kernel_initializer": {"class_name": "Zeros", "config": {"dtype": "float32"}}, "bias_initializer": {"class_name": "Zeros", "config": {"dtype": "float32"}}, "kernel_regularizer": null, "bias_regularizer": null, "activity_regularizer": null, "kernel_constraint": null, "bias_constraint": null}, "inbound_nodes": [[["586_pad", 0, 0, {}]]]}, {"name": "556_pad", "class_name": "ZeroPadding2D", "config": {"name": "556_pad", "trainable": true, "dtype": "float32", "padding": [[1, 1], [1, 1]], "data_format": "channels_first"}, "inbound_nodes": [[["555", 0, 0, {}]]]}, {"name": "587", "class_name": "Activation", "config": {"name": "587", "trainable": true, "dtype": "float32", "activation": "relu"}, "inbound_nodes": [[["586", 0, 0, {}]]]}, {"name": "556", "class_name": "Conv2D", "config": {"name": "556", "trainable": true, "dtype": "float32", "filters": 256, "kernel_size": [3, 3], "strides": [1, 1], "padding": "valid", "data_format": "channels_first", "dilation_rate": [1, 1], "activation": "linear", "use_bias": false, "kernel_initializer": {"class_name": "Zeros", "config": {"dtype": "float32"}}, "bias_initializer": {"class_name": "Zeros", "config": {"dtype": "float32"}}, "kernel_regularizer": null, "bias_regularizer": null, "activity_regularizer": null, "kernel_constraint": null, "bias_constraint": null}, "inbound_nodes": [[["556_pad", 0, 0, {}]]]}, {"name": "588_pad", "class_name": "ZeroPadding2D", "config": {"name": "588_pad", "trainable": true, "dtype": "float32", "padding": [[1, 1], [1, 1]], "data_format": "channels_first"}, "inbound_nodes": [[["587", 0, 0, {}]]]}, {"name": "557", "class_name": "Add", "config": {"name": "557", "trainable": true, "dtype": "float32"}, "inbound_nodes": [[["556", 0, 0, {}], ["553", 0, 0, {}]]]}, {"name": "588", "class_name": "Conv2D", "config": {"name": "588", "trainable": true, "dtype": "float32", "filters": 256, "kernel_size": [3, 3], "strides": [1, 1], "padding": "valid", "data_format": "channels_first", "dilation_rate": [1, 1], "activation": "linear", "use_bias": false, "kernel_initializer": {"class_name": "Zeros", "config": {"dtype": "float32"}}, "bias_initializer": {"class_name": "Zeros", "config": {"dtype": "float32"}}, "kernel_regularizer": null, "bias_regularizer": null, "activity_regularizer": null, "kernel_constraint": null, "bias_constraint": null}, "inbound_nodes": [[["588_pad", 0, 0, {}]]]}, {"name": "584", "class_name": "UpSampling2D", "config": {"name": "584", "trainable": true, "dtype": "float32", "size": [2, 2], "data_format": "channels_first", "interpolation": "nearest"}, "inbound_nodes": [[["557", 0, 0, {}]]]}, {"name": "589", "class_name": "Add", "config": {"name": "589", "trainable": true, "dtype": "float32"}, "inbound_nodes": [[["588", 0, 0, {}], ["585", 0, 0, {}]]]}, {"name": "590", "class_name": "Add", "config": {"name": "590", "trainable": true, "dtype": "float32"}, "inbound_nodes": [[["584", 0, 0, {}], ["589", 0, 0, {}]]]}, {"name": "511_pad", "class_name": "ZeroPadding2D", "config": {"name": "511_pad", "trainable": true, "dtype": "float32", "padding": [[1, 1], [1, 1]], "data_format": "channels_first"}, "inbound_nodes": [[["374", 0, 0, {}]]]}, {"name": "591", "class_name": "Activation", "config": {"name": "591", "trainable": true, "dtype": "float32", "activation": "relu"}, "inbound_nodes": [[["590", 0, 0, {}]]]}, {"name": "511", "class_name": "Conv2D", "config": {"name": "511", "trainable": true, "dtype": "float32", "filters": 256, "kernel_size": [3, 3], "strides": [1, 1], "padding": "valid", "data_format": "channels_first", "dilation_rate": [1, 1], "activation": "linear", "use_bias": false, "kernel_initializer": {"class_name": "Zeros", "config": {"dtype": "float32"}}, "bias_initializer": {"class_name": "Zeros", "config": {"dtype": "float32"}}, "kernel_regularizer": null, "bias_regularizer": null, "activity_regularizer": null, "kernel_constraint": null, "bias_constraint": null}, "inbound_nodes": [[["511_pad", 0, 0, {}]]]}, {"name": "592_pad", "class_name": "ZeroPadding2D", "config": {"name": "592_pad", "trainable": true, "dtype": "float32", "padding": [[1, 1], [1, 1]], "data_format": "channels_first"}, "inbound_nodes": [[["591", 0, 0, {}]]]}, {"name": "623", "class_name": "Activation", "config": {"name": "623", "trainable": true, "dtype": "float32", "activation": "relu"}, "inbound_nodes": [[["511", 0, 0, {}]]]}, {"name": "592", "class_name": "Conv2D", "config": {"name": "592", "trainable": true, "dtype": "float32", "filters": 256, "kernel_size": [3, 3], "strides": [1, 1], "padding": "valid", "data_format": "channels_first", "dilation_rate": [1, 1], "activation": "linear", "use_bias": true, "kernel_initializer": {"class_name": "Zeros", "config": {"dtype": "float32"}}, "bias_initializer": {"class_name": "Zeros", "config": {"dtype": "float32"}}, "kernel_regularizer": null, "bias_regularizer": null, "activity_regularizer": null, "kernel_constraint": null, "bias_constraint": null}, "inbound_nodes": [[["592_pad", 0, 0, {}]]]}, {"name": "624_pad", "class_name": "ZeroPadding2D", "config": {"name": "624_pad", "trainable": true, "dtype": "float32", "padding": [[1, 1], [1, 1]], "data_format": "channels_first"}, "inbound_nodes": [[["623", 0, 0, {}]]]}, {"name": "593", "class_name": "Activation", "config": {"name": "593", "trainable": true, "dtype": "float32", "activation": "relu"}, "inbound_nodes": [[["592", 0, 0, {}]]]}, {"name": "624", "class_name": "Conv2D", "config": {"name": "624", "trainable": true, "dtype": "float32", "filters": 256, "kernel_size": [3, 3], "strides": [1, 1], "padding": "valid", "data_format": "channels_first", "dilation_rate": [1, 1], "activation": "linear", "use_bias": true, "kernel_initializer": {"class_name": "Zeros", "config": {"dtype": "float32"}}, "bias_initializer": {"class_name": "Zeros", "config": {"dtype": "float32"}}, "kernel_regularizer": null, "bias_regularizer": null, "activity_regularizer": null, "kernel_constraint": null, "bias_constraint": null}, "inbound_nodes": [[["624_pad", 0, 0, {}]]]}, {"name": "594_pad", "class_name": "ZeroPadding2D", "config": {"name": "594_pad", "trainable": true, "dtype": "float32", "padding": [[1, 1], [1, 1]], "data_format": "channels_first"}, "inbound_nodes": [[["593", 0, 0, {}]]]}, {"name": "625", "class_name": "Activation", "config": {"name": "625", "trainable": true, "dtype": "float32", "activation": "relu"}, "inbound_nodes": [[["624", 0, 0, {}]]]}, {"name": "594", "class_name": "Conv2D", "config": {"name": "594", "trainable": true, "dtype": "float32", "filters": 256, "kernel_size": [3, 3], "strides": [1, 1], "padding": "valid", "data_format": "channels_first", "dilation_rate": [1, 1], "activation": "linear", "use_bias": false, "kernel_initializer": {"class_name": "Zeros", "config": {"dtype": "float32"}}, "bias_initializer": {"class_name": "Zeros", "config": {"dtype": "float32"}}, "kernel_regularizer": null, "bias_regularizer": null, "activity_regularizer": null, "kernel_constraint": null, "bias_constraint": null}, "inbound_nodes": [[["594_pad", 0, 0, {}]]]}, {"name": "626_pad", "class_name": "ZeroPadding2D", "config": {"name": "626_pad", "trainable": true, "dtype": "float32", "padding": [[1, 1], [1, 1]], "data_format": "channels_first"}, "inbound_nodes": [[["625", 0, 0, {}]]]}, {"name": "595", "class_name": "Add", "config": {"name": "595", "trainable": true, "dtype": "float32"}, "inbound_nodes": [[["594", 0, 0, {}], ["591", 0, 0, {}]]]}, {"name": "626", "class_name": "Conv2D", "config": {"name": "626", "trainable": true, "dtype": "float32", "filters": 256, "kernel_size": [3, 3], "strides": [1, 1], "padding": "valid", "data_format": "channels_first", "dilation_rate": [1, 1], "activation": "linear", "use_bias": false, "kernel_initializer": {"class_name": "Zeros", "config": {"dtype": "float32"}}, "bias_initializer": {"class_name": "Zeros", "config": {"dtype": "float32"}}, "kernel_regularizer": null, "bias_regularizer": null, "activity_regularizer": null, "kernel_constraint": null, "bias_constraint": null}, "inbound_nodes": [[["626_pad", 0, 0, {}]]]}, {"name": "622", "class_name": "UpSampling2D", "config": {"name": "622", "trainable": true, "dtype": "float32", "size": [2, 2], "data_format": "channels_first", "interpolation": "nearest"}, "inbound_nodes": [[["595", 0, 0, {}]]]}, {"name": "627", "class_name": "Add", "config": {"name": "627", "trainable": true, "dtype": "float32"}, "inbound_nodes": [[["626", 0, 0, {}], ["623", 0, 0, {}]]]}, {"name": "628", "class_name": "Add", "config": {"name": "628", "trainable": true, "dtype": "float32"}, "inbound_nodes": [[["622", 0, 0, {}], ["627", 0, 0, {}]]]}, {"name": "629", "class_name": "Activation", "config": {"name": "629", "trainable": true, "dtype": "float32", "activation": "relu"}, "inbound_nodes": [[["628", 0, 0, {}]]]}, {"name": "630_pad", "class_name": "ZeroPadding2D", "config": {"name": "630_pad", "trainable": true, "dtype": "float32", "padding": [[1, 1], [1, 1]], "data_format": "channels_first"}, "inbound_nodes": [[["629", 0, 0, {}]]]}, {"name": "630", "class_name": "Conv2D", "config": {"name": "630", "trainable": true, "dtype": "float32", "filters": 256, "kernel_size": [3, 3], "strides": [1, 1], "padding": "valid", "data_format": "channels_first", "dilation_rate": [1, 1], "activation": "linear", "use_bias": true, "kernel_initializer": {"class_name": "Zeros", "config": {"dtype": "float32"}}, "bias_initializer": {"class_name": "Zeros", "config": {"dtype": "float32"}}, "kernel_regularizer": null, "bias_regularizer": null, "activity_regularizer": null, "kernel_constraint": null, "bias_constraint": null}, "inbound_nodes": [[["630_pad", 0, 0, {}]]]}, {"name": "631", "class_name": "Activation", "config": {"name": "631", "trainable": true, "dtype": "float32", "activation": "relu"}, "inbound_nodes": [[["630", 0, 0, {}]]]}, {"name": "632_pad", "class_name": "ZeroPadding2D", "config": {"name": "632_pad", "trainable": true, "dtype": "float32", "padding": [[1, 1], [1, 1]], "data_format": "channels_first"}, "inbound_nodes": [[["631", 0, 0, {}]]]}, {"name": "632", "class_name": "Conv2D", "config": {"name": "632", "trainable": true, "dtype": "float32", "filters": 256, "kernel_size": [3, 3], "strides": [1, 1], "padding": "valid", "data_format": "channels_first", "dilation_rate": [1, 1], "activation": "linear", "use_bias": false, "kernel_initializer": {"class_name": "Zeros", "config": {"dtype": "float32"}}, "bias_initializer": {"class_name": "Zeros", "config": {"dtype": "float32"}}, "kernel_regularizer": null, "bias_regularizer": null, "activity_regularizer": null, "kernel_constraint": null, "bias_constraint": null}, "inbound_nodes": [[["632_pad", 0, 0, {}]]]}, {"name": "633", "class_name": "Add", "config": {"name": "633", "trainable": true, "dtype": "float32"}, "inbound_nodes": [[["632", 0, 0, {}], ["629", 0, 0, {}]]]}, {"name": "660", "class_name": "UpSampling2D", "config": {"name": "660", "trainable": true, "dtype": "float32", "size": [2, 2], "data_format": "channels_first", "interpolation": "nearest"}, "inbound_nodes": [[["633", 0, 0, {}]]]}, {"name": "661_pad", "class_name": "ZeroPadding2D", "config": {"name": "661_pad", "trainable": true, "dtype": "float32", "padding": [[1, 1], [1, 1]], "data_format": "channels_first"}, "inbound_nodes": [[["660", 0, 0, {}]]]}, {"name": "661", "class_name": "Conv2D", "config": {"name": "661", "trainable": true, "dtype": "float32", "filters": 128, "kernel_size": [3, 3], "strides": [1, 1], "padding": "valid", "data_format": "channels_first", "dilation_rate": [1, 1], "activation": "linear", "use_bias": true, "kernel_initializer": {"class_name": "Zeros", "config": {"dtype": "float32"}}, "bias_initializer": {"class_name": "Zeros", "config": {"dtype": "float32"}}, "kernel_regularizer": null, "bias_regularizer": null, "activity_regularizer": null, "kernel_constraint": null, "bias_constraint": null}, "inbound_nodes": [[["661_pad", 0, 0, {}]]]}, {"name": "662_pad", "class_name": "ZeroPadding2D", "config": {"name": "662_pad", "trainable": true, "dtype": "float32", "padding": [[1, 1], [1, 1]], "data_format": "channels_first"}, "inbound_nodes": [[["661", 0, 0, {}]]]}, {"name": "662", "class_name": "Conv2D", "config": {"name": "662", "trainable": true, "dtype": "float32", "filters": 1, "kernel_size": [3, 3], "strides": [1, 1], "padding": "valid", "data_format": "channels_first", "dilation_rate": [1, 1], "activation": "linear", "use_bias": true, "kernel_initializer": {"class_name": "Zeros", "config": {"dtype": "float32"}}, "bias_initializer": {"class_name": "Zeros", "config": {"dtype": "float32"}}, "kernel_regularizer": null, "bias_regularizer": null, "activity_regularizer": null, "kernel_constraint": null, "bias_constraint": null}, "inbound_nodes": [[["662_pad", 0, 0, {}]]]}, {"name": "output_0", "class_name": "UpSampling2D", "config": {"name": "output_0", "trainable": true, "dtype": "float32", "size": [2, 2], "data_format": "channels_first", "interpolation": "nearest"}, "inbound_nodes": [[["662", 0, 0, {}]]]}], "input_layers": [["input_0", 0, 0]], "output_layers": [["output_0", 0, 0]]}}}, "weightsManifest": [{"paths": ["group1-shard1of10.bin", "group1-shard2of10.bin", "group1-shard3of10.bin", "group1-shard4of10.bin", "group1-shard5of10.bin", "group1-shard6of10.bin", "group1-shard7of10.bin", "group1-shard8of10.bin", "group1-shard9of10.bin", "group1-shard10of10.bin"], "weights": [{"name": "339/kernel", "shape": [7, 7, 3, 64], "dtype": "float32", "quantization": {"min": -0.775120361178529, "scale": 0.006103309930539599, "dtype": "uint8"}}, {"name": "340/gamma", "shape": [64], "dtype": "float32", "quantization": {"min": 1.1245618658506373e-08, "scale": 0.002154754379527201, "dtype": "uint8"}}, {"name": "340/beta", "shape": [64], "dtype": "float32", "quantization": {"min": -0.47617487171117, "scale": 0.005350279457428876, "dtype": "uint8"}}, {"name": "340/moving_mean", "shape": [64], "dtype": "float32", "quantization": {"min": -1.115437863854801, "scale": 0.008646805146161248, "dtype": "uint8"}}, {"name": "340/moving_variance", "shape": [64], "dtype": "float32", "quantization": {"min": 1.1843825887484366e-13, "scale": 0.0030168290231737467, "dtype": "uint8"}}, {"name": "343/kernel", "shape": [1, 1, 64, 64], "dtype": "float32", "quantization": {"min": -0.7400304101261438, "scale": 0.004431319821114633, "dtype": "uint8"}}, {"name": "344/gamma", "shape": [64], "dtype": "float32", "quantization": {"min": 1.1805310506929345e-08, "scale": 0.0014585764506143111, "dtype": "uint8"}}, {"name": "344/beta", "shape": [64], "dtype": "float32", "quantization": {"min": -0.26977892798535963, "scale": 0.0031009072182225247, "dtype": "uint8"}}, {"name": "344/moving_mean", "shape": [64], "dtype": "float32", "quantization": {"min": -0.7570229291915894, "scale": 0.008140031496683757, "dtype": "uint8"}}, {"name": "344/moving_variance", "shape": [64], "dtype": "float32", "quantization": {"min": 5.653655343533612e-16, "scale": 0.0007935712150498911, "dtype": "uint8"}}, {"name": "346/kernel", "shape": [3, 3, 64, 64], "dtype": "float32", "quantization": {"min": -0.4713764620762245, "scale": 0.0035982936036353017, "dtype": "uint8"}}, {"name": "347/gamma", "shape": [64], "dtype": "float32", "quantization": {"min": 9.563942526824576e-09, "scale": 0.0010672300094585023, "dtype": "uint8"}}, {"name": "347/beta", "shape": [64], "dtype": "float32", "quantization": {"min": -0.22883258812567767, "scale": 0.003092332271968617, "dtype": "uint8"}}, {"name": "347/moving_mean", "shape": [64], "dtype": "float32", "quantization": {"min": -0.6152443231320849, "scale": 0.00439460230808632, "dtype": "uint8"}}, {"name": "347/moving_variance", "shape": [64], "dtype": "float32", "quantization": {"min": 6.814642640874495e-16, "scale": 0.0005027711391448948, "dtype": "uint8"}}, {"name": "349/kernel", "shape": [1, 1, 64, 256], "dtype": "float32", "quantization": {"min": -0.36177534461021427, "scale": 0.0030401289463043214, "dtype": "uint8"}}, {"name": "350/gamma", "shape": [256], "dtype": "float32", "quantization": {"min": -0.10691010878950942, "scale": 0.0019438201598092621, "dtype": "uint8"}}, {"name": "350/beta", "shape": [256], "dtype": "float32", "quantization": {"min": -0.29774687921299653, "scale": 0.0020968090085422292, "dtype": "uint8"}}, {"name": "350/moving_mean", "shape": [256], "dtype": "float32", "quantization": {"min": -0.2349777530221378, "scale": 0.00191038823595234, "dtype": "uint8"}}, {"name": "350/moving_variance", "shape": [256], "dtype": "float32", "quantization": {"min": 9.247725300104686e-15, "scale": 0.00010870399282255474, "dtype": "uint8"}}, {"name": "351/kernel", "shape": [1, 1, 64, 256], "dtype": "float32", "quantization": {"min": -0.7606615599463967, "scale": 0.0069151050904217885, "dtype": "uint8"}}, {"name": "352/gamma", "shape": [256], "dtype": "float32", "quantization": {"min": -0.04518026136884502, "scale": 0.0019643591899497835, "dtype": "uint8"}}, {"name": "352/beta", "shape": [256], "dtype": "float32", "quantization": {"min": -0.29774687921299653, "scale": 0.0020968090085422292, "dtype": "uint8"}}, {"name": "352/moving_mean", "shape": [256], "dtype": "float32", "quantization": {"min": -1.1213624304416134, "scale": 0.011102598321204093, "dtype": "uint8"}}, {"name": "352/moving_variance", "shape": [256], "dtype": "float32", "quantization": {"min": 4.245450087943421e-14, "scale": 0.0011519183130823602, "dtype": "uint8"}}, {"name": "355/kernel", "shape": [1, 1, 256, 64], "dtype": "float32", "quantization": {"min": -0.20895395652920593, "scale": 0.0018656603261536244, "dtype": "uint8"}}, {"name": "356/gamma", "shape": [64], "dtype": "float32", "quantization": {"min": 1.2985340580584648e-09, "scale": 0.0013147146043156208, "dtype": "uint8"}}, {"name": "356/beta", "shape": [64], "dtype": "float32", "quantization": {"min": -0.4170686883084914, "scale": 0.0033365495064679312, "dtype": "uint8"}}, {"name": "356/moving_mean", "shape": [64], "dtype": "float32", "quantization": {"min": -0.32018768764009664, "scale": 0.003406251996171241, "dtype": "uint8"}}, {"name": "356/moving_variance", "shape": [64], "dtype": "float32", "quantization": {"min": 5.804977779560593e-16, "scale": 0.00035842210054397354, "dtype": "uint8"}}, {"name": "358/kernel", "shape": [3, 3, 64, 64], "dtype": "float32", "quantization": {"min": -0.40138543353361245, "scale": 0.003648958486669204, "dtype": "uint8"}}, {"name": "359/gamma", "shape": [64], "dtype": "float32", "quantization": {"min": 0.11873217672109604, "scale": 0.0007346491311110702, "dtype": "uint8"}}, {"name": "359/beta", "shape": [64], "dtype": "float32", "quantization": {"min": -0.33826584956225225, "scale": 0.0026222158880794748, "dtype": "uint8"}}, {"name": "359/moving_mean", "shape": [64], "dtype": "float32", "quantization": {"min": -0.37911145891629017, "scale": 0.0019541827779190214, "dtype": "uint8"}}, {"name": "359/moving_variance", "shape": [64], "dtype": "float32", "quantization": {"min": 0.00612438702955842, "scale": 9.588656727881993e-05, "dtype": "uint8"}}, {"name": "361/kernel", "shape": [1, 1, 64, 256], "dtype": "float32", "quantization": {"min": -0.3072389195947086, "scale": 0.0023100670646218693, "dtype": "uint8"}}, {"name": "362/gamma", "shape": [256], "dtype": "float32", "quantization": {"min": -0.12198301553726197, "scale": 0.0015638848145802817, "dtype": "uint8"}}, {"name": "362/beta", "shape": [256], "dtype": "float32", "quantization": {"min": -0.14530794059529023, "scale": 0.001210899504960752, "dtype": "uint8"}}, {"name": "362/moving_mean", "shape": [256], "dtype": "float32", "quantization": {"min": -0.10711846748987834, "scale": 0.0009001551889905743, "dtype": "uint8"}}, {"name": "362/moving_variance", "shape": [256], "dtype": "float32", "quantization": {"min": 8.315588411540904e-15, "scale": 2.2307807104812063e-05, "dtype": "uint8"}}, {"name": "365/kernel", "shape": [1, 1, 256, 64], "dtype": "float32", "quantization": {"min": -0.19953211499195472, "scale": 0.0014252293927996765, "dtype": "uint8"}}, {"name": "366/gamma", "shape": [64], "dtype": "float32", "quantization": {"min": 0.09810756146907806, "scale": 0.0006272845992854997, "dtype": "uint8"}}, {"name": "366/beta", "shape": [64], "dtype": "float32", "quantization": {"min": -0.1913095142327103, "scale": 0.0014276829420351515, "dtype": "uint8"}}, {"name": "366/moving_mean", "shape": [64], "dtype": "float32", "quantization": {"min": -0.5619504942613489, "scale": 0.0034688302114898083, "dtype": "uint8"}}, {"name": "366/moving_variance", "shape": [64], "dtype": "float32", "quantization": {"min": 0.005841480568051338, "scale": 0.00016796909564850378, "dtype": "uint8"}}, {"name": "368/kernel", "shape": [3, 3, 64, 64], "dtype": "float32", "quantization": {"min": -0.2210109841589834, "scale": 0.0020091907650816674, "dtype": "uint8"}}, {"name": "369/gamma", "shape": [64], "dtype": "float32", "quantization": {"min": 0.12421078234910965, "scale": 0.0007394567131996155, "dtype": "uint8"}}, {"name": "369/beta", "shape": [64], "dtype": "float32", "quantization": {"min": -0.34591126208211864, "scale": 0.00247079472915799, "dtype": "uint8"}}, {"name": "369/moving_mean", "shape": [64], "dtype": "float32", "quantization": {"min": -0.17964841957185781, "scale": 0.001744159413319008, "dtype": "uint8"}}, {"name": "369/moving_variance", "shape": [64], "dtype": "float32", "quantization": {"min": 0.00431814044713974, "scale": 0.00010121498329966676, "dtype": "uint8"}}, {"name": "371/kernel", "shape": [1, 1, 64, 256], "dtype": "float32", "quantization": {"min": -0.21906497671323663, "scale": 0.0019735583487678976, "dtype": "uint8"}}, {"name": "372/gamma", "shape": [256], "dtype": "float32", "quantization": {"min": -0.10020147684742423, "scale": 0.0018555829045819301, "dtype": "uint8"}}, {"name": "372/beta", "shape": [256], "dtype": "float32", "quantization": {"min": -0.16729932497529423, "scale": 0.001467537938379774, "dtype": "uint8"}}, {"name": "372/moving_mean", "shape": [256], "dtype": "float32", "quantization": {"min": -0.12186844126850951, "scale": 0.0007431002516372531, "dtype": "uint8"}}, {"name": "372/moving_variance", "shape": [256], "dtype": "float32", "quantization": {"min": 4.4794778659706935e-05, "scale": 2.1616546519890464e-05, "dtype": "uint8"}}, {"name": "375/kernel", "shape": [1, 1, 256, 128], "dtype": "float32", "quantization": {"min": -0.3019091059179867, "scale": 0.002580419708700741, "dtype": "uint8"}}, {"name": "376/gamma", "shape": [128], "dtype": "float32", "quantization": {"min": 0.11435511708259583, "scale": 0.0008531596146377862, "dtype": "uint8"}}, {"name": "376/beta", "shape": [128], "dtype": "float32", "quantization": {"min": -0.2891944703225996, "scale": 0.0016156115660480425, "dtype": "uint8"}}, {"name": "376/moving_mean", "shape": [128], "dtype": "float32", "quantization": {"min": -0.4226445660871618, "scale": 0.0031540639260235954, "dtype": "uint8"}}, {"name": "376/moving_variance", "shape": [128], "dtype": "float32", "quantization": {"min": 0.004516274202615023, "scale": 0.0007070119456187183, "dtype": "uint8"}}, {"name": "378/kernel", "shape": [3, 3, 128, 128], "dtype": "float32", "quantization": {"min": -0.310422367383452, "scale": 0.0018153354817745733, "dtype": "uint8"}}, {"name": "379/gamma", "shape": [128], "dtype": "float32", "quantization": {"min": 0.1453157365322113, "scale": 0.0005433665771110385, "dtype": "uint8"}}, {"name": "379/beta", "shape": [128], "dtype": "float32", "quantization": {"min": -0.32203656785628376, "scale": 0.002350631882162655, "dtype": "uint8"}}, {"name": "379/moving_mean", "shape": [128], "dtype": "float32", "quantization": {"min": -0.2831270529943354, "scale": 0.0029188355978797464, "dtype": "uint8"}}, {"name": "379/moving_variance", "shape": [128], "dtype": "float32", "quantization": {"min": 0.011620799079537392, "scale": 0.00024600156820287893, "dtype": "uint8"}}, {"name": "381/kernel", "shape": [1, 1, 128, 512], "dtype": "float32", "quantization": {"min": -0.3528907676537832, "scale": 0.002965468635746077, "dtype": "uint8"}}, {"name": "382/gamma", "shape": [512], "dtype": "float32", "quantization": {"min": -0.037342764305717806, "scale": 0.001383065344656215, "dtype": "uint8"}}, {"name": "382/beta", "shape": [512], "dtype": "float32", "quantization": {"min": -0.16238426478470072, "scale": 0.0014370288919000065, "dtype": "uint8"}}, {"name": "382/moving_mean", "shape": [512], "dtype": "float32", "quantization": {"min": -0.3166467862970689, "scale": 0.0020297870916478776, "dtype": "uint8"}}, {"name": "382/moving_variance", "shape": [512], "dtype": "float32", "quantization": {"min": 5.988342942586612e-16, "scale": 5.6468045302463504e-05, "dtype": "uint8"}}, {"name": "383/kernel", "shape": [1, 1, 256, 512], "dtype": "float32", "quantization": {"min": -0.34073544109568876, "scale": 0.0037036460988661823, "dtype": "uint8"}}, {"name": "384/gamma", "shape": [512], "dtype": "float32", "quantization": {"min": -0.022309544594848855, "scale": 0.0015935388996320611, "dtype": "uint8"}}, {"name": "384/beta", "shape": [512], "dtype": "float32", "quantization": {"min": -0.16238426478470072, "scale": 0.0014370288919000065, "dtype": "uint8"}}, {"name": "384/moving_mean", "shape": [512], "dtype": "float32", "quantization": {"min": -0.468403649447011, "scale": 0.0032755499961329444, "dtype": "uint8"}}, {"name": "384/moving_variance", "shape": [512], "dtype": "float32", "quantization": {"min": 1.5563969943166488e-15, "scale": 0.00045393462858947444, "dtype": "uint8"}}, {"name": "387/kernel", "shape": [1, 1, 512, 128], "dtype": "float32", "quantization": {"min": -0.1821475075156081, "scale": 0.0017023131543514776, "dtype": "uint8"}}, {"name": "388/gamma", "shape": [128], "dtype": "float32", "quantization": {"min": 0.02819623425602913, "scale": 0.0007082470345730875, "dtype": "uint8"}}, {"name": "388/beta", "shape": [128], "dtype": "float32", "quantization": {"min": -0.19566567738850912, "scale": 0.0023019491457471663, "dtype": "uint8"}}, {"name": "388/moving_mean", "shape": [128], "dtype": "float32", "quantization": {"min": -0.3559458564309513, "scale": 0.002780827003366807, "dtype": "uint8"}}, {"name": "388/moving_variance", "shape": [128], "dtype": "float32", "quantization": {"min": 0.003552159760147333, "scale": 0.0016140696227404418, "dtype": "uint8"}}, {"name": "390/kernel", "shape": [3, 3, 128, 128], "dtype": "float32", "quantization": {"min": -0.2430741871104521, "scale": 0.0021322297114951937, "dtype": "uint8"}}, {"name": "391/gamma", "shape": [128], "dtype": "float32", "quantization": {"min": 0.07448842376470566, "scale": 0.0007638045677951738, "dtype": "uint8"}}, {"name": "391/beta", "shape": [128], "dtype": "float32", "quantization": {"min": -0.19925917597378, "scale": 0.0016604931331148335, "dtype": "uint8"}}, {"name": "391/moving_mean", "shape": [128], "dtype": "float32", "quantization": {"min": -0.6694819310132195, "scale": 0.004714661486008588, "dtype": "uint8"}}, {"name": "391/moving_variance", "shape": [128], "dtype": "float32", "quantization": {"min": 0.002803376642987132, "scale": 0.0003272503367899095, "dtype": "uint8"}}, {"name": "393/kernel", "shape": [1, 1, 128, 512], "dtype": "float32", "quantization": {"min": -0.2863649429059496, "scale": 0.0023093947008544324, "dtype": "uint8"}}, {"name": "394/gamma", "shape": [512], "dtype": "float32", "quantization": {"min": -0.0734909754465608, "scale": 0.0018843839858092514, "dtype": "uint8"}}, {"name": "394/beta", "shape": [512], "dtype": "float32", "quantization": {"min": -0.23720451026570563, "scale": 0.0014733199395385442, "dtype": "uint8"}}, {"name": "394/moving_mean", "shape": [512], "dtype": "float32", "quantization": {"min": -0.20498454594144633, "scale": 0.0013575135492811016, "dtype": "uint8"}}, {"name": "394/moving_variance", "shape": [512], "dtype": "float32", "quantization": {"min": 5.800281587496625e-13, "scale": 6.120771753794276e-05, "dtype": "uint8"}}, {"name": "397/kernel", "shape": [1, 1, 512, 128], "dtype": "float32", "quantization": {"min": -0.24909896961614197, "scale": 0.0017920789181017408, "dtype": "uint8"}}, {"name": "398/gamma", "shape": [128], "dtype": "float32", "quantization": {"min": 0.10642103850841522, "scale": 0.000485149201224832, "dtype": "uint8"}}, {"name": "398/beta", "shape": [128], "dtype": "float32", "quantization": {"min": -0.21186494798052546, "scale": 0.00184230389548283, "dtype": "uint8"}}, {"name": "398/moving_mean", "shape": [128], "dtype": "float32", "quantization": {"min": -0.31338582412869326, "scale": 0.0025687362633499446, "dtype": "uint8"}}, {"name": "398/moving_variance", "shape": [128], "dtype": "float32", "quantization": {"min": 0.009730606339871883, "scale": 0.0004942513016216896, "dtype": "uint8"}}, {"name": "400/kernel", "shape": [3, 3, 128, 128], "dtype": "float32", "quantization": {"min": -0.21085474935232423, "scale": 0.0018177133564855538, "dtype": "uint8"}}, {"name": "401/gamma", "shape": [128], "dtype": "float32", "quantization": {"min": 0.11035594344139099, "scale": 0.0005368417968936995, "dtype": "uint8"}}, {"name": "401/beta", "shape": [128], "dtype": "float32", "quantization": {"min": -0.16895483404982325, "scale": 0.0017784719373665605, "dtype": "uint8"}}, {"name": "401/moving_mean", "shape": [128], "dtype": "float32", "quantization": {"min": -0.34187308947245276, "scale": 0.0024419506390889485, "dtype": "uint8"}}, {"name": "401/moving_variance", "shape": [128], "dtype": "float32", "quantization": {"min": 0.008764282800257206, "scale": 0.00018387740368352217, "dtype": "uint8"}}, {"name": "403/kernel", "shape": [1, 1, 128, 512], "dtype": "float32", "quantization": {"min": -0.2795256158884834, "scale": 0.002518248791788139, "dtype": "uint8"}}, {"name": "404/gamma", "shape": [512], "dtype": "float32", "quantization": {"min": -0.0672943337875254, "scale": 0.0016022460425601287, "dtype": "uint8"}}, {"name": "404/beta", "shape": [512], "dtype": "float32", "quantization": {"min": -0.2701133870611004, "scale": 0.0016174454315035951, "dtype": "uint8"}}, {"name": "404/moving_mean", "shape": [512], "dtype": "float32", "quantization": {"min": -0.09502337855451247, "scale": 0.0008191670565044179, "dtype": "uint8"}}, {"name": "404/moving_variance", "shape": [512], "dtype": "float32", "quantization": {"min": 0.00016457661695312709, "scale": 3.8706442608278904e-05, "dtype": "uint8"}}, {"name": "407/kernel", "shape": [1, 1, 512, 128], "dtype": "float32", "quantization": {"min": -0.19179301372930113, "scale": 0.0018620680944592344, "dtype": "uint8"}}, {"name": "408/gamma", "shape": [128], "dtype": "float32", "quantization": {"min": 0.11377868056297302, "scale": 0.0005113750696182251, "dtype": "uint8"}}, {"name": "408/beta", "shape": [128], "dtype": "float32", "quantization": {"min": -0.22297219657430462, "scale": 0.0012963499800831663, "dtype": "uint8"}}, {"name": "408/moving_mean", "shape": [128], "dtype": "float32", "quantization": {"min": -0.269005283538033, "scale": 0.0016605264415927962, "dtype": "uint8"}}, {"name": "408/moving_variance", "shape": [128], "dtype": "float32", "quantization": {"min": 0.012690961360931396, "scale": 0.00012824330844131172, "dtype": "uint8"}}, {"name": "410/kernel", "shape": [3, 3, 128, 128], "dtype": "float32", "quantization": {"min": -0.177590468175271, "scale": 0.001599914127705144, "dtype": "uint8"}}, {"name": "411/gamma", "shape": [128], "dtype": "float32", "quantization": {"min": 0.12376474589109421, "scale": 0.0005223152976410062, "dtype": "uint8"}}, {"name": "411/beta", "shape": [128], "dtype": "float32", "quantization": {"min": -0.21764925852710124, "scale": 0.0019967821883220297, "dtype": "uint8"}}, {"name": "411/moving_mean", "shape": [128], "dtype": "float32", "quantization": {"min": -0.2007921612730213, "scale": 0.0028684594467574473, "dtype": "uint8"}}, {"name": "411/moving_variance", "shape": [128], "dtype": "float32", "quantization": {"min": 0.008721423335373402, "scale": 0.0001400886760915027, "dtype": "uint8"}}, {"name": "413/kernel", "shape": [1, 1, 128, 512], "dtype": "float32", "quantization": {"min": -0.252914401362924, "scale": 0.0021616615501104616, "dtype": "uint8"}}, {"name": "414/gamma", "shape": [512], "dtype": "float32", "quantization": {"min": -0.05726178662449705, "scale": 0.0014315446656124264, "dtype": "uint8"}}, {"name": "414/beta", "shape": [512], "dtype": "float32", "quantization": {"min": -0.20947236091482874, "scale": 0.0012108228954614377, "dtype": "uint8"}}, {"name": "414/moving_mean", "shape": [512], "dtype": "float32", "quantization": {"min": -0.13622784334070542, "scale": 0.0009204584009507123, "dtype": "uint8"}}, {"name": "414/moving_variance", "shape": [512], "dtype": "float32", "quantization": {"min": 9.33455303311348e-05, "scale": 1.5884995752689887e-05, "dtype": "uint8"}}, {"name": "417/kernel", "shape": [1, 1, 512, 256], "dtype": "float32", "quantization": {"min": -0.34896329781588387, "scale": 0.0027051418435339834, "dtype": "uint8"}}, {"name": "418/gamma", "shape": [256], "dtype": "float32", "quantization": {"min": 0.1524692177772522, "scale": 0.0007038543037339753, "dtype": "uint8"}}, {"name": "418/beta", "shape": [256], "dtype": "float32", "quantization": {"min": -0.3825264077560574, "scale": 0.002034714934872646, "dtype": "uint8"}}, {"name": "418/moving_mean", "shape": [256], "dtype": "float32", "quantization": {"min": -0.3695391991559197, "scale": 0.0025662444385827756, "dtype": "uint8"}}, {"name": "418/moving_variance", "shape": [256], "dtype": "float32", "quantization": {"min": 0.01801818609237671, "scale": 0.0002600941587896908, "dtype": "uint8"}}, {"name": "420/kernel", "shape": [3, 3, 256, 256], "dtype": "float32", "quantization": {"min": -0.21254867771092584, "scale": 0.0016476641683017506, "dtype": "uint8"}}, {"name": "421/gamma", "shape": [256], "dtype": "float32", "quantization": {"min": 0.12565603852272034, "scale": 0.0007941974144355924, "dtype": "uint8"}}, {"name": "421/beta", "shape": [256], "dtype": "float32", "quantization": {"min": -0.18348249793052673, "scale": 0.0017988480189267326, "dtype": "uint8"}}, {"name": "421/moving_mean", "shape": [256], "dtype": "float32", "quantization": {"min": -0.3160969664068783, "scale": 0.0023946739879308963, "dtype": "uint8"}}, {"name": "421/moving_variance", "shape": [256], "dtype": "float32", "quantization": {"min": 0.01717657409608364, "scale": 0.00035352801137110765, "dtype": "uint8"}}, {"name": "423/kernel", "shape": [1, 1, 256, 1024], "dtype": "float32", "quantization": {"min": -0.28990831094629627, "scale": 0.0024159025912191354, "dtype": "uint8"}}, {"name": "424/gamma", "shape": [1024], "dtype": "float32", "quantization": {"min": -0.00547929119099589, "scale": 0.0013698227977489725, "dtype": "uint8"}}, {"name": "424/beta", "shape": [1024], "dtype": "float32", "quantization": {"min": -0.12526130360715532, "scale": 0.001159826885251438, "dtype": "uint8"}}, {"name": "424/moving_mean", "shape": [1024], "dtype": "float32", "quantization": {"min": -0.3531274122350356, "scale": 0.002504449732163373, "dtype": "uint8"}}, {"name": "424/moving_variance", "shape": [1024], "dtype": "float32", "quantization": {"min": 2.2876384624505655e-14, "scale": 6.090217434299137e-05, "dtype": "uint8"}}, {"name": "425/kernel", "shape": [1, 1, 512, 1024], "dtype": "float32", "quantization": {"min": -0.2968224649335824, "scale": 0.002432971024045757, "dtype": "uint8"}}, {"name": "426/gamma", "shape": [1024], "dtype": "float32", "quantization": {"min": -0.0743571862578392, "scale": 0.0014579840442713568, "dtype": "uint8"}}, {"name": "426/beta", "shape": [1024], "dtype": "float32", "quantization": {"min": -0.12526130360715532, "scale": 0.001159826885251438, "dtype": "uint8"}}, {"name": "426/moving_mean", "shape": [1024], "dtype": "float32", "quantization": {"min": -0.28177761003082874, "scale": 0.0022013875783658495, "dtype": "uint8"}}, {"name": "426/moving_variance", "shape": [1024], "dtype": "float32", "quantization": {"min": 2.2894097777498637e-14, "scale": 0.0001992178606051127, "dtype": "uint8"}}, {"name": "429/kernel", "shape": [1, 1, 1024, 256], "dtype": "float32", "quantization": {"min": -0.19611924290657043, "scale": 0.0019227376755546121, "dtype": "uint8"}}, {"name": "430/gamma", "shape": [256], "dtype": "float32", "quantization": {"min": 0.0977056547999382, "scale": 0.0008722193393052793, "dtype": "uint8"}}, {"name": "430/beta", "shape": [256], "dtype": "float32", "quantization": {"min": -0.14401868990823335, "scale": 0.0012204973721036724, "dtype": "uint8"}}, {"name": "430/moving_mean", "shape": [256], "dtype": "float32", "quantization": {"min": -0.8851557843825396, "scale": 0.005463924594953948, "dtype": "uint8"}}, {"name": "430/moving_variance", "shape": [256], "dtype": "float32", "quantization": {"min": 0.009807619266211987, "scale": 0.0006102509248782607, "dtype": "uint8"}}, {"name": "432/kernel", "shape": [3, 3, 256, 256], "dtype": "float32", "quantization": {"min": -0.19596926534877104, "scale": 0.001814530234710843, "dtype": "uint8"}}, {"name": "433/gamma", "shape": [256], "dtype": "float32", "quantization": {"min": 0.10631907731294632, "scale": 0.0012213602662086488, "dtype": "uint8"}}, {"name": "433/beta", "shape": [256], "dtype": "float32", "quantization": {"min": -0.3748284437492782, "scale": 0.0023281269798091815, "dtype": "uint8"}}, {"name": "433/moving_mean", "shape": [256], "dtype": "float32", "quantization": {"min": -0.9167444991130456, "scale": 0.005624199381061629, "dtype": "uint8"}}, {"name": "433/moving_variance", "shape": [256], "dtype": "float32", "quantization": {"min": 0.010755601339042187, "scale": 0.0003952736838483343, "dtype": "uint8"}}, {"name": "435/kernel", "shape": [1, 1, 256, 1024], "dtype": "float32", "quantization": {"min": -0.511129733394174, "scale": 0.003786146173290178, "dtype": "uint8"}}, {"name": "436/gamma", "shape": [1024], "dtype": "float32", "quantization": {"min": -0.03638291592691459, "scale": 0.0018191457963457295, "dtype": "uint8"}}, {"name": "436/beta", "shape": [1024], "dtype": "float32", "quantization": {"min": -0.2091766549091713, "scale": 0.0014730750345716289, "dtype": "uint8"}}, {"name": "436/moving_mean", "shape": [1024], "dtype": "float32", "quantization": {"min": -0.17514610623612123, "scale": 0.0013168880168129417, "dtype": "uint8"}}, {"name": "436/moving_variance", "shape": [1024], "dtype": "float32", "quantization": {"min": 4.0442924009731485e-10, "scale": 7.683909978698358e-05, "dtype": "uint8"}}, {"name": "439/kernel", "shape": [1, 1, 1024, 256], "dtype": "float32", "quantization": {"min": -0.20174459470253364, "scale": 0.0018854635018928378, "dtype": "uint8"}}, {"name": "440/gamma", "shape": [256], "dtype": "float32", "quantization": {"min": 0.0928763672709465, "scale": 0.0005971229251693277, "dtype": "uint8"}}, {"name": "440/beta", "shape": [256], "dtype": "float32", "quantization": {"min": -0.23522927165031432, "scale": 0.0014170438051223754, "dtype": "uint8"}}, {"name": "440/moving_mean", "shape": [256], "dtype": "float32", "quantization": {"min": -0.22868613250115338, "scale": 0.0018744764959110934, "dtype": "uint8"}}, {"name": "440/moving_variance", "shape": [256], "dtype": "float32", "quantization": {"min": 0.008509245701134205, "scale": 0.00024541211405805513, "dtype": "uint8"}}, {"name": "442/kernel", "shape": [3, 3, 256, 256], "dtype": "float32", "quantization": {"min": -0.21635940261915618, "scale": 0.0016643030970704322, "dtype": "uint8"}}, {"name": "443/gamma", "shape": [256], "dtype": "float32", "quantization": {"min": 0.10478737205266953, "scale": 0.0008366422618136687, "dtype": "uint8"}}, {"name": "443/beta", "shape": [256], "dtype": "float32", "quantization": {"min": -0.2200861625811633, "scale": 0.0017606893006493064, "dtype": "uint8"}}, {"name": "443/moving_mean", "shape": [256], "dtype": "float32", "quantization": {"min": -0.368213486437704, "scale": 0.002832411434136185, "dtype": "uint8"}}, {"name": "443/moving_variance", "shape": [256], "dtype": "float32", "quantization": {"min": 0.007711793761700392, "scale": 0.00020784973988638206, "dtype": "uint8"}}, {"name": "445/kernel", "shape": [1, 1, 256, 1024], "dtype": "float32", "quantization": {"min": -0.3442447740657657, "scale": 0.0025883065719230504, "dtype": "uint8"}}, {"name": "446/gamma", "shape": [1024], "dtype": "float32", "quantization": {"min": -0.05064338436898064, "scale": 0.0012352044968044057, "dtype": "uint8"}}, {"name": "446/beta", "shape": [1024], "dtype": "float32", "quantization": {"min": -0.2581466693504184, "scale": 0.001613416683440115, "dtype": "uint8"}}, {"name": "446/moving_mean", "shape": [1024], "dtype": "float32", "quantization": {"min": -0.0931901819565717, "scale": 0.0006471540413650812, "dtype": "uint8"}}, {"name": "446/moving_variance", "shape": [1024], "dtype": "float32", "quantization": {"min": 0.00011861210077768192, "scale": 2.4603099896636446e-05, "dtype": "uint8"}}, {"name": "449/kernel", "shape": [1, 1, 1024, 256], "dtype": "float32", "quantization": {"min": -0.2059144130524467, "scale": 0.0017599522483115102, "dtype": "uint8"}}, {"name": "450/gamma", "shape": [256], "dtype": "float32", "quantization": {"min": 0.09498051553964615, "scale": 0.0005730325977007548, "dtype": "uint8"}}, {"name": "450/beta", "shape": [256], "dtype": "float32", "quantization": {"min": -0.2556706093105615, "scale": 0.0014778647937026678, "dtype": "uint8"}}, {"name": "450/moving_mean", "shape": [256], "dtype": "float32", "quantization": {"min": -0.23627239413121168, "scale": 0.0014859899001963, "dtype": "uint8"}}, {"name": "450/moving_variance", "shape": [256], "dtype": "float32", "quantization": {"min": 0.008348452858626842, "scale": 0.0001729501849588226, "dtype": "uint8"}}, {"name": "452/kernel", "shape": [3, 3, 256, 256], "dtype": "float32", "quantization": {"min": -0.15962074469117557, "scale": 0.0016980930286295275, "dtype": "uint8"}}, {"name": "453/gamma", "shape": [256], "dtype": "float32", "quantization": {"min": 0.0953759178519249, "scale": 0.0006429754343687319, "dtype": "uint8"}}, {"name": "453/beta", "shape": [256], "dtype": "float32", "quantization": {"min": -0.20921556493815255, "scale": 0.001561310186105616, "dtype": "uint8"}}, {"name": "453/moving_mean", "shape": [256], "dtype": "float32", "quantization": {"min": -0.1993042210737864, "scale": 0.0019733091195424397, "dtype": "uint8"}}, {"name": "453/moving_variance", "shape": [256], "dtype": "float32", "quantization": {"min": 0.00609726645052433, "scale": 0.0001351262059281854, "dtype": "uint8"}}, {"name": "455/kernel", "shape": [1, 1, 256, 1024], "dtype": "float32", "quantization": {"min": -0.2502750706438925, "scale": 0.0022148236340167474, "dtype": "uint8"}}, {"name": "456/gamma", "shape": [1024], "dtype": "float32", "quantization": {"min": -0.04941096672532606, "scale": 0.0013354315331169204, "dtype": "uint8"}}, {"name": "456/beta", "shape": [1024], "dtype": "float32", "quantization": {"min": -0.22403396017411176, "scale": 0.0014361151293212293, "dtype": "uint8"}}, {"name": "456/moving_mean", "shape": [1024], "dtype": "float32", "quantization": {"min": -0.07611708904013914, "scale": 0.0005900549537995282, "dtype": "uint8"}}, {"name": "456/moving_variance", "shape": [1024], "dtype": "float32", "quantization": {"min": 0.0001218868128489703, "scale": 5.0668327215438085e-05, "dtype": "uint8"}}, {"name": "459/kernel", "shape": [1, 1, 1024, 256], "dtype": "float32", "quantization": {"min": -0.21292915811725693, "scale": 0.0019011531974755082, "dtype": "uint8"}}, {"name": "460/gamma", "shape": [256], "dtype": "float32", "quantization": {"min": 0.08999919146299362, "scale": 0.0006833202990831113, "dtype": "uint8"}}, {"name": "460/beta", "shape": [256], "dtype": "float32", "quantization": {"min": -0.32785647581605354, "scale": 0.0017915654416177788, "dtype": "uint8"}}, {"name": "460/moving_mean", "shape": [256], "dtype": "float32", "quantization": {"min": -0.29071424331735163, "scale": 0.0015886024224991892, "dtype": "uint8"}}, {"name": "460/moving_variance", "shape": [256], "dtype": "float32", "quantization": {"min": 0.008856406435370445, "scale": 0.00011926663710790522, "dtype": "uint8"}}, {"name": "462/kernel", "shape": [3, 3, 256, 256], "dtype": "float32", "quantization": {"min": -0.18851831643020406, "scale": 0.0014613822979085585, "dtype": "uint8"}}, {"name": "463/gamma", "shape": [256], "dtype": "float32", "quantization": {"min": 0.09251891076564789, "scale": 0.0006679733009899364, "dtype": "uint8"}}, {"name": "463/beta", "shape": [256], "dtype": "float32", "quantization": {"min": -0.3182115274317124, "scale": 0.0021214101828780827, "dtype": "uint8"}}, {"name": "463/moving_mean", "shape": [256], "dtype": "float32", "quantization": {"min": -0.18158583623521468, "scale": 0.001665925103075364, "dtype": "uint8"}}, {"name": "463/moving_variance", "shape": [256], "dtype": "float32", "quantization": {"min": 0.0052141896449029446, "scale": 7.863865215696541e-05, "dtype": "uint8"}}, {"name": "465/kernel", "shape": [1, 1, 256, 1024], "dtype": "float32", "quantization": {"min": -0.23157680174883677, "scale": 0.0021442296458225626, "dtype": "uint8"}}, {"name": "466/gamma", "shape": [1024], "dtype": "float32", "quantization": {"min": -0.043421974427559795, "scale": 0.001142683537567363, "dtype": "uint8"}}, {"name": "466/beta", "shape": [1024], "dtype": "float32", "quantization": {"min": -0.3101319092161515, "scale": 0.001676388698465684, "dtype": "uint8"}}, {"name": "466/moving_mean", "shape": [1024], "dtype": "float32", "quantization": {"min": -0.09649155499304042, "scale": 0.0008247141452396617, "dtype": "uint8"}}, {"name": "466/moving_variance", "shape": [1024], "dtype": "float32", "quantization": {"min": 0.00010837524314410985, "scale": 2.2532084075660974e-05, "dtype": "uint8"}}, {"name": "469/kernel", "shape": [1, 1, 1024, 256], "dtype": "float32", "quantization": {"min": -0.22260352092630725, "scale": 0.002473372454736747, "dtype": "uint8"}}, {"name": "470/gamma", "shape": [256], "dtype": "float32", "quantization": {"min": 0.08586598187685013, "scale": 0.0008567143596854864, "dtype": "uint8"}}, {"name": "470/beta", "shape": [256], "dtype": "float32", "quantization": {"min": -0.3032206988217784, "scale": 0.0017527208024380255, "dtype": "uint8"}}, {"name": "470/moving_mean", "shape": [256], "dtype": "float32", "quantization": {"min": -0.19568665202926186, "scale": 0.001207942296476925, "dtype": "uint8"}}, {"name": "470/moving_variance", "shape": [256], "dtype": "float32", "quantization": {"min": 0.007757564075291157, "scale": 0.0001467254049345559, "dtype": "uint8"}}, {"name": "472/kernel", "shape": [3, 3, 256, 256], "dtype": "float32", "quantization": {"min": -0.2263065127765431, "scale": 0.0017015527276431812, "dtype": "uint8"}}, {"name": "473/gamma", "shape": [256], "dtype": "float32", "quantization": {"min": 0.119569793343544, "scale": 0.0015367065574608597, "dtype": "uint8"}}, {"name": "473/beta", "shape": [256], "dtype": "float32", "quantization": {"min": -0.4035683225182926, "scale": 0.0022545716341804056, "dtype": "uint8"}}, {"name": "473/moving_mean", "shape": [256], "dtype": "float32", "quantization": {"min": -0.29071970289828736, "scale": 0.00196432231688032, "dtype": "uint8"}}, {"name": "473/moving_variance", "shape": [256], "dtype": "float32", "quantization": {"min": 0.005916005931794643, "scale": 0.00029943290659609965, "dtype": "uint8"}}, {"name": "475/kernel", "shape": [1, 1, 256, 1024], "dtype": "float32", "quantization": {"min": -0.328790667477776, "scale": 0.002331848705516142, "dtype": "uint8"}}, {"name": "476/gamma", "shape": [1024], "dtype": "float32", "quantization": {"min": -0.07388302800702114, "scale": 0.0014776605601404228, "dtype": "uint8"}}, {"name": "476/beta", "shape": [1024], "dtype": "float32", "quantization": {"min": -0.36980972979582993, "scale": 0.0019062357205970615, "dtype": "uint8"}}, {"name": "476/moving_mean", "shape": [1024], "dtype": "float32", "quantization": {"min": -0.10655548563774896, "scale": 0.0007248672492363874, "dtype": "uint8"}}, {"name": "476/moving_variance", "shape": [1024], "dtype": "float32", "quantization": {"min": 0.00014909628953319043, "scale": 7.796593988542536e-05, "dtype": "uint8"}}, {"name": "479/kernel", "shape": [1, 1, 1024, 512], "dtype": "float32", "quantization": {"min": -0.3270286398775437, "scale": 0.0026587694298987295, "dtype": "uint8"}}, {"name": "480/gamma", "shape": [512], "dtype": "float32", "quantization": {"min": 0.11106419563293457, "scale": 0.0007202301539626775, "dtype": "uint8"}}, {"name": "480/beta", "shape": [512], "dtype": "float32", "quantization": {"min": -0.34131889132892385, "scale": 0.0018962160629384657, "dtype": "uint8"}}, {"name": "480/moving_mean", "shape": [512], "dtype": "float32", "quantization": {"min": -0.1627083888825248, "scale": 0.0010043727708797829, "dtype": "uint8"}}, {"name": "480/moving_variance", "shape": [512], "dtype": "float32", "quantization": {"min": 0.008245155215263367, "scale": 0.00017365987102190654, "dtype": "uint8"}}, {"name": "482/kernel", "shape": [3, 3, 512, 512], "dtype": "float32", "quantization": {"min": -0.30485069003759646, "scale": 0.002796795321445839, "dtype": "uint8"}}, {"name": "483/gamma", "shape": [512], "dtype": "float32", "quantization": {"min": 0.14184892177581787, "scale": 0.0006442344656177596, "dtype": "uint8"}}, {"name": "483/beta", "shape": [512], "dtype": "float32", "quantization": {"min": -0.18413642247517906, "scale": 0.0013539442829057283, "dtype": "uint8"}}, {"name": "483/moving_mean", "shape": [512], "dtype": "float32", "quantization": {"min": -0.18854993511648738, "scale": 0.0014284085993673287, "dtype": "uint8"}}, {"name": "483/moving_variance", "shape": [512], "dtype": "float32", "quantization": {"min": 0.011544798500835896, "scale": 0.0008703310517411606, "dtype": "uint8"}}, {"name": "485/kernel", "shape": [1, 1, 512, 2048], "dtype": "float32", "quantization": {"min": -0.2555654946495505, "scale": 0.002366347172681023, "dtype": "uint8"}}, {"name": "486/gamma", "shape": [2048], "dtype": "float32", "quantization": {"min": 0.035269785672426224, "scale": 0.0023316119669699203, "dtype": "uint8"}}, {"name": "486/beta", "shape": [2048], "dtype": "float32", "quantization": {"min": -0.14128980689189014, "scale": 0.0012962367604760563, "dtype": "uint8"}}, {"name": "486/moving_mean", "shape": [2048], "dtype": "float32", "quantization": {"min": -0.13084180951118468, "scale": 0.001282762838344948, "dtype": "uint8"}}, {"name": "486/moving_variance", "shape": [2048], "dtype": "float32", "quantization": {"min": 0.0003767410817090422, "scale": 0.0001507455130409011, "dtype": "uint8"}}, {"name": "487/kernel", "shape": [1, 1, 1024, 2048], "dtype": "float32", "quantization": {"min": -0.36756867041774827, "scale": 0.004039216158436794, "dtype": "uint8"}}, {"name": "488/gamma", "shape": [2048], "dtype": "float32", "quantization": {"min": 0.13815045356750488, "scale": 0.002928744110406614, "dtype": "uint8"}}, {"name": "488/beta", "shape": [2048], "dtype": "float32", "quantization": {"min": -0.14128980689189014, "scale": 0.0012962367604760563, "dtype": "uint8"}}, {"name": "488/moving_mean", "shape": [2048], "dtype": "float32", "quantization": {"min": -0.12619712931268356, "scale": 0.0008887121782583349, "dtype": "uint8"}}, {"name": "488/moving_variance", "shape": [2048], "dtype": "float32", "quantization": {"min": 0.0006993009010329843, "scale": 0.0001746802914924189, "dtype": "uint8"}}, {"name": "491/kernel", "shape": [1, 1, 2048, 512], "dtype": "float32", "quantization": {"min": -0.4309766320621266, "scale": 0.004489339917313819, "dtype": "uint8"}}, {"name": "492/gamma", "shape": [512], "dtype": "float32", "quantization": {"min": 0.10239113867282867, "scale": 0.0007317766839382695, "dtype": "uint8"}}, {"name": "492/beta", "shape": [512], "dtype": "float32", "quantization": {"min": -0.3141242779937445, "scale": 0.0017354932485842238, "dtype": "uint8"}}, {"name": "492/moving_mean", "shape": [512], "dtype": "float32", "quantization": {"min": -0.7363165266373578, "scale": 0.005843781957439348, "dtype": "uint8"}}, {"name": "492/moving_variance", "shape": [512], "dtype": "float32", "quantization": {"min": 0.06863782554864883, "scale": 0.0018423343113824432, "dtype": "uint8"}}, {"name": "494/kernel", "shape": [3, 3, 512, 512], "dtype": "float32", "quantization": {"min": -0.22430150543942173, "scale": 0.001590790818719303, "dtype": "uint8"}}, {"name": "495/gamma", "shape": [512], "dtype": "float32", "quantization": {"min": 0.14662320911884308, "scale": 0.0007081302357654945, "dtype": "uint8"}}, {"name": "495/beta", "shape": [512], "dtype": "float32", "quantization": {"min": -0.33528145621804634, "scale": 0.0016764072810902316, "dtype": "uint8"}}, {"name": "495/moving_mean", "shape": [512], "dtype": "float32", "quantization": {"min": -0.4803374416687909, "scale": 0.0036389200126423554, "dtype": "uint8"}}, {"name": "495/moving_variance", "shape": [512], "dtype": "float32", "quantization": {"min": 0.009084148332476616, "scale": 0.000364736460295378, "dtype": "uint8"}}, {"name": "497/kernel", "shape": [1, 1, 512, 2048], "dtype": "float32", "quantization": {"min": -0.21448239888630663, "scale": 0.0018650643381417967, "dtype": "uint8"}}, {"name": "498/gamma", "shape": [2048], "dtype": "float32", "quantization": {"min": 0.13668511807918549, "scale": 0.002322832568019044, "dtype": "uint8"}}, {"name": "498/beta", "shape": [2048], "dtype": "float32", "quantization": {"min": -0.19125035019481884, "scale": 0.0015423415338291842, "dtype": "uint8"}}, {"name": "498/moving_mean", "shape": [2048], "dtype": "float32", "quantization": {"min": -0.17913952095835817, "scale": 0.001261545922241959, "dtype": "uint8"}}, {"name": "498/moving_variance", "shape": [2048], "dtype": "float32", "quantization": {"min": 0.0003858552372548729, "scale": 8.670567550842523e-05, "dtype": "uint8"}}, {"name": "501/kernel", "shape": [1, 1, 2048, 512], "dtype": "float32", "quantization": {"min": -0.4520729184150696, "scale": 0.003013819456100464, "dtype": "uint8"}}, {"name": "502/gamma", "shape": [512], "dtype": "float32", "quantization": {"min": 0.10812477767467499, "scale": 0.0014681282581067553, "dtype": "uint8"}}, {"name": "502/beta", "shape": [512], "dtype": "float32", "quantization": {"min": -0.324188161130045, "scale": 0.0016209408056502249, "dtype": "uint8"}}, {"name": "502/moving_mean", "shape": [512], "dtype": "float32", "quantization": {"min": -0.639262622945449, "scale": 0.008195674653146781, "dtype": "uint8"}}, {"name": "502/moving_variance", "shape": [512], "dtype": "float32", "quantization": {"min": 0.11407910287380219, "scale": 0.011537098943018445, "dtype": "uint8"}}, {"name": "504/kernel", "shape": [3, 3, 512, 512], "dtype": "float32", "quantization": {"min": -0.15083677549572552, "scale": 0.0009486589653819215, "dtype": "uint8"}}, {"name": "505/gamma", "shape": [512], "dtype": "float32", "quantization": {"min": 0.1335684359073639, "scale": 0.0008011921948077632, "dtype": "uint8"}}, {"name": "505/beta", "shape": [512], "dtype": "float32", "quantization": {"min": -0.2816891941369749, "scale": 0.00196985450445437, "dtype": "uint8"}}, {"name": "505/moving_mean", "shape": [512], "dtype": "float32", "quantization": {"min": -0.1858887058847091, "scale": 0.0015236779170877794, "dtype": "uint8"}}, {"name": "505/moving_variance", "shape": [512], "dtype": "float32", "quantization": {"min": 0.005862128455191851, "scale": 0.0001193764729096609, "dtype": "uint8"}}, {"name": "507/kernel", "shape": [1, 1, 512, 2048], "dtype": "float32", "quantization": {"min": -0.14555540131587608, "scale": 0.0016540386513167736, "dtype": "uint8"}}, {"name": "508/gamma", "shape": [2048], "dtype": "float32", "quantization": {"min": 0.12081243097782135, "scale": 0.004657669102444369, "dtype": "uint8"}}, {"name": "508/beta", "shape": [2048], "dtype": "float32", "quantization": {"min": -0.16032945595535578, "scale": 0.0012929794835109336, "dtype": "uint8"}}, {"name": "508/moving_mean", "shape": [2048], "dtype": "float32", "quantization": {"min": -0.07191951531989901, "scale": 0.000733872605305092, "dtype": "uint8"}}, {"name": "508/moving_variance", "shape": [2048], "dtype": "float32", "quantization": {"min": 0.0002369246503803879, "scale": 0.00022665005138454338, "dtype": "uint8"}}, {"name": "511/kernel", "shape": [3, 3, 256, 256], "dtype": "float32", "quantization": {"min": -0.3635835998198565, "scale": 0.00242389066546571, "dtype": "uint8"}}, {"name": "512/kernel", "shape": [3, 3, 512, 256], "dtype": "float32", "quantization": {"min": -0.33605720418341023, "scale": 0.0021135673219082403, "dtype": "uint8"}}, {"name": "513/kernel", "shape": [3, 3, 1024, 256], "dtype": "float32", "quantization": {"min": -0.4246123454150032, "scale": 0.002468676426831414, "dtype": "uint8"}}, {"name": "514/kernel", "shape": [3, 3, 2048, 256], "dtype": "float32", "quantization": {"min": -0.23507230422076056, "scale": 0.0018222659241919424, "dtype": "uint8"}}, {"name": "516/kernel", "shape": [3, 3, 256, 256], "dtype": "float32", "quantization": {"min": -0.19783150168026195, "scale": 0.0015455586068770465, "dtype": "uint8"}}, {"name": "516/bias", "shape": [256], "dtype": "float32", "quantization": {"min": -0.18444750951785668, "scale": 0.0011977111007653032, "dtype": "uint8"}}, {"name": "518/kernel", "shape": [3, 3, 256, 256], "dtype": "float32", "quantization": {"min": -0.647503918058732, "scale": 0.0032702218083774342, "dtype": "uint8"}}, {"name": "548/kernel", "shape": [3, 3, 256, 256], "dtype": "float32", "quantization": {"min": -0.2809421875897576, "scale": 0.001950987413817761, "dtype": "uint8"}}, {"name": "548/bias", "shape": [256], "dtype": "float32", "quantization": {"min": -0.11633096118183697, "scale": 0.0013070894514813144, "dtype": "uint8"}}, {"name": "550/kernel", "shape": [3, 3, 256, 256], "dtype": "float32", "quantization": {"min": -0.38308528591604796, "scale": 0.002321729005551806, "dtype": "uint8"}}, {"name": "554/kernel", "shape": [3, 3, 256, 256], "dtype": "float32", "quantization": {"min": -0.2809421875897576, "scale": 0.001950987413817761, "dtype": "uint8"}}, {"name": "554/bias", "shape": [256], "dtype": "float32", "quantization": {"min": -0.11633096118183697, "scale": 0.0013070894514813144, "dtype": "uint8"}}, {"name": "556/kernel", "shape": [3, 3, 256, 256], "dtype": "float32", "quantization": {"min": -0.38308528591604796, "scale": 0.002321729005551806, "dtype": "uint8"}}, {"name": "586/kernel", "shape": [3, 3, 256, 256], "dtype": "float32", "quantization": {"min": -0.337934809923172, "scale": 0.0023967007795969645, "dtype": "uint8"}}, {"name": "586/bias", "shape": [256], "dtype": "float32", "quantization": {"min": -0.19528720004885805, "scale": 0.00131950810843823, "dtype": "uint8"}}, {"name": "588/kernel", "shape": [3, 3, 256, 256], "dtype": "float32", "quantization": {"min": -0.4810076881857479, "scale": 0.0030062980511609246, "dtype": "uint8"}}, {"name": "592/kernel", "shape": [3, 3, 256, 256], "dtype": "float32", "quantization": {"min": -0.337934809923172, "scale": 0.0023967007795969645, "dtype": "uint8"}}, {"name": "592/bias", "shape": [256], "dtype": "float32", "quantization": {"min": -0.19528720004885805, "scale": 0.00131950810843823, "dtype": "uint8"}}, {"name": "594/kernel", "shape": [3, 3, 256, 256], "dtype": "float32", "quantization": {"min": -0.4810076881857479, "scale": 0.0030062980511609246, "dtype": "uint8"}}, {"name": "624/kernel", "shape": [3, 3, 256, 256], "dtype": "float32", "quantization": {"min": -1.259425558529648, "scale": 0.0062040667907864435, "dtype": "uint8"}}, {"name": "624/bias", "shape": [256], "dtype": "float32", "quantization": {"min": -0.1473413606484731, "scale": 0.0017334277723349777, "dtype": "uint8"}}, {"name": "626/kernel", "shape": [3, 3, 256, 256], "dtype": "float32", "quantization": {"min": -0.9842261791229248, "scale": 0.00745625893274943, "dtype": "uint8"}}, {"name": "630/kernel", "shape": [3, 3, 256, 256], "dtype": "float32", "quantization": {"min": -1.259425558529648, "scale": 0.0062040667907864435, "dtype": "uint8"}}, {"name": "630/bias", "shape": [256], "dtype": "float32", "quantization": {"min": -0.1473413606484731, "scale": 0.0017334277723349777, "dtype": "uint8"}}, {"name": "632/kernel", "shape": [3, 3, 256, 256], "dtype": "float32", "quantization": {"min": -0.9842261791229248, "scale": 0.00745625893274943, "dtype": "uint8"}}, {"name": "661/kernel", "shape": [3, 3, 256, 128], "dtype": "float32", "quantization": {"min": -1.1951580487045588, "scale": 0.008919089915705662, "dtype": "uint8"}}, {"name": "661/bias", "shape": [128], "dtype": "float32", "quantization": {"min": -0.08222211523383272, "scale": 0.0006474182301876592, "dtype": "uint8"}}, {"name": "662/kernel", "shape": [3, 3, 128, 1], "dtype": "float32", "quantization": {"min": -0.00024011021071369305, "scale": 1.9208816857095443e-06, "dtype": "uint8"}}, {"name": "662/bias", "shape": [1], "dtype": "float32", "quantization": {"min": 0.014858935959637165, "scale": 1.0, "dtype": "uint8"}}]}]}